time_evolution/models/ConvNextFramePredictor_v2/model_weight.ckpt (torch, 701675 bytes, 55 tensors)

encoder.downsample_blocks.0.0.weight f4 [32]
000000 06 7d 4a 3f 92 3c 48 3f 3d df 47 3f 0d b2 56 3f
       0.7909702 0.7821742 0.7807501 0.83865434
000010 a6 d3 55 3f 25 36 57 3f db 32 72 3f 81 3d 55 3f
       0.83526075 0.84066993 0.9460885 0.8329697
000020 57 93 73 3f d2 52 4b 3f cc a3 45 3f 64 2b 54 3f
       0.951467 0.7942325 0.7720306 0.8287871
000030 8e a6 56 3f 80 54 7c 3f 6c f1 46 3f 16 a9 41 3f
       0.8384789 0.98566437 0.7771213 0.7564863
000040 f7 16 7d 3f 12 f7 4e 3f 6d 93 4c 3f f9 4d 48 3f
       0.98863167 0.8084575 0.79912454 0.78243977
000050 49 a9 46 3f e3 0e 43 3f 71 da 4e 3f 61 b9 45 3f
       0.7760206 0.7619459 0.80802065 0.7723599
000060 12 34 56 3f 70 93 49 3f 4f ea 43 3f 07 be 50 3f
       0.83673203 0.78740597 0.765294 0.8153996
000070 bd 7a 80 3f 2c ca 66 3f 25 17 37 3f 07 5e 47 3f
       1.0037457 0.9015224 0.7151969 0.7787785

encoder.downsample_blocks.0.0.bias f4 [32]
000000 5c d4 45 bc de 07 e3 bc f4 2a 90 bc f8 a2 6a 3c
       -0.012074556 -0.027713712 -0.017598607 0.014321081
000010 bc fa 29 3d b8 82 96 bc 27 67 55 bb 24 c1 8f bc
       0.041498885 -0.018372878 -0.0032562704 -0.017548151
000020 b0 17 30 bd 80 f9 d9 3c 39 50 92 3c 57 57 a0 3c
       -0.04299134 0.026608229 0.017860519 0.019572897
000030 6c ad 81 3c 62 50 24 bc ba fc 73 3d 05 55 32 3c
       0.015829764 -0.01002893 0.05956719 0.010884528
000040 13 05 08 bd 4d c7 e2 bc 54 45 bc bc 19 66 64 3b
       -0.033207964 -0.027682925 -0.022982277 0.0034850894
000050 4a 7a 2a 3d 24 95 d5 3b 56 03 63 bb 02 c1 9e bc
       0.04162053 0.006518023 -0.003463944 -0.019379143
000060 1a 95 67 bd fc 34 1b 3c 04 33 3c bc 95 2b 05 bd
       -0.05653868 0.009473082 -0.011486772 -0.032512266
000070 da f2 41 bc d1 d1 1f 3c 85 66 13 3d 88 d0 a9 3c
       -0.0118376855 0.009754614 0.035986442 0.020729318

encoder.downsample_blocks.0.1.weight f4 [64, 32, 2, 2]
000000 73 19 74 3c 10 ba ff bd 6c c1 7a bd 12 ce d9 3d
       0.014898646 -0.124866605 -0.061219618 0.10635008
000010 a6 ed b3 3d 42 d0 87 bd 51 84 29 bd a2 29 02 3d
       0.08785562 -0.06631519 -0.041385952 0.031777985
000020 04 07 11 3d b1 e6 df 3c bc 69 1b 3e 0e 70 8a 3d
       0.03540708 0.027331682 0.15177053 0.06759654
000030 fb 21 f1 3d 63 3d 6f bd dd 4c 96 3c c2 fe a1 3c
       0.117740594 -0.058408152 0.018347198 0.019774798
000040 4a 81 ba bd eb 51 36 bb 33 d6 56 3d a4 f8 99 3c
       -0.09106691 -0.0027819823 0.05245037 0.018795319
000050 a5 af a9 bb 71 cb 9e 3c 3f 89 b7 3d 9c 09 21 bd
       -0.005178409 0.019384118 0.089617245 -0.039315805
000060 f4 76 a5 bd e3 22 be 3b 84 fc 46 be df b4 e2 bd
       -0.08079329 0.0058024987 -0.19432265 -0.11069655
000070 b3 04 d7 bc c3 ee 10 3e 92 be cd bd b7 cb e4 bd
       -0.026247358 0.1415358 -0.10046114 -0.11171668
000080 94 dd 3f 3d 41 a9 19 3d d3 0e 62 be 21 84 08 3d
       0.046842173 0.03751493 -0.22075967 0.033329133
000090 e9 f0 11 b9 2b 7b df 3b 10 a9 0b 3e de 60 ca 3c
       -0.00013918024 0.0068201027 0.13638711 0.024704393
0000a0 8d 0d 56 3c 9d 26 a8 3d b1 96 d0 3c 8b eb 12 bd
       0.013064754 0.0821049 0.02546248 -0.035869163
0000b0 0e b3 66 3d 48 20 c6 3a 6e 7c 68 3d a6 db a6 bb
       0.056323104 0.0015115822 0.05675929 -0.005092102
0000c0 44 71 14 bd c1 f5 ae 3d d9 f6 20 be e1 63 3c bd
       -0.03624083 0.085429676 -0.15719165 -0.04599369
0000d0 64 48 71 3c a4 ce c2 3d 0c 82 47 be 31 e2 04 be
       0.014726732 0.0951207 -0.19483203 -0.1297691
0000e0 b4 e0 0e be de 8c 1d bd 21 03 4a 3d 67 f1 58 3b
       -0.13952905 -0.03846442 0.04931939 0.0033102871
0000f0 12 42 68 3d 94 f8 fa bd 4b 74 0f 3d 03 84 5b 3d
       0.056703635 -0.12254444 0.035023015 0.053592693
000100 76 24 de bc 25 d3 46 3c c1 7f d9 bc ac f6 48 3d
       -0.027116995 0.012135302 -0.026550176 0.04906337
000110 8a 45 26 bd 56 1f 3e 3d 20 0a cc bd 86 ac a4 bd
       -0.04059366 0.046416603 -0.09962869 -0.08040719
000120 de 52 48 bd 6d 72 8d 3d 50 36 f7 bd dd 50 4e bd
       -0.048907153 0.069065906 -0.12070906 -0.050370086
000130 6b 22 d7 3d b1 31 81 bd 7a 67 1c 3e 6a 1b 62 3c
       0.105046116 -0.06308306 0.15273848 0.013800481
000140 05 00 21 bc 20 09 3c bc 5d d2 10 3e b4 98 6f 3d
       -0.009826665 -0.011476785 0.14142747 0.05849524
000150 a3 88 13 bd 77 2d 66 bd 5d f6 23 bd f1 33 e9 3b
       -0.03601898 -0.056195702 -0.040029872 0.0071167876
000160 59 04 bc 3d 9c 94 ad 3a c1 72 a4 bd 00 37 e3 bc
       0.09180517 0.0013243142 -0.080297 -0.027736187
000170 02 90 df 3c 2a 6e 36 bc 82 11 3c bd 6e 46 bd bb
       0.027290348 -0.011134664 -0.045915134 -0.005776218
000180 c1 9c 07 bd e8 cd c2 3c 8e a1 f6 bd d9 c7 c9 bc
       -0.033108477 0.023779824 -0.12042533 -0.024631428
000190 90 78 73 3d 13 9b 66 bd 4f f6 0d bc 98 b6 b7 bb
       0.05944115 -0.056300234 -0.008664682 -0.0056064837
0001a0 0d 7f ec 3c 37 16 46 bd 0e 42 25 3e ad 43 f1 3d
       0.028869176 -0.04836103 0.16138479 0.11780486
0001b0 82 3c 12 3d e5 80 ac 3b 1f 03 3b 3e 21 a5 96 3d
       0.035702236 0.005264389 0.1826291 0.073557146
0001c0 d1 8d 92 bd df da 87 3d 59 bc 49 be 38 0a 1c be
       -0.071559556 0.06633543 -0.19700755 -0.15238273
0001d0 6a 2a 97 bd 1d 8b b9 3c 22 25 13 bc a9 c5 d3 3c
       -0.07381137 0.022649342 -0.008981021 0.025851088
0001e0 37 88 b4 bb 9c 47 9d 3c 10 de 9c 3d f0 35 95 3c
       -0.005509402 0.019199185 0.076595426 0.018214196
0001f0 9d 50 77 3c f8 d3 1a bc f1 11 2c bc c5 84 ce 3c
       0.015094903 -0.009449951 -0.010502324 0.025209794
000200 0e df c1 bd 24 d8 a6 bc dc 3c 27 bd 6d 35 61 3c
       -0.094663724 -0.020366736 -0.040829524 0.013745648
000210 72 6e 0e 3d cc 06 2a 3e ea 51 83 3d 82 36 f6 3d
       0.034773298 0.16604155 0.06412108 0.12022115
000220 81 5a 80 bb c2 7f c1 3d 1d d1 b8 3c 1e d9 2a bc
       -0.003917039 0.09448196 0.02256065 -0.010427741
000230 e3 ad f8 3d 92 31 1f 3e 5c 1c 29 bd 85 b1 bc 3d
       0.12142541 0.15546253 -0.04128681 0.09213547
000240 1b 59 eb bd 92 23 30 bd 4f a3 1e bb a7 d1 83 bd
       -0.11491605 -0.043002672 -0.0024206226 -0.064364724
000250 bd 9c 87 3b b4 ac 75 3e 4e fe 9a 3d 06 bf 35 3e
       0.0041385577 0.23991662 0.07568036 0.17748651
000260 35 c4 d9 bc bc 63 2c be 8a ba 2a 3d f9 db 4a 3d
       -0.026582817 -0.1683492 0.041681804 0.04952619
000270 e9 e0 86 bd b6 dd 2b be b5 f9 56 bd d6 b1 01 be
       -0.06585867 -0.16783795 -0.052484233 -0.12665495
000280 c9 69 4c bd c9 3a f7 3d 9e 56 82 3c b1 e9 0f bd
       -0.049905572 0.12071759 0.015910443 -0.035134975
000290 60 4b 5c bc e0 32 a7 3d 76 47 e0 3c be d2 de 3d
       -0.013445705 0.081640005 0.027377825 0.1088004
0002a0 1b d0 23 3d d3 59 43 3e 50 a0 01 3c 10 0e eb 3d
       0.039993387 0.19077234 0.007911757 0.114772916
0002b0 75 c2 a7 3d d4 61 3b 3e 05 4a 87 bc 62 87 20 3e
       0.081913866 0.18299037 -0.016514787 0.15676644
0002c0 e0 8f 86 bc 14 3b 6b 3d fb da dd bc d8 5b 2c 3e
       -0.016426027 0.05742939 -0.027081957 0.1683191
0002d0 d0 11 b9 bd 23 bb b1 bd 93 6c 9e bd 9b a0 1d bd
       -0.090366006 -0.086782716 -0.07735553 -0.038483243
0002e0 ab 94 9f bd d0 c9 37 be 82 b6 73 bd c2 a0 b7 bd
       -0.07792028 -0.17948079 -0.059500225 -0.08966209
0002f0 af dd 0d be fb c0 38 be 44 87 56 bd b5 66 16 be
       -0.13854097 -0.18042366 -0.052375093 -0.14687617
000300 76 c6 99 3d 6a ca d5 3d ca fb 7c 3d a6 d2 03 bc
       0.075085565 0.10438998 0.061763562 -0.008045828
000310 c3 a4 e1 bd d6 3c 52 be 27 21 2f bb 78 52 fa bd
       -0.11017754 -0.2053102 -0.0026722641 -0.12222761
000320 aa 7d 19 be 6b bf 86 be 97 25 e2 3c 17 c1 13 be
       -0.14989343 -0.26317915 0.027605815 -0.14429127
000330 b0 26 ab bc 85 89 d6 3d a2 bf 87 3b 0a 4a c1 3d
       -0.020892471 0.104754485 0.0041427175 0.0943795
000340 b6 70 cc 3d 8d eb 2c 3d 8e 30 bf bb b4 e4 8d 3d
       0.099824354 0.042216826 -0.0058346456 0.06928387
000350 2c 9a 89 bd 7d 9b b7 3b 8f 62 94 3d 3c 67 c9 3c
       -0.06718859 0.0056032524 0.07245361 0.024585359
000360 14 65 21 3d c3 89 a5 bd df b2 6b bd fb 26 11 bd
       0.039403036 -0.080829166 -0.05754363 -0.035437565
000370 55 6f 87 3d cc 08 0c 3e 48 d2 50 3d da 88 ca 3b
       0.06613032 0.1367523 0.05098179 0.0061808648
000380 46 17 a6 bd 3b 07 83 be 43 bc 0b 3d 51 ff c9 bd
       -0.08109908 -0.25591454 0.034115087 -0.09863151
000390 2d 8c e9 3c f4 a7 d9 bd 98 dc fd 3d fd 3b d4 3d
       0.028509224 -0.10627738 0.123955905 0.10363004
0003a0 35 cd 0d 3d 4a 8c be 3d 0f f0 49 3c 2e 01 a7 3d
       0.03461953 0.09304102 0.012325301 0.08154522
0003b0 37 70 5a 3d 51 ef e1 3c 84 9b d3 bc f8 ff 58 3d
       0.053329673 0.027579935 -0.025830992 0.052978486
0003c0 a9 d7 16 be fd ce ff bc e9 3f 1d bd 35 b6 f1 bc
       -0.14730705 -0.03122663 -0.038391028 -0.029505828
0003d0 71 9e f6 3d 5d 97 dd 3d 57 60 71 3c 29 c1 23 3e
       0.12041939 0.10819886 0.014732442 0.15991654
0003e0 ea de 9b bd c9 43 bf bd 7d 7b 87 bd 8b 4f f1 bd
       -0.07610877 -0.09339101 -0.066153504 -0.1178275
0003f0 fa e5 9d 3d d0 24 44 bc 48 39 bc bc a2 17 25 be
       0.0770988 -0.011971667 -0.022976533 -0.16122296

encoder.downsample_blocks.0.1.bias f4 [64]
000000 5a 79 16 bf 87 18 41 3e da 80 9f bd 34 1a 61 3d
       -0.5877892 0.18857013 -0.07788248 0.05495663
000010 f8 24 a8 bc 30 99 e9 3c f5 40 b2 3e 4f 66 3c 3c
       -0.02052544 0.028515428 0.34815183 0.011499002
000020 fd 4e 16 3f 59 f0 b1 3d 80 a0 f9 3e 5e a5 e6 3e
       0.58714277 0.08688421 0.48755264 0.4504804
000030 05 d5 93 be 1e 77 ee 3c a6 c1 f8 bc 7f b2 0c 3b
       -0.28873459 0.029109534 -0.030365776 0.0021468697
000040 9c 68 b6 3c e1 54 99 bc 4d f6 a7 3d da cf bc 3d
       0.022266679 -0.018717231 0.08201275 0.09219332
000050 54 71 1c bc 59 60 c7 3b 54 cd 35 3d 02 22 d3 3d
       -0.009548504 0.0060844836 0.04438527 0.10309221
000060 16 e5 95 bd fb a5 f0 bd c2 68 bd be 68 f0 7a bd
       -0.07319085 -0.11750408 -0.36993986 -0.061264426
000070 fe 9a 3d bf 74 ec dc 3d 38 8a 91 be 2c 8f b9 3e
       -0.74064624 0.10787287 -0.28425765 0.36242044
000080 99 cf 73 bc 3c f0 01 3e 3b e9 1c bc 82 a2 39 3c
       -0.014881038 0.12689298 -0.009577091 0.011330249
000090 ba 79 be 3d 48 60 1c 3e f7 5f 91 bd ad 28 55 3b
       0.09300561 0.15271103 -0.07098382 0.0032525465
0000a0 d6 25 52 bd 5f 77 ef bc e1 f2 d2 bc d9 c5 37 3e
       -0.051305614 -0.029231725 -0.02575058 0.17946567
0000b0 2a 7f 39 be b6 5a 2e bc e4 48 22 be f5 5c a1 3b
       -0.18114915 -0.010641744 -0.15848118 0.0049244114
0000c0 c1 25 59 be 67 7a 9c 3e 4c a7 61 3d f1 57 18 bd
       -0.21205808 0.30562136 0.055091187 -0.037193242
0000d0 91 bd 2a bc 63 e3 a5 bd bc d4 1a 3d 44 76 2e bc
       -0.010421173 -0.08100011 0.037800536 -0.010648314
0000e0 5a d6 12 be a1 ad 7c bc 4b a1 83 bf 36 bc 8a bb
       -0.14339581 -0.015422256 -1.0283598 -0.0042338623
0000f0 c1 a9 dc 3d 22 e4 ba 3b 10 69 c9 bc be bc 03 be
       0.107745655 0.005703465 -0.02458623 -0.12864968

encoder.downsample_blocks.1.0.weight f4 [64]
000000 03 91 f0 3e c0 b4 0c 3f 5b ea 0f 3f b9 10 08 3f
       0.46985635 0.549633 0.56216973 0.53150517
000010 3a 92 f8 3e a3 d9 34 3f 37 fe 41 3f 8d 0c f9 3e
       0.48549062 0.7064459 0.75778526 0.48642388
000020 f0 3f 04 3f 76 91 ff 3e 41 e4 f7 3e 61 fd 28 3f
       0.5166006 0.49915665 0.4841633 0.66011626
000030 a6 5b 06 3f 8f 48 0e 3f 52 6c 1e 3f 93 77 ee 3e
       0.52483594 0.55579466 0.61884034 0.46575603
000040 83 da 01 3f 54 b1 f6 3e 33 00 0f 3f 9c a7 22 3f
       0.5072405 0.48182166 0.5585968 0.63537
000050 4a ce 27 3f ec 3a 02 3f 20 a9 05 3f 28 d7 f5 3e
       0.6554915 0.5087116 0.5221119 0.48015714
000060 df f4 f3 3e ac 60 01 3f 6d 23 1d 3f e1 f7 1d 3f
       0.4764776 0.50538135 0.6138218 0.6170636
000070 9b d2 1e 3f 85 f4 04 3f e4 fc 0f 3f 00 27 39 3f
       0.6204011 0.5193561 0.56245255 0.72325134
000080 05 d7 e0 3e 17 4d ef 3e 93 8d 0b 3f be 08 37 3f
       0.43914047 0.46738502 0.545129 0.71497715
000090 5e 62 2e 3f 47 6d 01 3f d2 43 e5 3e 4c b1 fd 3e
       0.68118846 0.5055737 0.44778305 0.4954933
0000a0 63 2f 2f 3f 31 1d f8 3e 9e 17 2f 3f e2 2d 0f 3f
       0.6843168 0.4845977 0.6839541 0.55929387
0000b0 a0 45 0d 3f e6 d2 19 3f 8e 32 42 3f 5d b4 f7 3e
       0.55184364 0.6008743 0.7585839 0.48379794
0000c0 37 9f 0c 3f f5 fa 0a 3f 62 7b 07 3f 47 34 21 3f
       0.5493044 0.5428918 0.5292264 0.62970394
0000d0 9f 67 0e 3f aa ba f4 3e c0 d6 e9 3e 51 96 e2 3e
       0.55626863 0.47798663 0.45671654 0.44255307
0000e0 5d 37 07 3f 97 90 30 3f 94 e4 19 3f 54 bc 20 3f
       0.5281885 0.68970627 0.6011441 0.62787366
0000f0 8a 49 0c 3f 78 09 df 3e a4 ae e1 3e 4d bd 14 3f
       0.5479971 0.43561912 0.44078553 0.5810135

encoder.downsample_blocks.1.0.bias f4 [64]
000000 b0 4b 9f 3c 6a 35 b5 bb bd 80 06 be e6 5b 88 3c
       0.01944527 -0.005530049 -0.13135047 0.016645383
000010 e9 7e 4a 3c 29 8e 61 bc 4e 1b b9 bd 9e 11 90 3b
       0.012359359 -0.013766804 -0.09038411 0.0043966314
000020 2e b1 ff bc 0e 4b 85 bd 9d 65 3b 3b 09 c1 c2 bd
       -0.031212416 -0.06508456 0.0028594502 -0.09509475
000030 61 81 83 3c 9c ba 10 be db ea 4b 3d 5f 4a 65 bc
       0.016052904 -0.14133686 0.049784523 -0.013994782
000040 60 26 2d be 31 fe cd 3c 48 dd e1 bd 18 23 75 bc
       -0.1690917 0.025145622 -0.11028534 -0.01496198
000050 8b 28 bf 3d 06 45 3c 3d 6f 83 02 bd 29 c0 82 3c
       0.09333905 0.045964263 -0.031863626 0.01596077
000060 cc 44 a5 3c 56 50 5c 3d 25 7d d3 bd 1c bd f6 3b
       0.020174406 0.05378755 -0.10326604 0.007529868
000070 0a 31 f6 3c eb e2 fc bc eb b3 0a 3d c8 be b7 bb
       0.03005268 -0.030869922 0.03386299 -0.0056074597
000080 f1 1c 6f bd 08 38 37 bd 02 47 6c 3c 9e 41 3e bc
       -0.05837721 -0.04473117 0.014421226 -0.011612324
000090 b8 1c 81 bd da 66 30 bb c5 8b a5 bc 6c 07 d0 3c
       -0.06304306 -0.0026916773 -0.020208249 0.025394164
0000a0 6d d6 e7 bc f2 be b9 3d 69 11 fa bb a7 c5 15 3c
       -0.028300488 0.09069623 -0.00763147 0.009141362
0000b0 a6 fc e4 3c 66 9c 8b 3c a1 af 21 3c 2a 48 0e 3c
       0.027952503 0.01704235 0.009868533 0.008684197
0000c0 7f 36 e8 3b 32 b0 58 3d b1 7c 06 3e fb e8 be bc
       0.0070865746 0.052902408 0.13133503 -0.023304453
0000d0 fe 6f bc 3d 00 9f c8 3c 4b 0c b1 bc a6 c5 fd 3c
       0.09201048 0.02448988 -0.021612307 0.030978035
0000e0 58 f6 a9 bb 17 6e 8c 3d ef 08 bb bd 14 f5 a9 bc
       -0.005186837 0.068569355 -0.09132563 -0.020746745
0000f0 95 d7 2f 3d e6 25 9e 3d 98 9f 38 bd 8a 66 c5 bd
       0.042930204 0.07722072 -0.045074075 -0.096386984

encoder.downsample_blocks.1.1.weight f4 [32, 64, 2, 2]
000000 68 8f 42 bc 5c e7 4c 3d dd 61 b6 bd 83 4b 29 bd
       -0.011875011 0.05002533 -0.08905385 -0.04133178
000010 03 32 90 bd 42 83 8d 3c 00 4f fa bd 06 a7 a1 3c
       -0.07040789 0.017274503 -0.12222099 0.019732963
000020 1b 96 97 3d 9e 80 85 3c 7c 4b 90 3d 28 7c 99 3d
       0.07401677 0.016296681 0.070456475 0.07494384
000030 3c 8d 6b 3c b2 f7 99 3a b2 06 82 bd 4c db db bc
       0.014376935 0.0011746793 -0.06348933 -0.026837967
000040 51 f2 de bc 0c ca 50 3c 62 0f f6 3c b3 48 9e ba
       -0.027215155 0.012743484 0.030036632 -0.0012076109
000050 43 18 62 bd 41 f2 bf bc d1 28 93 bd 95 3f e9 bc
       -0.05519892 -0.023430945 -0.071855195 -0.028472701
000060 5a 01 d7 3c 34 a6 41 3e 61 60 1e 3d c0 0e 76 3d
       0.026245762 0.18911058 0.038666133 0.06007266
000070 c8 89 c8 3c d9 a8 49 bd 29 16 fe 3d 0b 17 d3 bb
       0.024479762 -0.04923329 0.124065705 -0.006441956
000080 fd 54 d1 3b 3c 96 e3 3d 59 54 c5 bd 33 a6 c8 ba
       0.006388305 0.11112639 -0.09635229 -0.001530832
000090 59 d4 6a 3d 40 64 0e 3d 38 10 03 3d e0 59 90 bc
       0.057331417 0.034763575 0.03199789 -0.01762098
0000a0 1d 36 68 bd 11 85 aa bc 43 98 93 3d a9 34 64 bb
       -0.05669223 -0.020815404 0.07206776 -0.0034821427
0000b0 56 2c 0a 3c 2c d1 68 b9 63 ab c2 3a 7b bc 9d bb
       0.008433422 -0.00022203167 0.0014852103 -0.0048137284
0000c0 8d 84 15 bb 3c 14 1e 3d c2 6f 2e bd f4 a4 0c bc
       -0.0022814602 0.038593516 -0.04258705 -0.00858425
0000d0 ff d9 e1 3c cf 06 4f 3d 6a cd 2a 3d 66 fd 99 3c
       0.027569769 0.050543603 0.041699804 0.018797588
0000e0 bf a1 91 3c f4 0d 07 bd 9f 17 79 3d 81 15 7e 3c
       0.017777322 -0.03297229 0.060813542 0.015508057
0000f0 18 e1 5a 3b 42 8d 2c bd 51 ea d0 3d a9 6f 34 bd
       0.0033398326 -0.0421269 0.10200942 -0.0440518
000100 b4 7a 6f 3d c3 27 94 3c 52 f3 92 3c 50 92 a1 3c
       0.05846663 0.018085366 0.01793829 0.019723088
000110 7a 02 f2 3b 45 7d 28 3d c5 d1 15 3d fe 5e 45 bb
       0.007385549 0.04113509 0.036577005 -0.0030116434
000120 2d 1f c8 3b e7 0d 98 bb ac 1c 7e 3d ae e5 00 3c
       0.006107232 -0.004640329 0.062039062 0.00786726
000130 c8 37 16 bc 5c 91 7d bc 89 f0 aa 3c 8e e4 3b 3d
       -0.009168573 -0.015476551 0.02086665 0.045872264
000140 90 71 5d 3b 83 f4 a4 3b f6 ca a4 3d 5e 01 a6 3c
       0.0033789612 0.005034031 0.08046524 0.020264324
000150 eb 62 7b bb da e0 80 3d 9a 11 36 bd cd ce 7a bd
       -0.003835852 0.06292887 -0.04445038 -0.061232377
000160 c4 be 15 3d 08 41 72 bb d4 7c c9 3c 83 38 01 3d
       0.03655888 -0.0036965031 0.024595656 0.031548034
000170 4c 44 0b 3b 71 c3 1c bc 5c 66 21 3d fa f4 3e bd
       0.0021250425 -0.009568081 0.039404258 -0.046620347
000180 32 f8 99 3b d3 78 8d bc 06 fc c8 3d bf 47 7e bb
       0.0046987766 -0.017269528 0.09813695 -0.0038800088
000190 83 dd ea ba 32 a3 08 3d b4 92 06 bd cb 41 4a 3d
       -0.0017918799 0.03335876 -0.03285475 0.04937915
0001a0 0e 4e 00 bd 41 cf 58 bc b6 a4 63 bb d9 3e 35 3d
       -0.03132444 -0.013233007 -0.0034735627 0.04424939
0001b0 02 d9 5f 3d 33 8d 1c 3d 8a de a8 3b 4d 8e b8 3b
       0.054650314 0.038220596 0.005153482 0.005632198
0001c0 93 76 0f bd c4 73 8d bd 8e 5b 35 3d eb 20 38 bc
       -0.03502519 -0.06906846 0.044276766 -0.011238317
0001d0 87 88 4d bd 33 42 7d bd 9a fb 5b 3c 8c 47 19 bc
       -0.05017903 -0.06183071 0.013426686 -0.009355437
0001e0 82 03 27 3c 9e d4 04 3d 4f e1 8d bd a7 d7 13 3b
       0.010193707 0.03242933 -0.0692774 0.0022558959
0001f0 99 92 04 3d 24 db d1 bc da 1c 3c 3d 70 1f e2 3c
       0.03236637 -0.02561719 0.045925952 0.027602881
000200 3e e3 a9 3c 84 4f 3a bd cc 22 9c bc 3a 7a 61 3d
       0.02073824 -0.04548599 -0.019059561 0.055048205
000210 66 3d 00 bb 4e 6f f7 bc 82 75 52 3d 83 5c fa 3c
       -0.0019567846 -0.030204441 0.051381595 0.030561691
000220 4b 76 e4 3c 83 56 91 bd 32 2f ab 3d 93 e8 92 bb
       0.027888438 -0.07096579 0.08358611 -0.0044832914
000230 ba cd a2 bd e5 ce cd bd d5 ed 0d 3b 69 34 75 bd
       -0.079493955 -0.100492276 0.0021656652 -0.059864435
000240 60 e8 72 bd ca 57 ef bc 17 f2 19 bc 4f f3 f0 bc
       -0.05930364 -0.029216666 -0.009396098 -0.029412894
000250 ec 30 91 3c a6 40 52 bc fb 4b cb bd c7 33 3a 3d
       0.017723523 -0.012832796 -0.099266015 0.045459535
000260 dd 87 1d bc 2e d5 95 3d 92 d0 92 bd 7b 25 28 bd
       -0.009614912 0.073160514 -0.07168688 -0.04105137
000270 08 7d 9b 3d 4c e6 8a bc 5b 53 ed bc 67 14 88 3c
       0.07592207 -0.016955517 -0.028970411 0.016611291
000280 61 53 7c 3d dc 40 02 3e 18 a5 82 bd 99 22 77 3d
       0.061602954 0.12720054 -0.063791454 0.06033573
000290 f2 05 b1 3c 2f f3 c1 3c f1 b0 4d 3d 84 55 5a bd
       0.02160928 0.02367553 0.050217573 -0.05330421
0002a0 62 55 ac 3d b6 4c f1 3c 45 cb 16 3d d6 54 6d 3a
       0.08414723 0.029455524 0.036814947 0.0009053474
0002b0 55 6e 19 bd ef 5e 90 3d 5f c1 88 bd e0 7f 92 3c
       -0.037458736 0.07049357 -0.066775076 0.017883241
0002c0 33 d9 8e bd 13 33 97 bb 87 6b c8 bc 3e c4 5f bd
       -0.06975021 -0.004614243 -0.024465336 -0.05463051
0002d0 6d 7b 0b 3d d6 3c 94 bd 28 ee c8 3d 32 0f 01 bd
       0.034053255 -0.07238166 0.0981105 -0.031508632
0002e0 9e 85 f2 3c 92 9e 4a bd 52 50 f5 bd 87 28 84 bd
       0.02960473 -0.04946763 -0.119782105 -0.064530425
0002f0 3e b8 2c 3c e7 1a 70 bd e3 ad 0f 3e 3b 9d a9 bc
       0.010541974 -0.058619406 0.14031176 -0.020704856
000300 ef dd 4b 3c a8 b4 a6 bc 5d 3f e5 bd ba 5d ea bc
       0.01244305 -0.020349815 -0.11193726 -0.028609145
000310 d6 7d 0f bd 0d 8f 15 bc 2a 43 80 3b 4b 17 50 bb
       -0.035032116 -0.009128344 0.0039142566 -0.0031752165
000320 b7 3f b5 bd 9a e5 ef bd ea ec 0f bd a8 b1 30 bd
       -0.08850043 -0.11713715 -0.03513805 -0.043138176
000330 ec 07 bb 3c 6c ff 19 bc 46 98 95 3d 5a a1 f6 bc
       0.022830926 -0.009399276 0.073044345 -0.030106235
000340 4c 4c 17 bc f3 ad c4 bd 27 74 77 3d 4c 49 bf bc
       -0.009234499 -0.09603491 0.060413506 -0.02335038
000350 b3 58 1a bd 55 6a ef bc af 11 19 bd ee b8 8a bd
       -0.037682246 -0.029225508 -0.03737038 -0.06773554
000360 28 db 67 3c c3 69 83 bd ee 74 27 3d 5b 25 e7 bb
       0.014151372 -0.06416657 0.040882997 -0.0070540137
000370 a6 ce b0 bc 1e 74 b9 3d b1 ce f1 bc d8 a6 43 bc
       -0.021582913 0.09055351 -0.029517503 -0.011941634
000380 fd 0e 0d bd 2d a6 4c 3d 28 5d ae bd 9e b3 5d 3b
       -0.034438122 0.049963165 -0.08513862 0.0033828984
000390 34 3e 60 bd c6 7d 27 bd 3c 8c 78 3d ad 0a 6d bd
       -0.05474682 -0.04089143 0.060680613 -0.05787151
0003a0 53 a4 31 3a de e9 db 3c c5 0d 84 3c 2d ad 98 bb
       0.00067765004 0.026844915 0.016119847 -0.004659316
0003b0 90 f9 ce bc 2e 53 88 bb 12 a0 44 bd b9 0b 9e bc
       -0.025265485 -0.0041603064 -0.048004217 -0.0192927
0003c0 62 7a 83 3d 44 20 69 bd 60 ad 9d 3d 63 ff 4a 3d
       0.06419827 -0.056915537 0.07699084 0.049559962
0003d0 2d 1e 6b 3c 1e b7 f5 3c 40 0c bb bc 5e 21 52 3d
       0.014350456 0.029994544 -0.02283299 0.051301353
0003e0 ab ea c7 3a fd d2 8d bd ba 79 88 3c 7e a8 4e 3a
       0.0015252432 -0.069250084 0.016659606 0.00078833837
0003f0 6c 4a 1f 3d b1 de f4 3b 72 75 22 3d 3b 0c 5b 3b
       0.038889334 0.007472836 0.039662786 0.0033424038

encoder.downsample_blocks.1.1.bias f4 [32]
000000 d3 ff ca bc 0e 0d 20 3d fe b5 04 3a 36 11 d9 be
       -0.02478019 0.03907495 0.00050625193 -0.42395943
000010 7a 56 6a bb a2 98 e1 bd bb ef 81 bc 3a 90 a2 bc
       -0.003575711 -0.110154405 -0.015861383 -0.019844163
000020 bc 4f b6 3c 89 9c f9 bb 2e 86 b6 bc ef 08 81 bd
       0.022254817 -0.0076175374 -0.022280779 -0.06300532
000030 b1 41 d7 ba c1 ef d2 bd a7 51 13 3e b0 98 3e bd
       -0.0016422776 -0.10299636 0.14386617 -0.046532333
000040 28 52 95 3e e6 f7 4d 3c 29 21 9f bd 8b 50 2e 3d
       0.29164243 0.012571311 -0.07769997 0.04255728
000050 7c 8c 2c be a1 a8 0e bd 8b ea 8f bd 6c 1e b1 3e
       -0.16850466 -0.034828786 -0.070271574 0.34593523
000060 b0 79 08 3e bb 75 3d bd 2a fb 57 3d ed 3c a2 bc
       0.1332767 -0.046254855 0.052729763 -0.019804442
000070 b8 41 cc 3d ce cb e8 bb 28 3a 09 3e 59 a1 ae 3d
       0.09973472 -0.0071043735 0.13401091 0.085268684

encoder.stages.0.0.depth_conv.weight f4 [32, 1, 5, 5]
000000 3b ef 4c bd 86 6c b4 3c 10 61 dd bc 61 35 09 3c
       -0.050032835 0.022024404 -0.027023822 0.008374543
000010 86 0f 53 bd 95 be a4 bd 68 69 cd 3d 8f 0a d6 3d
       -0.051528476 -0.08044163 0.1002987 0.10451233
000020 4e 14 00 bd b0 91 a4 bd c1 58 70 bc c7 99 06 bc
       -0.031269364 -0.080356 -0.014669598 -0.008215374
000030 b6 cd 00 3e 54 20 ce 3d 53 f9 3a bd 86 5f 06 3d
       0.12578472 0.1006476 -0.04564793 0.032805942
000040 36 2b a2 3b 54 60 0d 3c 94 c3 99 3d 95 81 90 3c
       0.004948999 0.008628923 0.07508007 0.017639915
000050 16 94 a4 3c 5f d6 82 bd c9 cf d3 3c 0c 41 93 bd
       0.020090144 -0.06388544 0.025855916 -0.07190141
000060 61 37 f0 bc 23 cc 5b 3a 10 f9 7e bd cd 22 f1 bc
       -0.029323282 0.0008384606 -0.062249243 -0.02943554
000070 88 fd 7f bd 96 1b 96 bd 7d 14 4a bd bf 38 a8 3d
       -0.062497646 -0.0732948 -0.049335945 0.082139485
000080 3b 41 dd 3d e5 68 19 3d dc 2b 89 3c 00 22 d7 bc
       0.10803457 0.03745355 0.016744547 -0.02626133
000090 6e 30 a4 3d 2a 9d 3a 3e 57 95 0a 3e 41 73 ca bd
       0.0801705 0.18224016 0.13533531 -0.09885264
0000a0 f8 f0 13 3d 3f 50 83 b9 07 87 95 3d c9 d4 d3 3d
       0.036118478 -0.00025046055 0.07301145 0.1034332
0000b0 30 b4 6f 3c 67 fa bf bd c3 ef 3e bd d1 0c a5 3c
       0.014630362 -0.09373932 -0.046615373 0.020147713
0000c0 3e 30 47 bd 1f cc ca bd 8f ed 5e 3d 74 c7 14 bd
       -0.04862999 -0.09902214 0.054425772 -0.036323026
0000d0 cf e1 35 bd 60 7b 86 bc ce a9 3e 3d 3f 62 9e 3d
       -0.0444048 -0.016416252 0.046548657 0.07733583
0000e0 3d 64 98 bd a5 28 eb bd f0 15 e0 3c 0a 80 85 bb
       -0.07440994 -0.11482362 0.02735421 -0.0040741013
0000f0 91 c2 ac 3d 0a 14 e6 bd e5 33 1c be 9e e3 ba bd
       0.08435548 -0.11234291 -0.15254171 -0.09125446
000100 b7 98 cc bc d4 77 07 bc ef 4a 7b bd ef 07 22 bd
       -0.024975164 -0.008268315 -0.06135076 -0.039558347
000110 68 61 61 bd 00 da 3f 3d 4c 47 9b 3d 94 77 8d bb
       -0.055024534 0.04683876 0.07581958 -0.0043172333
000120 14 57 53 3d 44 91 61 bc 7a 58 aa 3d e9 eb 06 bd
       0.051596716 -0.013767544 0.08317657 -0.032939825
000130 2b c1 95 3d 8a b4 c0 3d fa 49 78 3c e0 47 c3 bc
       0.073122345 0.09409435 0.015154356 -0.023837984
000140 a5 40 9e 3d 92 72 50 bd 59 6e e9 3c 12 af b3 bd
       0.07727174 -0.050890513 0.028495 -0.087736264
000150 7b cb 2d 3c ff e3 ee 3d cb 34 c5 bd fb 65 16 be
       0.010607596 0.116645806 -0.0962921 -0.1468734
000160 96 57 6a bd 5b 47 c6 3d 9e a0 83 bc 72 ba 37 bd
       -0.057212435 0.09681579 -0.0160678 -0.044855542
000170 40 26 08 be a2 ce d8 bd 70 03 95 3d a8 41 0a 3d
       -0.13295841 -0.10586287 0.07276046 0.03375402
000180 83 cb 06 3d 46 e4 7f 3d 97 71 0c 3d 3a 26 43 bc
       0.032908928 0.062473558 0.034288015 -0.011910969
000190 51 68 be bd de 25 7c bd 53 77 c3 3c d9 60 93 38
       -0.092972405 -0.06155955 0.02386061 7.0275455e-05
0001a0 04 40 d7 bd 36 e7 87 bc 39 47 06 3e 46 20 18 3e
       -0.10510257 -0.016589742 0.13113107 0.14856061
0001b0 70 c7 21 3c 19 d2 c8 3c 03 54 67 bd 59 c2 11 3d
       0.00987421 0.024514245 -0.056476604 0.035585735
0001c0 b1 2b fa 3d 83 3d c3 3d e7 0c c1 bd 0c 5c e3 3c
       0.12215365 0.09533217 -0.09426289 0.027753852
0001d0 e8 e3 58 3d 25 d3 7c 3b 16 39 64 3c f4 46 20 bc
       0.052951723 0.0038578 0.013929626 -0.009782542
0001e0 12 f4 09 3b 9d 4b 3e bd f7 9a 9c bd da 61 6e bb
       0.0021050018 -0.04645883 -0.07646745 -0.0036374242
0001f0 15 54 51 bd f1 18 9f bd da 71 44 bc 4e 6e 78 3d
       -0.051105577 -0.07768429 -0.011990035 0.06065207
000200 01 ff 59 3d 2b 2f b3 bd 27 7e 7b 3d 33 44 c1 bc
       0.053221706 -0.08749231 0.061399605 -0.02359209
000210 a1 bd ed 3d a7 13 ef 3d f1 a2 1f 3d a2 32 17 bc
       0.116084345 0.1167367 0.038973752 -0.00922838
000220 08 5b ae 3d ce dd 6d 3c 48 58 09 3d 7a 9e e6 3c
       0.085134566 0.014518214 0.033531457 0.02815174
000230 f9 ce 01 bd d4 f4 3b 3c 91 b0 6f 3d be be ae 3b
       -0.031691525 0.011471946 0.058517996 0.005332797
000240 3c 65 d4 3c 2c bd 8f bb 0a cb 95 3c 43 8c da bc
       0.025927179 -0.0043865647 0.018285293 -0.02667821
000250 51 0b 54 3d 48 70 ca bd 44 17 df 3d 5b 4c af 3d
       0.051768605 -0.09884697 0.108931094 0.085594855
000260 92 fc 05 3e 9a d2 6d bc 01 6f 28 3d d4 9c 08 bd
       0.13084629 -0.014515543 0.041121487 -0.033352688
000270 66 33 2f bd 4a 89 04 3d a8 49 34 bb a4 34 58 3c
       -0.042773627 0.03235749 -0.0027509723 0.013196144
000280 b4 88 b6 3d 54 6f 09 bc 9b 92 05 be 78 ae 21 be
       0.08912793 -0.008388359 -0.13044207 -0.15789211
000290 98 30 9d 3d cf 36 24 3d e0 21 6c bc 70 31 b8 bd
       0.07675284 0.040091332 -0.014412373 -0.089938045
0002a0 6f 1b 96 bc cf b4 30 bc 54 56 c1 bc 0c 23 0f 3b
       -0.018323628 -0.010785296 -0.023600735 0.0021840958
0002b0 dd 93 1c bd 7b 2a 85 bb 8b 9f d1 bd 5f d4 75 3d
       -0.03822695 -0.004063902 -0.102355085 0.060016986
0002c0 2e 7c 1d bd af c0 28 bd f3 06 fe b9 3a 2c 81 3d
       -0.038448505 -0.041199382 -0.00048451833 0.06307264
0002d0 71 ed 6a 3c 6f 25 e5 3b b3 64 30 ba 11 0d af bd
       0.014338837 0.006992988 -0.00067288725 -0.08547414
0002e0 16 80 1d 3d cb 45 24 3c 14 f2 12 be c4 f7 6a bd
       0.03845223 0.010026406 -0.14350158 -0.057365194
0002f0 db 57 d5 bd 9e 4e da ba 36 06 a6 3c 45 c2 d2 bd
       -0.10417148 -0.001665551 0.020266633 -0.1029096
000300 54 ae 2b ba a2 ff 31 bd 29 b2 a2 3d 47 e0 e8 3c
       -0.0006549109 -0.04345668 0.079441376 0.028427256
000310 b5 74 d6 bc 92 52 fb 3c 6f 18 25 bd 5d 59 b4 3c
       -0.026178697 0.030679021 -0.040306505 0.022015268
000320 ab 28 16 bd 58 89 b3 bb a0 ff b6 3b b9 d0 ac 3c
       -0.036659878 -0.005479019 0.005584672 0.02109562
000330 fe be d7 bd 84 b3 34 3c 2e 8a cb 3d ec 54 01 3e
       -0.10534476 0.011029128 0.09938465 0.12630051
000340 98 1c a8 3d f6 66 c3 ba 05 91 6f bd c7 78 04 3e
       0.08208579 -0.0014908004 -0.05848791 0.12936698
000350 bd 76 b9 3d 96 7b 71 3c 3b e9 4c bd 2b 9a ab bc
       0.09055851 0.014738938 -0.050027113 -0.020947536
000360 a9 c3 bd 3d 57 49 85 bc eb b4 3c 3c 4e 77 8a bc
       0.09265835 -0.016270323 0.011517744 -0.016902592
000370 6c ea 51 bd ec 0e 9f 3a fb 94 26 3d 56 69 33 3c
       -0.051248953 0.0012135184 0.040669423 0.010950407
000380 1a bc 2e bc 34 3b 16 3d 7f ff 8b bd a9 69 99 bd
       -0.010664964 0.036677554 -0.068358414 -0.07490856
000390 3e 36 f4 3c e9 82 a5 3c 17 fe bf bc 9f 0e c8 bd
       0.029811021 0.020204024 -0.02343659 -0.09768414
0003a0 90 c3 1d 3a da 90 9e 3d bf c3 39 3c 18 e5 05 3d
       0.0006018216 0.07742472 0.011338173 0.032689184
0003b0 21 8a 82 bd 59 3b 5f bd 17 29 e6 3d 78 eb 4f 3c
       -0.06374002 -0.054499958 0.11238306 0.0126904175
0003c0 fc f3 df bc 0b 9d 36 bd 15 c2 4e bd 94 2f b5 3c
       -0.02733802 -0.04458336 -0.05047806 0.022117414
0003d0 ee 1c 4f 3b b9 92 8e bb 0d 9c 8d 3d 48 c1 4b bd
       0.0031602937 -0.004350987 0.0691453 -0.049744874
0003e0 dc d9 cd 3d 66 66 eb 3d 6e d6 0c 3c 9f b1 e6 3d
       0.10051319 0.1149414 0.008596046 0.11264347
0003f0 51 0e 9e 3d 2a 98 1a 3d 23 59 f6 3c 6e c9 95 bd
       0.077175744 0.03774277 0.0300718 -0.0731381

encoder.stages.0.0.depth_conv.bias f4 [32]
000000 0b ac f3 3b c1 68 ae 3b 93 a9 b4 3b fd b1 d5 ba
       0.0074362806 0.005322546 0.005513379 -0.0016303655
000010 87 bd 4a bc cd 7a 44 bc 88 9f 3c ba 05 72 27 bc
       -0.012374288 -0.011992169 -0.0007195403 -0.0102200555
000020 89 62 ab 3b d8 82 fe bb 72 2c 80 3b 48 7e 14 bc
       0.005230252 -0.0077670626 0.0039115483 -0.009063311
000030 72 46 c3 bb 4e 8c 98 3a 68 42 f9 3b ea 55 7a 3c
       -0.0059593255 0.0011638494 0.007606793 0.015279273
000040 92 c6 97 bb 43 69 12 3c 6e 31 c3 37 7a 2d 5a 3c
       -0.0046318257 0.008936229 2.3268829e-05 0.0133165065
000050 58 6c 04 3c d9 7c 4d bc 41 1d 83 bc bc 0a 81 3a
       0.008082472 -0.012541973 -0.01600516 0.0009845118
000060 64 c2 ab 39 4f 62 0c bc 50 b0 b5 3a 7d 97 21 3d
       0.00032760494 -0.0085683605 0.0013861749 0.03945111
000070 2b 67 04 39 7d fd 84 3a 42 03 1d bc b6 11 c7 3b
       0.00012626934 0.0010146346 -0.009583296 0.0060751094

encoder.stages.0.0.norm.weight f4 [32]
000000 06 1b 5e 3f 36 a4 90 3f ca 9a 69 3f 6b fe 80 3f
       0.86759984 1.1300113 0.91251814 1.0077642
000010 2f 0c 6f 3f 6a a8 6d 3f ac 6a 6f 3f b1 71 68 3f
       0.93377966 0.92835104 0.93522143 0.9079848
000020 a9 0c 68 3f b9 d4 2b 3f b3 12 87 3f 56 29 5e 3f
       0.9064432 0.67121464 1.0552582 0.86781824
000030 b5 27 81 3f 4d f0 71 3f 91 dc 75 3f 2b 11 78 3f
       1.0090243 0.94507295 0.9603968 0.96901196
000040 a8 ad 67 3f 37 a6 49 3f 06 52 4d 3f 09 27 62 3f
       0.90499353 0.7876925 0.8020328 0.8834081
000050 b7 b2 80 3f 6d e3 58 3f c5 d4 7a 3f 72 09 48 3f
       1.005454 0.84722024 0.9798091 0.7813941
000060 50 59 8b 3f 17 3e 58 3f 87 ca 90 3f d9 cc 6a 3f
       1.0886631 0.8446974 1.1311806 0.9171882
000070 1c ff 3b 3f 8b 08 71 3f 45 91 73 3f 8a a6 6d 3f
       0.7343614 0.9415366 0.9514354 0.92832243

encoder.stages.0.0.norm.bias f4 [32]
000000 bb 06 7e bb 41 40 c2 39 72 13 f3 3c 4b 94 2c bb
       -0.0038761336 0.00037050436 0.029672358 -0.0026333507
000010 39 c4 c9 bc 40 f1 c9 bc 43 cc 9a bc f7 be 6b bc
       -0.024629699 -0.02465117 -0.018896228 -0.014388791
000020 4a 95 ab 3c 35 37 11 bb 4d 63 a3 bb 12 cb b1 bc
       0.02094521 -0.002215815 -0.004986203 -0.021703277
000030 f3 fa ab bc 63 c2 34 bc 81 43 9c 3c ae de 05 3d
       -0.020993685 -0.0110326735 0.019075157 0.032683067
000040 1e 2b a9 3b 6d c4 3b bc b9 cc 68 3c 8a 88 e7 3b
       0.0051626107 -0.011460406 0.014208966 0.0070658373
000050 5b 84 89 3c 1b 3f 11 bd 3b cf 0e bd 03 61 0f bb
       0.016786745 -0.035460573 -0.0348656 -0.0021877892
000060 3f ee 55 bc 00 d4 66 bc b4 74 4b 3c ab 73 36 3c
       -0.013057291 -0.014088631 0.012417961 0.011135976
000070 a7 a5 1f 3c fd 3f 44 3c 46 ad 26 bd 92 55 1b 3d
       0.009744084 0.011978147 -0.04069259 0.037923403

encoder.stages.0.0.conv1.bias f4 [128]
000000 42 08 22 bc 2e 4c 93 bd 87 dc 86 bc 35 51 42 bd
       -0.009889664 -0.071922645 -0.016462578 -0.047440726
000010 99 21 03 bc 3c a3 ef bb 03 d4 9d bc f5 84 95 bb
       -0.008003616 -0.00731316 -0.019266134 -0.004562969
000020 f1 66 c2 bc d6 74 6e 3c 77 2a 13 bd 02 ce 29 bd
       -0.023730727 0.014554223 -0.03592917 -0.04145623
000030 f7 ba 01 bd 90 16 c7 bc b4 36 8b bd 3e 24 55 bd
       -0.031672444 -0.02430275 -0.06797543 -0.052036516
000040 1c 9f 21 bd 1d ac 34 bd 0f d7 a5 3c c7 6f 39 bc
       -0.03945838 -0.044109453 0.02024415 -0.011318154
000050 bf 34 5c ba 84 f6 22 bc 43 e2 47 bd 80 fb 1c bd
       -0.0008400194 -0.009946469 -0.048799764 -0.038325787
000060 eb 6b dc bc ea 41 47 bd 47 e1 9a bc 81 f7 ae bc
       -0.026906928 -0.048646845 -0.018906249 -0.021358253
000070 9d 23 ec bc 3b d7 ba bc 58 76 d4 bc 26 c6 6d bc
       -0.028825575 -0.022807708 -0.025935337 -0.014512574
000080 eb c1 58 bd 9b b3 64 bd 3f c5 1f bd 2c cb c8 bc
       -0.05291931 -0.055835348 -0.039006468 -0.024510942
000090 34 84 40 bd 48 66 92 bd 73 52 61 bd 47 b1 a7 bc
       -0.04700108 -0.07148415 -0.05501027 -0.020470275
0000a0 ea 70 2f bd 5a 3b 08 bc ac e8 f7 bc f7 a6 44 bc
       -0.042832293 -0.008314932 -0.030262314 -0.012002698
0000b0 4a 77 1b bd eb 9c 69 bd 63 b7 25 bd a9 1d 53 bd
       -0.03795556 -0.057034414 -0.040458094 -0.051541958
0000c0 7b 9c 0f bd 6b 7c 85 bc 9f 09 d1 bc df 98 6f bd
       -0.03506134 -0.016294679 -0.025517283 -0.0584954
0000d0 04 30 69 bd 5b 7d 7f 3c e5 0a 89 bd 2f 86 42 bd
       -0.056930557 0.015593852 -0.06691531 -0.04749125
0000e0 a7 0b 5c bd 1c 73 b5 bd ce 0b 3f bc 89 b1 7f bd
       -0.05372205 -0.08859846 -0.011660529 -0.06242517
0000f0 82 a4 45 bc 56 dd c5 bc cb e9 47 bc 82 3f e3 bb
       -0.0120631475 -0.024153393 -0.012201737 -0.006935061
000100 d0 8f 10 bd 44 fd 7d 3a f7 f4 88 b8 dd bb b7 bc
       -0.0352934 0.00096889236 -6.5306136e-05 -0.022428447
000110 ef 3b 84 bd bb 8b 28 bd cc b3 d4 bb c3 9a 96 bc
       -0.06456744 -0.041148882 -0.00649116 -0.018384343
000120 f4 92 8a bc 6c b4 16 bd a6 ee 96 bd ad 9f 89 bd
       -0.016915776 -0.036793157 -0.07369737 -0.06719909
000130 c9 3f bb bc 5c 72 36 bd 64 b4 0d bd 9e 25 ca bc
       -0.022857564 -0.044542655 -0.034595862 -0.02467614
000140 10 a4 f0 3c 9d 95 54 bd 80 b3 e2 bc 2e e9 59 bd
       0.029375106 -0.051900495 -0.027673483 -0.053200893
000150 92 e4 43 bd bb 87 79 bd ca b3 43 bd 7b 03 b3 bd
       -0.047825404 -0.06092046 -0.047778882 -0.08740898
000160 0e 05 2c bd 1f 14 5c bd 21 5a ab bc e1 ba 29 bd
       -0.041997008 -0.053730126 -0.020917 -0.041437987
000170 5d 67 d8 bb b2 38 3b bd a7 98 ce bd b3 f3 2a bd
       -0.0066041187 -0.045708366 -0.1008771 -0.041736316
000180 79 09 c6 bc 08 e3 87 bc e9 69 24 3b f9 87 6f bd
       -0.024174439 -0.01658775 0.0025087541 -0.058479283
000190 b2 16 8a bd 78 b3 24 be 62 04 bc bc e4 6b cb bc
       -0.0674261 -0.16084087 -0.022951309 -0.02483172
0001a0 2f cd 84 39 0d 21 6d bd 8e 48 63 bc 8a 3a 6d bd
       0.00025329876 -0.057892848 -0.013872279 -0.057917155
0001b0 d8 fe 6c bd 5d 58 72 bb 0e ae 3b bd 8f de 82 bd
       -0.057860225 -0.0036978938 -0.04582029 -0.06390106
0001c0 cd 30 80 bd dc 52 9b bb d6 77 7f bc ce b0 00 bd
       -0.06259308 -0.004740102 -0.015592536 -0.031418614
0001d0 e2 fb 58 3a d6 f5 ec bc 80 43 89 3c 9f 20 5f 3c
       0.00082772796 -0.028925817 0.01675582 0.013618617
0001e0 7a f9 e4 bc 61 93 fd bc 32 fe f4 bb c3 a9 0e bd
       -0.027950991 -0.030954065 -0.0074765915 -0.034829866
0001f0 e5 a7 36 bd 2b 5b 97 bd cd a7 89 bc c9 73 fc bc
       -0.04459371 -0.07390436 -0.016803646 -0.03081693

encoder.stages.0.0.conv2.bias f4 [32]
000000 77 36 86 3c a9 04 9a ba 7d 2d a2 3c 26 a8 03 3c
       0.016383393 -0.0011750656 0.019797081 0.008035695
000010 6a 96 f7 3c db e8 dc bc 25 43 d7 bc 1e 09 4b 3c
       0.03022309 -0.026966503 -0.026277134 0.01239231
000020 35 7d 95 3c 04 06 24 3d 64 a1 66 bc 75 9c 25 bc
       0.01824818 0.0400448 -0.014076564 -0.010108103
000030 6c 87 73 3c 1e 99 92 3c 17 e7 72 3c 03 9d a0 3c
       0.01486383 0.017895278 0.014825604 0.019606119
000040 85 d4 aa bc 4a 50 ec 3b ee 59 d9 bb 1f 22 0a bd
       -0.02085329 0.0072117196 -0.006633035 -0.033723947
000050 f1 85 c8 bc 45 81 86 39 ba 19 ff bc 89 95 8f 3c
       -0.02447793 0.00025654785 -0.031140197 0.017527359
000060 e1 29 21 bd 5c f5 b8 bb ef 84 18 3c 56 66 02 3b
       -0.03934658 -0.0056444835 0.009309038 0.0019897423
000070 e0 97 af 3c fa e8 b3 3c f8 52 68 bc 59 31 28 bc
       0.021434724 0.021961678 -0.014179938 -0.010265672

encoder.stages.1.0.depth_conv.bias f4 [64]
000000 55 e8 a3 be 23 35 35 bd 27 64 42 3d 56 90 41 bc
       -0.32013193 -0.04424013 0.047458794 -0.0118141975
000010 57 16 2f 3d ea 07 6e 3c 17 55 c7 3e 35 87 bb 3c
       0.042745914 0.014528254 0.38932106 0.02289162
000020 4d f6 15 3e a0 ac a7 bd 80 7c 30 3d 54 93 95 3d
       0.14644738 -0.081872225 0.043087482 0.07303491
000030 e5 42 52 be 15 ef 1a 3d 84 a5 6d bd b7 b6 78 bc
       -0.2053333 0.037825663 -0.058019176 -0.015180281
000040 e1 f2 49 bd f0 00 03 bc cd bf 48 bd d2 68 f7 bd
       -0.049303893 -0.007995829 -0.04901104 -0.1208054
000050 8b a6 95 bc 4a 91 c9 bc 8a 92 f8 bb ee 03 5b 3d
       -0.01826789 -0.024605412 -0.007585828 0.053470545
000060 62 51 2c bd 9c dd bf bd aa 9c 8c 3d 47 8d 4b 3d
       -0.0420698 -0.093684405 0.06865819 0.04969528
000070 95 dd 44 3e d6 ca fc 3c 98 d6 98 be b1 61 a3 bb
       0.19225152 0.030858438 -0.29851222 -0.004986011
000080 34 00 c0 3c 3a 1d 2c be 96 e2 9d bb e2 6f 0a 3c
       0.023437597 -0.16808024 -0.004818271 0.0084495265
000090 53 87 30 3d 5d d9 28 3e 9e df 90 3d 51 54 2d 3b
       0.043097805 0.16489168 0.070739016 0.0026447962
0000a0 a1 a5 d2 bd 8f e9 e5 3d 0a 88 fd bc 41 38 c3 bc
       -0.102854975 0.112261884 -0.030948658 -0.023830535
0000b0 af 00 a9 bd f9 7b 0f bd ff b0 8e bd 28 11 73 bc
       -0.082520835 -0.03503034 -0.06967353 -0.014835633
0000c0 ad d6 b1 bc 11 e8 23 3e b8 69 bb 3d 0b 4d 36 bb
       -0.02170881 0.16006495 0.091510236 -0.0027816917
0000d0 fb 88 76 bb 5d 01 57 3c fe 5f 02 3d 3d 7c 1a 3b
       -0.0037618268 0.013122884 0.031829827 0.0023572587
0000e0 a1 32 3f 3d 51 22 1c bd 06 f3 9b bd 60 4b 96 bd
       0.046679143 -0.038118664 -0.076147124 -0.073385954
0000f0 85 e0 8a bb 21 7b 8b 3d 8d cc 06 bd 1e f2 af b8
       -0.0042381906 0.06810594 -0.03290992 -8.389748e-05

encoder.stages.1.0.norm.weight f4 [64]
000000 07 c8 97 3f 9a 1b 83 3f 0a d4 78 3f 26 54 82 3f
       1.1857919 1.0242798 0.97198546 1.018193
000010 b1 ff 6b 3f 02 08 7d 3f 27 30 a7 3f 89 74 77 3f
       0.9218703 0.98840344 1.306157 0.96662194
000020 fc 0a 97 3f ac 72 7a 3f f9 fa 81 3f d3 f1 83 3f
       1.1800227 0.97831225 1.0154716 1.0308174
000030 57 47 8e 3f 5a e9 81 3f b6 96 7e 3f 4c e5 72 3f
       1.1115521 1.0149338 0.99448717 0.9488113
000040 eb 19 68 3f d2 6f 54 3f 2b 01 65 3f 73 63 83 3f
       0.9066455 0.82983124 0.8945491 1.0264724
000050 7f 7f 75 3f 80 a9 7e 3f a2 9a 68 3f 7c 3a 79 3f
       0.9589767 0.99477386 0.9086095 0.97354865
000060 95 91 71 3f a8 67 87 3f b4 8b 77 3f 0a e2 80 3f
       0.94362766 1.0578508 0.96697545 1.0068982
000070 f9 5a 80 3f 34 db 85 3f d6 5c 8d 3f 9f 76 79 3f
       1.0027763 1.045752 1.1043956 0.97446626
000080 42 f4 6c 3f 1f 9d 84 3f b5 4a 77 3f 68 e1 6d 3f
       0.9256021 1.036045 0.9659837 0.9292207
000090 a9 59 87 3f d0 e6 83 3f b3 2e 6c 3f 90 70 6c 3f
       1.0574237 1.0304813 0.9225876 0.92359257
0000a0 8e 61 8d 3f 4a bb 69 3f ff 4e 77 3f 78 3d 6b 3f
       1.1045396 0.91301405 0.96604913 0.9189067
0000b0 9f c3 89 3f 46 7f 7b 3f 1a b4 74 3f 56 8d 83 3f
       1.0762824 0.9824108 0.95587313 1.0277507
0000c0 51 0b 8b 3f ac e4 80 3f 90 3c 6a 3f e4 b3 66 3f
       1.0862828 1.0069785 0.9149866 0.9011824
0000d0 37 13 6f 3f a5 fe 74 3f 85 7c 61 3f 19 34 7a 3f
       0.93388695 0.95701057 0.88080627 0.97735745
0000e0 b5 ab 64 3f 97 74 80 3f 53 b3 7b 3f 8c 98 72 3f
       0.89324504 1.003558 0.983205 0.9476402
0000f0 cf 44 6c 3f da ba 72 3f 46 34 88 3f 47 8e 45 3f
       0.92292494 0.9481636 1.0640953 0.77170223

encoder.stages.1.0.norm.bias f4 [64]
000000 d6 3a 9b be f0 67 f7 bd aa c6 a7 3d 7a ca 3a 3d
       -0.30318326 -0.120803714 0.08192189 0.045603253
000010 b3 90 50 3d 8a 9f 0e 3c 2b c0 e2 3e 5c af 82 3d
       0.050919246 0.008705029 0.44287238 0.063811034
000020 e4 58 3e 3e 5b 4b aa bd 47 5b 50 3d 1b dd a5 3d
       0.18588597 -0.08315154 0.0508683 0.08098813
000030 49 91 51 be 0a b8 92 3c 89 b2 3d bd a2 ab 8a bc
       -0.20465578 0.017910022 -0.046312843 -0.016927544
000040 46 59 59 3d 45 5c 93 bc b0 d5 51 bd a3 29 c1 bd
       0.053063653 -0.017988333 -0.05122918 -0.0943177
000050 ef 66 8b ba 45 b2 32 bc 3b 74 84 3b d0 d4 99 3d
       -0.0010635535 -0.010906761 0.004042176 0.07511294
000060 44 02 b1 3c 43 e2 ae bd 58 a1 b6 3d b7 4a 3a 3d
       0.021607526 -0.0853925 0.08917493 0.04548141
000070 fa 25 65 3e 3d a7 11 3d d8 44 79 be 63 ac b1 bb
       0.22377768 0.03555988 -0.24342668 -0.0054221614
000080 32 1a 1c 3d ea 37 02 be df 99 a9 bc c8 6d 9f 3b
       0.03811092 -0.12716642 -0.020703254 0.004865382
000090 b3 3b 3a 3d 66 d0 24 3e d8 ba a4 3d c9 8a 68 3d
       0.04546709 0.16095123 0.0804345 0.05677298
0000a0 71 f5 c6 bd e4 bb 05 3e bf 96 88 bd 3c d6 93 bd
       -0.09714783 0.13059956 -0.066693775 -0.07218596
0000b0 a1 ac eb bd 3e 5a ab bc 9a ca e2 bc 0b 74 af bb
       -0.11507536 -0.020917054 -0.027684499 -0.0053544096
0000c0 41 2d cf 3b 13 5d 1f 3e 14 dc b3 3d 6d d7 31 bb
       0.0063225334 0.15562849 0.08782211 -0.002713646
0000d0 e3 a6 2b bd f0 02 23 3d 91 ce d3 3c e8 31 13 3c
       -0.041907202 0.039797723 0.025855334 0.008984067
0000e0 5e f8 9d 3d e5 8a 60 bd 3a 22 7b bb 92 c2 a7 bd
       0.07713388 -0.05481996 -0.0038319961 -0.08191408
0000f0 74 92 45 3c d6 77 8a 3d 4c 6a 87 bc 46 5f 1c 3d
       0.012058843 0.06761138 -0.016530178 0.038176797

encoder.stages.1.0.conv1.bias f4 [256]
000000 05 64 98 bd 10 51 9d bd b1 68 69 bd d0 e4 8e bd
       -0.07440952 -0.07681477 -0.056984607 -0.06977236
000010 fd d7 72 bd 57 80 0a be ab 65 4f bd b5 38 5b bd
       -0.059288014 -0.1352552 -0.050634068 -0.053520877
000020 70 e0 68 bc f4 17 16 bd 8f 41 73 bd 84 a3 e4 bd
       -0.014213666 -0.036643937 -0.059388693 -0.11164001
000030 d7 c7 98 bd 5d 3a 04 be 8a c8 07 be 15 f0 3e bd
       -0.074599914 -0.12912889 -0.13260093 -0.04661568
000040 81 c3 9e bd 60 b1 be bd 41 ba dd bc d7 e2 a6 bd
       -0.07752133 -0.09311175 -0.027066352 -0.08148735
000050 7f 0a 7b bd 86 92 c4 bd 1d 23 b8 bd 1b 6c 0e be
       -0.061289307 -0.0959826 -0.08991072 -0.13908426
000060 45 d5 af bd c2 d3 00 be 99 e1 4d bd 37 00 13 be
       -0.085856 -0.12580779 -0.050263975 -0.1435555
000070 16 4c a9 bd a7 e5 4c bd 70 4f 2a bc 5e b5 93 bd
       -0.08266465 -0.0500237 -0.010394916 -0.072123274
000080 bb 7b d2 bd 7b dc 9e bd b2 f5 de bc 6b 7b ba bd
       -0.10277506 -0.07756897 -0.027216766 -0.09105571
000090 66 cc b5 bd 53 ab 0a be 84 17 e2 bd 9e 82 7c bd
       -0.088768765 -0.13541918 -0.110396415 -0.061648004
0000a0 26 6b 85 bd d0 5b 67 bd 81 b6 12 be 73 b5 47 bd
       -0.065145776 -0.056484044 -0.14327432 -0.048757028
0000b0 ea e1 9d bd ef 07 0f be 64 da 64 bd e5 ba 2b bd
       -0.07709105 -0.1396787 -0.055872336 -0.041926283
0000c0 ac 13 b9 bd 33 6a df bc 52 3e f6 bd 8b 59 72 3c
       -0.09036955 -0.02727232 -0.120236054 0.0147918565
0000d0 f4 6d d3 bd bb a0 a8 bd b6 16 08 be 1f d4 b6 bd
       -0.10323706 -0.08233782 -0.13289914 -0.08927178
0000e0 31 d0 cc bd 1a d3 8d bd 54 83 58 bd 9c 6c f7 bd
       -0.10000647 -0.0692503 -0.05285962 -0.120812625
0000f0 6f 5f cf bd 6c 0c 02 be 87 6d 96 bd 92 e7 88 bd
       -0.101256244 -0.12700051 -0.073451094 -0.066847935
000100 94 5b b6 bd 04 ae 1e bd 55 7a a9 bd 8b 42 13 be
       -0.08904186 -0.038740173 -0.08275286 -0.14380853
000110 4d fe ef bd c6 31 dd 3c 5a 4b a8 bd 01 8c d5 bd
       -0.11718426 0.027001273 -0.08217497 -0.10427094
000120 8d 67 c3 bd d6 f2 05 be 55 61 a8 bd 8d e5 ce bd
       -0.09541235 -0.13080916 -0.082216896 -0.10102377
000130 4d 3e fb bc e6 ae aa bd 95 a0 f7 bd 37 74 93 bd
       -0.030669356 -0.083341405 -0.120911755 -0.071999006
000140 60 a1 c0 bd c9 1b 87 bd f6 ff 04 bd 5f 8d 23 bd
       -0.0940578 -0.065970965 -0.032470666 -0.039929744
000150 c8 b0 23 be 5f 79 ca bd 72 63 2a bd 85 29 07 be
       -0.15985405 -0.09886431 -0.041598745 -0.13199432
000160 dc 41 97 bd 0e ed f1 bc 07 28 9d bd fc 8c 40 bd
       -0.073856086 -0.029531982 -0.0767365 -0.047009453
000170 01 72 af bd c8 dc 99 bd 11 0f 91 bd d3 43 76 bd
       -0.085666664 -0.07512814 -0.07082952 -0.060123276
000180 e8 4b 7d bd aa ef 52 bd 23 00 54 bd f9 06 8f bd
       -0.061839968 -0.051498093 -0.051757943 -0.06983752
000190 8c 7a 24 bd 2a 6b 1e be 7e df da bd 4a 1b a6 bd
       -0.040155932 -0.15470567 -0.10687159 -0.08110674
0001a0 64 e5 4a bd d4 df 5c bd fe 90 15 be 62 93 49 ba
       -0.04953517 -0.053924397 -0.14606091 -0.0007689503
0001b0 da c6 ee bd e3 08 90 bd c8 72 f3 bd c1 e6 fd bd
       -0.11659022 -0.07032945 -0.11887127 -0.123975284
0001c0 11 c5 ec bd 9a ae 97 bd cb 5d b2 bd 0e c4 9b bd
       -0.11561025 -0.074063495 -0.08709296 -0.07605754
0001d0 85 be a0 bd 90 b8 c3 bd 40 af 53 bd 38 3b 04 be
       -0.07848839 -0.09556687 -0.051680803 -0.12913215
0001e0 60 27 a7 bd 3d 98 45 bd 15 7a 09 3d ac 83 c7 bd
       -0.08161807 -0.04824089 0.033563692 -0.09741911
0001f0 cf 8c 8b bd 9e 7a dc bd 05 63 51 bd ef 87 92 bd
       -0.068139665 -0.10765575 -0.051119823 -0.071548335
000200 0f e0 8c bd db 1c 1f bd ca 15 74 bd 14 ed e1 bc
       -0.06878673 -0.038845878 -0.059591092 -0.027578868
000210 cc 0e c9 bd 72 40 4d bd 07 be 95 bd 03 10 73 bd
       -0.098172754 -0.050110288 -0.073116355 -0.05934144
000220 be a4 a7 bc 31 20 c0 bd 4f 1c 03 bd c9 56 e1 bd
       -0.020464297 -0.0938114 -0.03200942 -0.11002881
000230 24 57 75 bc 41 91 23 bd 8c 6b ad bd d2 99 11 be
       -0.014974389 -0.039933447 -0.084677786 -0.14218834
000240 67 a0 b8 bd 45 71 55 bd ce 93 90 bd d3 d2 a9 bd
       -0.09014969 -0.052109975 -0.070594415 -0.08292165
000250 8b f6 ae bd 1a b9 64 bc c4 f1 de bd 0c ec c6 bd
       -0.08543118 -0.013960147 -0.10885957 -0.09712991
000260 55 e9 20 bd 3e ff a2 bd fc cb 08 be 2e 92 75 bd
       -0.039285023 -0.0795884 -0.13359064 -0.05995386
000270 24 a6 9e bd 10 fc ac bd 30 19 c5 bc ed 3d 5d bd
       -0.077465326 -0.084465146 -0.024059862 -0.054014135
000280 7e 89 b9 bd 87 64 d0 bd 16 e2 6d bd 99 da bb bc
       -0.09059428 -0.10175424 -0.05807694 -0.022931384
000290 4d 36 47 bd 6c cf ba bd 41 be 96 bd 6a 7a ea bd
       -0.04863577 -0.09121594 -0.07360507 -0.1144913
0002a0 c4 e6 87 3c f1 92 96 bd 75 04 63 bd 32 a9 09 be
       0.01658953 -0.073522456 -0.055424172 -0.13443449
0002b0 33 f0 0f be a3 e3 92 bd 70 13 7e bd de e1 1d be
       -0.14056472 -0.071723245 -0.062030256 -0.15418193
0002c0 f2 fe b6 bd cd 51 d5 bd 8f 04 eb bd 2c d7 25 bd
       -0.08935346 -0.10415993 -0.11475479 -0.040488407
0002d0 7f 6c 1f bd c7 f0 6c bd de 69 d4 bd 32 f5 07 be
       -0.03892183 -0.05784681 -0.10371755 -0.13277128
0002e0 35 a7 02 be e7 dc 59 bd 83 9f 77 bd 9e fc 8e bd
       -0.12759097 -0.053189185 -0.060454857 -0.06981777
0002f0 ca d9 e2 bd 1a 4c 98 bd c4 66 a1 3b 20 14 18 be
       -0.11076696 -0.0743639 0.0049255807 -0.14851427
000300 ca 66 c5 bd ef 54 52 bd c0 e8 fa bc f2 4a 9e bd
       -0.09638746 -0.05135053 -0.030628562 -0.077291384
000310 42 6c a9 bd 97 cb 10 be 3f 59 b4 bd 2a af fe bd
       -0.08272602 -0.14140163 -0.08806085 -0.12435754
000320 82 55 4c bd 07 fd b7 bd e2 af 45 bd 71 bd 94 bd
       -0.049886234 -0.08983808 -0.048263438 -0.072626956
000330 9d 9d b6 bd 80 9a a1 bd b6 9f 01 be 3f 82 85 bd
       -0.08916781 -0.07890797 -0.12658581 -0.06518983
000340 e5 ef 8b bd a2 48 a0 bd d8 af 91 bd 3c 55 a5 bd
       -0.068328656 -0.078263536 -0.07113618 -0.08072898
000350 3f cd c6 bd 5d d7 87 bd d7 c3 af bd bc 84 06 bd
       -0.09707116 -0.06632874 -0.08582275 -0.03284143
000360 4b e6 b7 bc 86 53 d4 bc 54 5d c8 bd 97 f6 b9 bd
       -0.02244868 -0.025918733 -0.09783426 -0.090802364
000370 5d 2b 93 bd c5 5e d0 bd b8 bb be bd e5 0b ea bd
       -0.07186005 -0.10174326 -0.09313148 -0.1142805
000380 4d d0 b3 bd 53 3c dc bd 48 92 af bd 68 2f fb bc
       -0.087799646 -0.107536934 -0.08572823 -0.030662253
000390 01 ad 46 bd 08 8e 64 bd 4d 16 e4 bd ac 2b a4 bd
       -0.048504833 -0.055799514 -0.11137066 -0.08016142
0003a0 f7 95 cd bd 18 10 d4 bd 50 dd 9e bd 88 86 0e bd
       -0.10038369 -0.10354632 -0.07757056 -0.034796268
0003b0 65 0d 99 bd e0 09 d9 bd b4 ff f3 bd 60 f7 1c be
       -0.07473258 -0.10597587 -0.11914006 -0.15328741
0003c0 3b 74 c8 bd f8 c5 17 bd eb f6 a2 bd 4f 5f 5a bc
       -0.09787794 -0.037054032 -0.07957252 -0.013328387
0003d0 7d 25 1d bd 40 21 f5 bd 1f d7 1b bd 49 9d 42 be
       -0.03836583 -0.119692326 -0.038046952 -0.19005312
0003e0 29 54 4c bd 8b 8e ca bc c2 e8 a2 bd c1 45 ee bd
       -0.04988495 -0.024726173 -0.07954551 -0.11634398
0003f0 c6 4f 9d bd 67 43 96 bd 16 89 4a bd 46 7a 9f bd
       -0.07681231 -0.07337075 -0.04944714 -0.07786994
