time_evolution/models/ConvNextFramePredictor_v1/model_weight.ckpt (torch, 702059 bytes, 55 tensors)

encoder.downsample_blocks.0.0.weight f4 [32]
0	0x3f4c3479	0.79767567
1	0x3f55aa1b	0.83462685
2	0x3f4fadbf	0.8112449
3	0x3f6e648f	0.9312219
4	0x3f538d54	0.82637525
5	0x3f5f8767	0.8731598
6	0x3f6aabd2	0.91668427
7	0x3f7427cb	0.9537322
8	0x3f4dda6c	0.8041141
9	0x3f5289fd	0.82241803
10	0x3f52bf60	0.82323265
11	0x3f6680d4	0.90040326
12	0x3f6872f1	0.90800387
13	0x3f6aba18	0.91690207
14	0x3f5d53c0	0.8645592
15	0x3f707f1a	0.9394394
16	0x3f77df59	0.96825176
17	0x3f5bcc93	0.8585903
18	0x3f70bca7	0.9403786
19	0x3f5c83f1	0.86138827
20	0x3f81508c	1.0102706
21	0x3f81dbfc	1.0145259
22	0x3f7f5b9f	0.9974918
23	0x3f604a26	0.8761314
24	0x3f73c84f	0.9522752
25	0x3f6d039e	0.92583644
26	0x3f6c82a7	0.9238686
27	0x3f63e5f8	0.8902278
28	0x3f69234b	0.9106948
29	0x3f5cb5f6	0.8621515
30	0x3f703da5	0.9384406
31	0x3f634642	0.8877908

encoder.downsample_blocks.0.0.bias f4 [32]
0	0x3ccabfdd	0.02474969
1	0xbc1f2d2e	-0.0097153615
2	0x3d2860c5	0.04110791
3	0x3aa88a5c	0.0012858617
4	0x3a7f8266	0.0009746909
5	0x3c2c2f61	0.010509343
6	0xbc2956d8	-0.010335647
7	0xbccb1580	-0.024790525
8	0xbbf5bcd7	-0.007499318
9	0x3c04238d	0.008065117
10	0xbaeca5d4	-0.0018054792
11	0xbd28e612	-0.041235037
12	0x3d9fcf29	0.078031845
13	0x3b7036c5	0.003665374
14	0xbc56a909	-0.013101825
15	0x3bcdd7f1	0.0062818457
16	0xbca905e5	-0.020632694
17	0xbd2be8aa	-0.041969933
18	0x3d1dacc5	0.038494844
19	0x3aaa1aee	0.0012977996
20	0x3cc9eace	0.024648096
21	0xbcefe6a1	-0.029284777
22	0xbcde9612	-0.027171168
23	0x3c9b116f	0.018929211
24	0x3c6800c0	0.014160335
25	0xbc18ae70	-0.009318933
26	0xbc2be92a	-0.010492602
27	0xbca6c983	-0.02035976
28	0x3c379658	0.011205278
29	0xbcadcce7	-0.02121587
30	0x3ca38ea4	0.019965477
31	0xbbfd155b	-0.007723493

encoder.downsample_blocks.0.1.weight f4 [64, 32, 2, 2]
0	0x3d903dd9	0.070430465
1	0x3d37c2bb	0.044863444
2	0xbd7d569e	-0.061850183
3	0xbda43e07	-0.08019643
4	0xbd66221e	-0.05618488
5	0xbd97d24e	-0.07413159
6	0x3d1ea4bc	0.03873132
7	0x3c284fbd	0.010272917
8	0x3d4a78e4	0.049431697
9	0x3d5ab6b5	0.0533969
10	0xbccf82ca	-0.02533092
11	0xbc3b98a0	-0.011449963
12	0x3c962dac	0.018332325
13	0xbd68397e	-0.056695454
14	0x3c436d9d	0.011927989
15	0x3e24c12b	0.16089313
16	0x3e0e1d40	0.13878345
17	0xbe06b5d0	-0.13155293
18	0x3d827794	0.06370464
19	0xbdd6c2c8	-0.1048637
20	0x3d1b4dc6	0.037915967
21	0x3cc6452c	0.024202906
22	0x3d70d98d	0.058801223
23	0x3e86b5c0	0.2631054
24	0x3dea21a2	0.11432196
25	0xbd3c6c14	-0.04600151
26	0xbe162080	-0.14660835
27	0xbda6622e	-0.08124195
28	0xbb9ef966	-0.004851508
29	0x3da8ebc4	0.08248094
30	0x3d370151	0.04467899
31	0x3d741688	0.0595918
32	0x3d52c6eb	0.051459234
33	0x3caacb27	0.020848824
34	0x3d12c5eb	0.03583328
35	0xbdadb580	-0.08481884
36	0x3e0af952	0.1357167
37	0x3d814a62	0.063130155
38	0xbd8a29c8	-0.067462504
39	0x3c4a3413	0.012341517
40	0x3cc2353c	0.023707025
41	0x3e34fd62	0.17674783
42	0x3d557bbb	0.05211995
43	0xbda6e574	-0.081492335
44	0xbd25139d	-0.040301908
45	0x3d6ea41a	0.05826197
46	0xbe180283	-0.14844708
47	0xbd3fce71	-0.046827737
48	0x3ca78a5b	0.020451715
49	0x3d008f12	0.031386442
50	0x3bd600a4	0.006530838
51	0xbd4f2b69	-0.05057851
52	0xbc947a53	-0.018124735
53	0x3d9f9cc9	0.07793576
54	0xbcabf5b2	-0.02099118
55	0x3cabd7a0	0.020976841
56	0x3cb047c2	0.021518592
57	0x3cc5b2db	0.024133136
58	0x3d57291d	0.052529443
59	0xbd5dd295	-0.054155905
60	0xbd3bfb77	-0.045894112
61	0xbd576788	-0.05258897
62	0xbd4d930d	-0.050189067
63	0xbd618a7c	-0.05506371
64	0xbddcc06a	-0.107788876
65	0xbd95b8bc	-0.07310626
66	0x3dad233d	0.08453987
67	0x3dd8d5cd	0.10587654
68	0x3d816b1c	0.063192576
69	0x3d966104	0.07342723
70	0xbdc0a195	-0.09405819
71	0xbda4e3f7	-0.08051293
72	0x3d913097	0.07089346
73	0xbdac35f3	-0.084087275
74	0x3da4ac8e	0.08040725
75	0x3d7f0529	0.06226078
76	0x3e01a2de	0.12659785
77	0xbe0026f7	-0.12514864
78	0xbdd83c51	-0.105583794
79	0x3c03cb8d	0.008044136
80	0xbdcc79ac	-0.099841446
81	0x3dd041c5	0.101687945
82	0x3dd43a83	0.10362723
83	0x3e0775a4	0.1322847
84	0xbdc53c57	-0.096306495
85	0xbd700ee6	-0.05860796
86	0xbd21da8f	-0.039515074
87	0xbd3f001a	-0.046630956
88	0xbc12ac01	-0.008952142
89	0x3c7be567	0.015374518
90	0x3d598ca6	0.05311265
91	0x3dc71c11	0.0972215
92	0x3d9bfb2b	0.07616266
93	0x3defe9f2	0.117145434
94	0xbd3bb369	-0.045825396
95	0x3d73bc3e	0.059505694
96	0xbd887333	-0.066625975
97	0x3d570f50	0.052504838
98	0xbde7ccdf	-0.11318373
99	0x3e1ef162	0.15521768
100	0xbd5531e7	-0.052049544
101	0xbd62280e	-0.05521398
102	0x3d266dd4	0.040632084
103	0x3d2a5a98	0.041590303
104	0x39d7aec2	0.000411382
105	0x3e2251d1	0.15851523
106	0x3d864e33	0.06557884
107	0x3e15be27	0.14623319
108	0x3dafb79e	0.08579944
109	0x3dfbe0d4	0.12298742
110	0x3d8225f3	0.063548945
111	0x3dfb3983	0.12266829
112	0xbc1561c8	-0.009117551
113	0xbda8b214	-0.08237091
114	0x3ddf508e	0.109040365
115	0x3e5d5e40	0.21617985
116	0x3d84c931	0.06483687
117	0x3d0f955e	0.035054557
118	0xbc86ce30	-0.01645574
119	0xbe0e48d1	-0.13894965
120	0xbd680e1b	-0.056654077
121	0x3dedd47e	0.11612795
122	0xbdc817b1	-0.09770144
123	0xbcbbd1f7	-0.022927267
124	0x3c6fcdb1	0.014636443
125	0xbcc72b20	-0.024312556
126	0x3e1463c8	0.14491189
127	0x3e875437	0.26431438
128	0xbc99ce63	-0.01877517
129	0xbba70ae3	-0.0050977333
130	0x3cf0e8b6	0.02940784
131	0xbd3931ff	-0.045213696
132	0xbdb88192	-0.090090886
133	0xbd1692d0	-0.036761105
134	0x3c9818c5	0.018566499
135	0xbd364225	-0.044496674
136	0x3b79d732	0.0038122651
137	0x3e204211	0.15650202
138	0x3ddfc537	0.109262876
139	0x3dcdb6bd	0.1004462
140	0xbd2e8734	-0.04260941
141	0x3b19c898	0.002346551
142	0xbe0addee	-0.13561222
143	0xbd4c914f	-0.049943265
144	0xbd522c5d	-0.05131184
145	0xbc1198b5	-0.008886506
146	0xbcf94bc1	-0.03043163
147	0x3dbc458b	0.09192952
148	0x3c48e8b9	0.012262517
149	0xbdcf3b91	-0.10118783
150	0x3b22d0be	0.0024843658
151	0xbd1bc3cb	-0.03802852
152	0x3be022bd	0.0068400786
153	0xbd118d1c	-0.035534963
154	0x3a3b2f33	0.0007140517
155	0xbb0ff021	-0.0021963196
156	0x3d97e865	0.074173726
157	0x3da353f4	0.07974997
158	0xbde7e299	-0.11322517
159	0xbd583340	-0.05278325
160	0xbc7d98d4	-0.015478332
161	0x3cd43f13	0.025908982
162	0x3d12a100	0.035798073
163	0x3de06510	0.10956776
164	0x3de2493e	0.11049126
165	0x3d8dcd72	0.06923951
166	0x3d6dcb64	0.058055297
167	0xbd56bd39	-0.05242655
168	0x3dcce242	0.10004093
169	0x3c54750a	0.012967357
170	0x3e154694	0.14577705
171	0x3e09e059	0.13464488
172	0xbd20cfa8	-0.039260536
173	0xbde54194	-0.11194149
174	0x3d39d9e0	0.045373797
175	0xbc65043f	-0.013978063
176	0xbda9fa37	-0.08299678
177	0x3d97b199	0.07406921
178	0x3df13c01	0.11779023
179	0xbd788887	-0.060677078
180	0xbc7b6b2c	-0.015345376
181	0x3d466719	0.048438165
182	0x3d00561b	0.031332117
183	0x3dde2c44	0.10848287
184	0xbd79174a	-0.060813226
185	0x3c8716a2	0.016490284
186	0x3cfe7573	0.031061864
187	0xbcc63d6c	-0.02419921
188	0xbd335c4b	-0.04378919
189	0x3d23557c	0.039876446
190	0xbc2ca374	-0.010537017
191	0xbc9968b5	-0.018726686
192	0xbc8ef281	-0.01744962
193	0xbe171c02	-0.14756778
194	0xbdcd0333	-0.10010376
195	0xbe2fe961	-0.1717887
196	0xbcd52420	-0.026018202
197	0x3d34f619	0.04418001
198	0xbcd5e5b9	-0.026110517
199	0x3c9040f4	0.017609097
200	0xbd0715c6	-0.03297975
201	0xbc0290f4	-0.00796913
202	0xbd49e20d	-0.049287844
203	0x3d05fd59	0.032712314
204	0xbd1d38e2	-0.038384326
205	0x3d3bd0b2	0.045853324
206	0x3d94a0fd	0.072572686
207	0x3ccbe10e	0.024887588
208	0xbd750f5e	-0.05982911
209	0x3d9a8d5e	0.07546495
210	0x3cace363	0.02110452
211	0xbd9eefa6	-0.07760553
212	0x3d25b9b9	0.040460322
213	0xbd3e8caf	-0.046520885
214	0xbd8faa15	-0.070148624
215	0xbd1b8450	-0.03796798
216	0xbb82d440	-0.0039925873
217	0xbd4edae8	-0.050501734
218	0xbd918dbc	-0.07107112
219	0x3de719e4	0.11284235
220	0x3d3b5764	0.04573764
221	0x3d03b3e5	0.032153983
222	0x3cb36d45	0.02190269
223	0x3d24d999	0.04024658
224	0x3d33d525	0.043904442
225	0xbdc115d8	-0.094279945
226	0x3d541a67	0.05178299
227	0x3c18ac1b	0.009318377
228	0x3d868df1	0.06570042
229	0xbe0e936a	-0.13923422
230	0x3d17b3bc	0.037036642
231	0xbd87033e	-0.06592415
232	0x3d8e887b	0.06959625
233	0xbd870da1	-0.065943964
234	0x3d7c15fb	0.0615444
235	0xbd2f26b9	-0.04276154
236	0x3b8486df	0.004044398
237	0x3d1f2673	0.038855027
238	0xbda4e5b1	-0.08051623
239	0xbd08a257	-0.033357944
240	0xbb2b62e0	-0.0026151463
241	0x3c859e10	0.016310722
242	0x3dba7f23	0.09106281
243	0xbb6a3fd6	-0.0035743616
244	0x3da84536	0.08216326
245	0xbd9ba7e7	-0.07600384
246	0xbd2bd9f8	-0.041955918
247	0x3ba0315e	0.0048886975
248	0xbdf102c0	-0.11768103
249	0xbdc19d6b	-0.09453853
250	0x3d8722ff	0.06598472
251	0xbd52dafa	-0.051478364
252	0xbb67de36	-0.003538025
253	0x3db651e8	0.08902341
254	0xbc77a54a	-0.015115092
255	0xbdecc9bc	-0.11561915

encoder.downsample_blocks.0.1.bias f4 [64]
0	0x3c9e84a9	0.019350367
1	0xba955758	-0.0011393828
2	0x3e0b4615	0.13600953
3	0x3d428ee9	0.04749957
4	0xbc13b40a	-0.009015093
5	0xbdd0b54f	-0.10190832
6	0x3c85768b	0.016291877
7	0x3d93cd11	0.07216848
8	0x3d8d160f	0.06888973
9	0x3e72ffa2	0.23730329
10	0xbd74b08e	-0.05973869
11	0x3d1206b1	0.035650913
12	0xbe914cd5	-0.2837893
13	0xbdf1b047	-0.118012
14	0xbce27f33	-0.027648544
15	0x3df51977	0.11967748
16	0xbe26376c	-0.1623208
17	0xbcfe025c	-0.031006984
18	0x3c931615	0.017954865
19	0x3d069c5b	0.032863956
20	0xbced7340	-0.02898562
21	0xbe845be6	-0.25851363
22	0x3c950908	0.018192783
23	0x3e088352	0.13331345
24	0xbd6122a9	-0.054964695
25	0x3d94d804	0.07267764
26	0xbe02abe0	-0.12760878
27	0xbf2512ae	-0.6448163
28	0xbbad85e8	-0.005295504
29	0x3e007570	0.12544799
30	0xbd889edf	-0.06670927
31	0xbdc7e99d	-0.09761355
32	0x3ee6bdc5	0.45066658
33	0xbd6a15b8	-0.05714962
34	0x3cc4609f	0.023971854
35	0x3eef988e	0.46796077
36	0x3e124cd2	0.14287117
37	0x3ca7b9b1	0.020474287
38	0x3ba0f668	0.0049121864
39	0xbd9e6b03	-0.077352546
40	0xbd6342f0	-0.05548376
41	0x3c83082d	0.01599511
42	0x3e0890ab	0.13336436
43	0xbd303cd9	-0.04302678
44	0x3ca9a14c	0.020706795
45	0xbcd1ea25	-0.025624344
46	0xbe267b52	-0.1625798
47	0xbd6c0dbb	-0.057630282
48	0x3e0c9781	0.13729669
49	0xbc5edf82	-0.013603093
50	0xbbcb46e6	-0.00620352
51	0x3d18cf7a	0.03730724
52	0x3d27e915	0.04099377
53	0x3c99c61b	0.018771222
54	0x3d2eb09f	0.042648908
55	0xbe1073ba	-0.14106646
56	0xbce4832e	-0.027894583
57	0x3c51c323	0.012802872
58	0x3af54b8a	0.0018714529
59	0xbda66265	-0.08124236
60	0x3c8d2cd5	0.017233292
61	0x3dafad99	0.08578033
62	0x3beda60d	0.007252461
63	0xbdba9437	-0.09110301

encoder.downsample_blocks.1.0.weight f4 [64]
0	0x3f3034ba	0.68830454
1	0x3f27b6bb	0.655132
2	0x3f3fd8df	0.74940294
3	0x3f35f9be	0.710842
4	0x3f079aa3	0.5297033
5	0x3f352f5a	0.7077538
6	0x3f20d0e2	0.6281873
7	0x3f1f7914	0.62294126
8	0x3f1f0567	0.6211762
9	0x3f4140f6	0.7548975
10	0x3f268012	0.6503917
11	0x3f19504e	0.5988816
12	0x3f255664	0.64584947
13	0x3f2bf067	0.671637
14	0x3f533994	0.8250973
15	0x3f3b32b4	0.7312424
16	0x3f08d41a	0.5344864
17	0x3f09a4a3	0.5376684
18	0x3f2db1be	0.6784934
19	0x3f58df18	0.84715414
20	0x3f292962	0.6607877
21	0x3f167819	0.58777004
22	0x3f2f3da1	0.68453413
23	0x3f43624f	0.7632188
24	0x3f2f89a7	0.68569416
25	0x3f49cf8a	0.78832304
26	0x3f2e76ec	0.6815021
27	0x3f3683eb	0.7129504
28	0x3f4b4891	0.794076
29	0x3f38db7f	0.72209924
30	0x3f2d159b	0.6761109
31	0x3f37a938	0.7174258
32	0x3f0f3269	0.55936295
33	0x3f1be33e	0.6089362
34	0x3f2f1443	0.6839029
35	0x3f2b26c7	0.66856045
36	0x3f4d02c4	0.80082345
37	0x3f21291a	0.6295334
38	0x3f19df32	0.60106194
39	0x3f4f1015	0.80883914
40	0x3f31eeed	0.69505197
41	0x3f20752a	0.6267878
42	0x3f347ff0	0.7050772
43	0x3f58aa0b	0.84634465
44	0x3f2c060b	0.6719672
45	0x3f43df1d	0.7651232
46	0x3f42215b	0.75832146
47	0x3f55650a	0.833573
48	0x3f4821f9	0.7817684
49	0x3f06e041	0.52685934
50	0x3f356f31	0.7087279
51	0x3f17965b	0.592138
52	0x3f4c78e2	0.7987195
53	0x3f0f1079	0.5588451
54	0x3f0f29e1	0.5592328
55	0x3f0d95b6	0.55306566
56	0x3f12a0a0	0.57276344
57	0x3f40ebdf	0.7535991
58	0x3f18b15a	0.59645617
59	0x3f48d253	0.7844593
60	0x3f2be793	0.6715023
61	0x3f18acb4	0.59638524
62	0x3f23cb88	0.6398244
63	0x3f1ea671	0.6197272

encoder.downsample_blocks.1.0.bias f4 [64]
0	0xbdf11de9	-0.11773283
1	0xbd1e1104	-0.038590446
2	0x3c849819	0.016185807
3	0xbb3f6666	-0.0029205321
4	0x3dd04f93	0.101714276
5	0xbd617dc9	-0.0550516
6	0xbda1fa45	-0.07909063
7	0xbd8e399e	-0.06944583
8	0xbd389eb1	-0.045073215
9	0xbd706c91	-0.058697287
10	0x3c7a3876	0.01527225
11	0x3d150840	0.03638482
12	0xbc96a111	-0.01838735
13	0xbd233080	-0.039841175
14	0x3b261d9c	0.0025347238
15	0x3ca357ba	0.019939292
16	0x3b12fb49	0.002242761
17	0xbccea2e7	-0.025224162
18	0x3d912a88	0.0708819
19	0x3d61eb0d	0.055155803
20	0x3caf564f	0.02140346
21	0xbd069f48	-0.032866746
22	0xbcd7ad9c	-0.0263279
23	0xbca26428	-0.019823149
24	0xbd09c2da	-0.03363309
25	0x3d4a8dbf	0.049451586
26	0x3e17e618	0.14833868
27	0x3d0d4d73	0.03449769
28	0x3d610352	0.054934807
29	0x3cf30fb4	0.029670574
30	0x3ba47ed1	0.0050200005
31	0x3bba8426	0.005692023
32	0x3cb4d774	0.022075392
33	0xbd0d73c6	-0.03453424
34	0xbb47a817	-0.003046518
35	0xbd600842	-0.054695375
36	0xbdabf24d	-0.083958246
37	0xbc43bd73	-0.011947024
38	0xbd20f356	-0.039294563
39	0xbdc07d55	-0.09398905
40	0x3bb600fa	0.0055543156
41	0x3c97fcaf	0.018553106
42	0xbda7cff1	-0.081939586
43	0xbd8d8854	-0.06910768
44	0xbcb2ab69	-0.02181025
45	0x3d8f20aa	0.06988652
46	0xbc26d0c1	-0.010181607
47	0x3c49e3fb	0.012322421
48	0xbd8d33e9	-0.06894667
49	0x3e26c8fe	0.1628761
50	0xbc8b54af	-0.017008154
51	0xbd82e0c2	-0.063905254
52	0x3d30de30	0.043180645
53	0xbd3e29af	-0.04642647
54	0x3d005961	0.03133524
55	0xbd8c0aac	-0.06837973
56	0xbde5fdd8	-0.112300575
57	0x3ca9d744	0.02073253
58	0x3e09ea42	0.13468269
59	0x3d2a2aeb	0.041544836
60	0xbd68beed	-0.056822706
61	0xbd1585b6	-0.03650447
62	0xbd574eab	-0.052565258
63	0xbc17f99e	-0.009275822

encoder.downsample_blocks.1.1.weight f4 [32, 64, 2, 2]
0	0xbd8de434	-0.06928292
1	0x3b4db32f	0.003138732
2	0x3c5e8d71	0.013583527
3	0xbd9c435e	-0.07630037
4	0xbd040560	-0.03223169
5	0xbd25c655	-0.040472347
6	0xbd3b2c0e	-0.04569631
7	0xbd5ae682	-0.053442486
8	0x3da58420	0.080818415
9	0x3d8dcab6	0.0692343
10	0x3d4c8f62	0.049941428
11	0x3df3c824	0.11903408
12	0x3be716fc	0.0070523005
13	0x3d94f946	0.07274108
14	0xbdf09b07	-0.11748319
15	0xbc84ec34	-0.016225912
16	0x3c9b6ce9	0.01897283
17	0x3daa3b90	0.08312142
18	0x3caf62d4	0.02140943
19	0x3c90512f	0.017616836
20	0x3d18ee37	0.037336554
21	0x3be18b42	0.006883056
22	0x3d372c7a	0.04472015
23	0x3d9e8b7e	0.0774145
24	0x3d164607	0.036687877
25	0x3daa0765	0.08302192
26	0x3ce7bbc8	0.028287783
27	0x3da5a1d3	0.08087506
28	0xbc2b3783	-0.010450247
29	0xbd80f43f	-0.06296586
30	0xbde83bc2	-0.11339523
31	0xbdd1f1db	-0.102512084
32	0xbc5eb3a5	-0.013592635
33	0xbc2c23c8	-0.010506578
34	0x3acee4f3	0.0015784785
35	0xbcad72e5	-0.02117295
36	0xbdc820ba	-0.09771867
37	0x3dbd4c16	0.09243028
38	0x3d716f25	0.058943886
39	0x3d412f3f	0.047164198
40	0x3d66fc7b	0.056393128
41	0x3d8bbf11	0.068235524
42	0x3d0e31be	0.034715407
43	0x3c3b2a6a	0.0114236865
44	0xbdff7d3c	-0.124750584
45	0xbd0b8424	-0.034061566
46	0xbd04ffd1	-0.032470528
47	0xbd14d239	-0.036333296
48	0xbd2511eb	-0.04030029
49	0xbdd70124	-0.104982644
50	0xbdc1b2ab	-0.09457906
51	0xbdd3a58c	-0.1033431
52	0x3c9320d3	0.017959988
53	0x3d386c24	0.045025006
54	0x3dba586b	0.09098896
55	0x3b9d8e1e	0.0048082015
56	0xbe0e160c	-0.13875598
57	0xbe362d89	-0.17790808
58	0x3ccafd33	0.024778938
59	0x3c97ec98	0.018545434
60	0x3d724e00	0.059156418
61	0xbd118f0f	-0.035536822
62	0x3c469cff	0.012122392
63	0x3cdbdc3f	0.02683842
64	0x3d800db1	0.062526114
65	0xbd53d04b	-0.051712316
66	0xbdb2fe83	-0.087399505
67	0x3caf783c	0.021419637
68	0xbd1dae3b	-0.038496237
69	0x3d2a2c71	0.04154629
70	0xbd4d30b1	-0.050095264
71	0x3d8c4d66	0.068507
72	0xbd86a63c	-0.065746754
73	0xbc7ef1be	-0.0155605655
74	0x3db9fb1f	0.09081101
75	0x3d2d7f19	0.042357538
76	0x3c00b889	0.007856497
77	0xbc136f59	-0.008998715
78	0x3d062969	0.032754336
79	0xbd611dad	-0.05495994
80	0xbd5c8184	-0.053834453
81	0xbda8ed58	-0.08248395
82	0xbd1a2195	-0.037629683
83	0xbd16929d	-0.036760915
84	0x3d555b00	0.052088737
85	0x3cdaf989	0.026730316
86	0xbc8995e0	-0.016795099
87	0x3dd27171	0.102755435
88	0x3c29f99d	0.010374454
89	0x3bae8a81	0.0053265695
90	0x3d131323	0.035906922
91	0x3db6f413	0.08933272
92	0xbcd6a760	-0.026202857
93	0xbcc3e573	-0.02391312
94	0x3d1bfe7c	0.038084492
95	0x3c8836f1	0.01662776
96	0x3bd4658a	0.006481831
97	0xbd6b86a9	-0.05750147
98	0x3b1828b1	0.0023217613
99	0xbcf2ab7e	-0.02962279
100	0xbc557e8f	-0.013030662
101	0x3d35ddec	0.044401094
102	0xbd37b9ce	-0.04485493
103	0x3da6cdf2	0.0814475
104	0x3d1a4559	0.03766379
105	0xbd1100ff	-0.03540134
106	0xbd446135	-0.047944266
107	0x3d568afd	0.052378643
108	0xbdd841df	-0.10559439
109	0x383e91ef	4.543544e-05
110	0xbdb0b2e4	-0.08627871
111	0xbdae6ce5	-0.08516864
112	0x3d0f3609	0.03496364
113	0x3c2493b1	0.010044978
114	0x3d5625a7	0.052282
115	0x3c5298e5	0.012853836
116	0x3df9aa9c	0.12190744
117	0x3a82c14b	0.0009975819
118	0xbc82a313	-0.0159469
119	0x3da99f96	0.08282392
120	0xbe27c5c7	-0.1638404
121	0x3d341e9e	0.04397451
122	0xbdcf8b2c	-0.10133967
123	0x3d05f869	0.032707606
124	0xbd83c55b	-0.06434127
125	0xbc853142	-0.01625884
126	0xbdbc3ded	-0.09191499
127	0xbc9c47c6	-0.019077193
128	0xba96fa48	-0.0011518681
129	0xbdc961f3	-0.098331355
130	0x3c61ef98	0.013790034
131	0xbcde9d61	-0.027174653
132	0xbcb14cb6	-0.021643024
133	0xbd8f9ded	-0.07012544
134	0xbd08d958	-0.0334104
135	0xbcb9f160	-0.022698104
136	0x3cb1a4e1	0.021685066
137	0x3dfd1b15	0.12358681
138	0x3dad50f1	0.08462704
139	0xbb3960ea	-0.0028286525
140	0xbdf6ea51	-0.12056411
141	0xbd6ba497	-0.057530012
142	0x3d31229a	0.04324589
143	0xbd72139d	-0.059100736
144	0x3d8d48b7	0.06898635
145	0x3cb1b4d2	0.021692667
146	0xbd28dcca	-0.041226186
147	0xbdb03d93	-0.08605494
148	0xbccaab9a	-0.02474003
149	0xbd9058e6	-0.07048206
150	0xbdbda9ee	-0.09260927
151	0xbd913ef6	-0.07092087
152	0xbcbfd559	-0.023417162
153	0x3df39c63	0.11895063
154	0xbc2336ff	-0.009961843
155	0x3d09730e	0.03355699
156	0xbc992612	-0.018694911
157	0xbb8ac52e	-0.0042349314
158	0x3d58c44e	0.052921586
159	0x3d1f2b84	0.03885986
160	0xbd7e4217	-0.062074747
161	0x3d276c38	0.04087469
162	0x3d938341	0.07202769
163	0xbd816b77	-0.063193254
164	0xbbdb8228	-0.0066988654
165	0xbdca84be	-0.098886
166	0xbd5c6d5a	-0.053815223
167	0xbd89f8ef	-0.067369334
168	0xbb939d29	-0.004504819
169	0xbc81820a	-0.015809078
170	0xbdc33056	-0.09530704
171	0xbdb9b73d	-0.09068153
172	0xbd82f9fe	-0.063953385
173	0xbd833a6b	-0.06407627
174	0xbd4143e0	-0.04718387
175	0xbd945d4e	-0.07244359
176	0x3d26bcae	0.040707283
177	0xbcd8b376	-0.026452761
178	0xbd045028	-0.032303005
179	0xbda5fe6b	-0.08105167
180	0xbd195855	-0.037437756
181	0xbc9e3587	-0.019312633
182	0x3d0b22fa	0.033968903
183	0xbd0cbd7d	-0.034360398
184	0x3e07f79b	0.13278048
185	0xbd4d2c44	-0.050091043
186	0xbdbde35e	-0.092718825
187	0x3d08b6b8	0.03337738
188	0xbde4fe00	-0.11181259
189	0xbc27d672	-0.010243999
190	0x3d064a37	0.03278562
191	0xbc72bf9f	-0.014816194
192	0x3cb878bd	0.02251851
193	0x3d9725bb	0.073802434
194	0xbd24d58a	-0.04024271
195	0x3c9f4fe6	0.019447278
196	0xbd11c79e	-0.03559076
197	0x3dbb1f1c	0.09136793
198	0xbc98c9f2	-0.018650983
199	0xbccf7916	-0.025326293
200	0x3d8f9075	0.07009975
201	0x3dd114ff	0.10209083
202	0x3db16a6d	0.08662877
203	0x3d7b4194	0.061341837
204	0x3db290c9	0.08719022
205	0x3da5e72b	0.081007324
206	0x3d9407af	0.07228028
207	0x3d7f6980	0.062356472
208	0x3c4f868c	0.012666356
209	0x3c895403	0.016763693
210	0xbbc0e7c9	-0.005887006
211	0xbd801fdc	-0.06256077
212	0xbd2a4d7b	-0.041577797
213	0x3dcfb589	0.10142047
214	0x3d80e7ce	0.06294213
215	0x3d995a63	0.07487943
216	0x3dbbdf9b	0.09173509
217	0x3dc5bf50	0.096556306
218	0x3d2fd85c	0.042930946
219	0x3d990a7e	0.07472704
220	0x3d8dc86c	0.06922993
221	0x3de4b657	0.11167591
222	0x3db2a647	0.08723121
223	0x3ccb0cd2	0.024786387
224	0x3d655b9f	0.05599558
225	0x3dd4f2e1	0.10397888
226	0x3d341142	0.04396177
227	0xba943094	-0.0011305981
228	0x3d65b0c4	0.05607678
229	0x3dab2372	0.0835637
230	0x3dd15a4d	0.10222302
231	0x3ceee325	0.029161045
232	0xbc28c3df	-0.010300606
233	0x3dc49935	0.095995344
234	0xbca5b390	-0.020227224
235	0x3c3d342a	0.011548081
236	0xbc83f1bb	-0.016106477
237	0xbc87b7c4	-0.016567118
238	0x3dd3bacc	0.10338363
239	0x3d85b205	0.06528095
240	0xbdd54b45	-0.10414747
241	0xbc5848ff	-0.013200997
242	0xbd09b904	-0.03362371
243	0xbcfe1e79	-0.03102039
244	0xbd0c3716	-0.03423222
245	0xbdbbe081	-0.0917368
246	0xbdd096c7	-0.101850085
247	0xbde50271	-0.11182106
248	0xbd261016	-0.040542684
249	0xbdd8f13a	-0.10592885
250	0xbd3e1ef2	-0.04641623
251	0xbd8c7ff9	-0.06860346
252	0x3da6b80f	0.08140575
253	0x3d50a150	0.05093509
254	0x3dcc21b4	0.09967366
255	0x3d2348b2	0.03986425

encoder.downsample_blocks.1.1.bias f4 [32]
0	0x3d31d417	0.043415155
1	0xbd61bb51	-0.05511028
2	0x3e8c8bb6	0.2745034
3	0xbce1a13c	-0.027542703
4	0xba90a578	-0.0011035642
5	0x3c472318	0.012154363
6	0x3df7dcf7	0.121026926
7	0x3ccc6351	0.024949702
8	0xbcb75365	-0.022378633
9	0xbda7b88e	-0.08189498
10	0xbd2c62da	-0.04208646
11	0xbdd28b73	-0.10280504
12	0xbdb378d9	-0.08763284
13	0xbd9ae25f	-0.07562708
14	0x3d7c4c17	0.061596002
15	0xbe0b68ca	-0.13614193
16	0xbcc9f6d7	-0.024653835
17	0xbcaeff55	-0.021361986
18	0xbd85e87b	-0.06538483
19	0x3da45d06	0.08025555
20	0xbe358566	-0.17726669
21	0xbcd9abfa	-0.026571263
22	0xba470eb2	-0.00075934373
23	0xbd51560a	-0.051107444
24	0xbc3b3f78	-0.011428706
25	0x3e04646f	0.12928937
26	0xbc052505	-0.008126502
27	0x3e1f3e88	0.15551198
28	0x3d79151e	0.060811155
29	0xbbf000a9	-0.0073242974
30	0x3d03414e	0.0320447
31	0x3cac08a6	0.021000218

encoder.stages.0.0.depth_conv.weight f4 [32, 1, 5, 5]
0	0xbd1286ba	-0.035773017
1	0xbd2c3df5	-0.042051274
2	0x3af2e95f	0.0018532685
3	0xbd93c023	-0.072143815
4	0xba9e84ad	-0.0012093984
5	0xbd135111	-0.035965983
6	0x3da23ebf	0.07922124
7	0x3da8fcb3	0.082513236
8	0x3d4d9950	0.05019504
9	0xbdb083f9	-0.08618922
10	0x3bccce8c	0.0062502082
11	0x3de87644	0.113506824
12	0x3c017ebe	0.007903753
13	0x3d2c7393	0.042102408
14	0xbb57efaf	-0.003294926
15	0x3d0699cb	0.032861512
16	0x3ccb2770	0.024799079
17	0x3d0c0821	0.03418744
18	0x3cbada8d	0.022809291
19	0xbd0349eb	-0.032052916
20	0xbcb26dfc	-0.02178096
21	0x3c5f7c69	0.013640502
22	0x3c81fc28	0.015867308
23	0xbd9a5889	-0.07536418
24	0x3ca8cd5f	0.020605741
25	0xbbcd753b	-0.0062700785
26	0x3d1638e4	0.03667535
27	0x3c8dd618	0.017314002
28	0x3d2df8a4	0.04247345
29	0x3cb5dd10	0.022200137
30	0xbc0e4096	-0.008682391
31	0xbd05650e	-0.032567076
32	0x3d83c538	0.06434101
33	0xbca13994	-0.019680776
34	0xbcc80221	-0.024415078
35	0x3dba260a	0.090892866
36	0xbdd54683	-0.1041384
37	0x3bf3a35f	0.007435247
38	0x3dcc7aec	0.09984383
39	0xbb82b503	-0.0039888634
40	0x3c8f075c	0.017459564
41	0xbd301a9d	-0.04299413
42	0x3d422eb9	0.04740784
43	0xbd767074	-0.060165837
44	0x3cbba83b	0.022907367
45	0xbcc62891	-0.024189265
46	0xbd83d60b	-0.0643731
47	0x3c7a5cad	0.015280885
48	0xbda7048b	-0.081551634
49	0xbb1bda5a	-0.002378127
50	0xbd88750e	-0.066629514
51	0xbc598a08	-0.013277538
52	0xbbc08152	-0.005874791
53	0x3cab2408	0.020891204
54	0xbb4b5883	-0.00310281
55	0x3d79f435	0.06102391
56	0xba44eb10	-0.00075118337
57	0x3cb53fc0	0.022125125
58	0x3a041532	0.0005038559
59	0xbcd348de	-0.025791582
60	0xbd5efa60	-0.054437995
61	0xbce23df5	-0.027617434
62	0xbc062277	-0.008186928
63	0x3dbf9087	0.09353738
64	0xbafc9e0b	-0.0019273175
65	0xbdbca1ea	-0.0921057
66	0x3da22c7d	0.07918642
67	0x3d7c69ec	0.061624452
68	0x3d6fc43d	0.058536757
69	0xbbbb6869	-0.005719234
70	0xbbef5e4c	-0.0073049422
71	0xbd08aaee	-0.033366136
72	0x3cbc20e8	0.02296491
73	0xbd91dc2b	-0.07122072
74	0x3c7c356b	0.015393595
75	0xbc9f1703	-0.019420153
76	0x3d314577	0.043279137
77	0x3ca47896	0.020077031
78	0xbd2f32e6	-0.04277315
79	0x3d007f86	0.031371616
80	0xbd661043	-0.056167852
81	0xbd958905	-0.07301525
82	0xbcbdb0eb	-0.02315565
83	0xbd651b62	-0.055934317
84	0xbd2f636c	-0.042819425
85	0xbcc073c5	-0.023492703
86	0x3cd9daa2	0.02659351
87	0xbbb4be2c	-0.0055158343
88	0xbd651313	-0.055926394
89	0x3cc6a694	0.024249353
90	0x3dcfa537	0.10138934
91	0xbd64d940	-0.05587125
92	0xbd7d46ee	-0.061835222
93	0xbd92a8f5	-0.07161132
94	0x3db66cf5	0.08907501
95	0x3c87f9f4	0.01659868
96	0x3d4c3f77	0.049865212
97	0xbcec54de	-0.028849062
98	0xbcecfb89	-0.028928535
99	0x3d5c7a37	0.05382749
100	0x3c9cc283	0.01913572
101	0x3cc1a2f9	0.023637282
102	0xbd99ab91	-0.07503427
103	0x3d8d34c1	0.06894828
104	0x3d31e4c8	0.043431073
105	0x3d9488fb	0.072526895
106	0x3c8c8fdc	0.017158441
107	0x3d886c14	0.06661239
108	0x3c69420b	0.014236937
109	0xbd93be0c	-0.07213983
110	0xbd2ce3e6	-0.04220953
111	0x3da5e85c	0.0810096
112	0x3db922cf	0.09039842
113	0xbd26d12d	-0.04072683
114	0xbd2217eb	-0.03957359
115	0xbd17efc8	-0.037093908
116	0x3d0fb8e6	0.035088442
117	0x3d30c98c	0.04316096
118	0x3d999ef7	0.07501023
119	0xbd8e5dbb	-0.069514714
120	0xbdb075ce	-0.086162195
121	0xbc9c8d96	-0.019110482
122	0xbd0237b1	-0.031791393
123	0xbda95fb8	-0.0827021
124	0xbae418b7	-0.0017402385
125	0xbbb7a4ae	-0.005604348
126	0xbca5f3a4	-0.020257778
127	0xbcb4059e	-0.021975335
128	0x3d81a0ee	0.06329523
129	0xbd97a628	-0.07404739
130	0xbd56949c	-0.05238782
131	0x3d08d915	0.03341015
132	0xbd4b37b1	-0.04961366
133	0x3d382b2d	0.04496305
134	0x3d57f319	0.05272207
135	0xbb9f33c1	-0.0048584645
136	0xbdfb4c73	-0.12270441
137	0x3b0425d3	0.0020164147
138	0x3e033472	0.12812975
139	0xbd8d0473	-0.06885614
140	0x3ca64573	0.020296788
141	0xbd2c047b	-0.04199646
142	0xbda59aee	-0.08086191
143	0x3d899ce8	0.067193806
144	0x3d6c88ba	0.05774758
145	0x3c1c4eab	0.00954024
146	0xba96eb88	-0.0011514286
147	0x3d2d5509	0.042317424
148	0xbda4dae2	-0.08049561
149	0x3d769c54	0.06020768
150	0x3dbd4c52	0.092430726
151	0x3bf4e989	0.0074741286
152	0x3d17aa29	0.03702751
153	0xbc21d828	-0.009878196
154	0xbc5dc1b5	-0.013534953
155	0x3d36ed4f	0.04465991
156	0xbdc0e7aa	-0.094191864
157	0x3c9011fa	0.017586697
158	0x3d25726d	0.040392328
159	0x3d83a0fe	0.06427191
160	0x3dbcd402	0.09220125
161	0xbdd78f56	-0.10525386
162	0xbddc079d	-0.107436396
163	0xbdc28713	-0.094984196
164	0x3d9b06e9	0.075696774
165	0x3b0e049a	0.0021670223
166	0xbd880cfe	-0.06643103
167	0xbd414d2b	-0.047192734
168	0xbd97a867	-0.07405167
169	0xbd0f1864	-0.03493537
170	0x3c5aa768	0.013345577
171	0x3cdb0843	0.026737338
172	0x3d034a1a	0.03205309
173	0x3cb42c62	0.02199382
174	0x3ca62ed7	0.020286007
175	0x3dcb65da	0.09931536
176	0xbc978569	-0.018496232
177	0x3d82e833	0.06391945
178	0x3d1f40ca	0.038880147
179	0xbd181ee1	-0.037138823
180	0xbd2c6e76	-0.04209753
181	0xbda6c1bd	-0.081424214
182	0xbdcca7ec	-0.09992966
183	0xbdd1f9fa	-0.10252757
184	0x3da9d547	0.082926326
185	0x3d3afd18	0.045651525
186	0xbce00fe6	-0.027351331
187	0xbe0c34ce	-0.13692018
188	0xbdb3ad66	-0.087733075
189	0x3c1affd6	0.00946041
190	0x3c7d2e6f	0.015452965
191	0x3d81e046	0.06341605
192	0x3d0297b9	0.031882975
193	0xbdac9076	-0.08425991
194	0xbc7a8bca	-0.015292117
195	0x3c82d066	0.015968513
196	0x3d56ffee	0.052490167
197	0xbcfb5769	-0.030681329
198	0x3d3bda29	0.04586235
199	0x3d4126e2	0.047156222
200	0x3d11817e	0.035523884
201	0x3cc1b21e	0.023644503
202	0xbc8bdee4	-0.017074056
203	0x3c851ec3	0.01625002
204	0x3d3b63ca	0.045749463
205	0xbd917866	-0.07103042
206	0xbdcbbaa4	-0.09947708
207	0xbb0017de	-0.0019545476
208	0xbd206422	-0.039157994
209	0xbd120db6	-0.035657607
210	0xbd3c2e71	-0.045942727
211	0xbda3fcc5	-0.08007196
212	0xbd9bb9d7	-0.076038055
213	0xbdc18a30	-0.09450185
214	0x3d084126	0.033265255
215	0x3d997416	0.07492845
216	0xbdbb90fe	-0.091585144
217	0xbda6c279	-0.081425615
218	0x3d42009d	0.047363866
219	0x3d061e41	0.032743696
220	0x3d38e120	0.04513657
221	0x3d637c33	0.055538367
222	0x3c8c40be	0.017120715
223	0xbd0fb581	-0.035085205
224	0x3dc4469c	0.0958378
225	0xbc6c9ad0	-0.014441207
226	0x3d8790ea	0.06619437
227	0x3d7369a7	0.05942693
228	0xbcb6bb74	-0.022306181
229	0x3d7ffa16	0.06249436
230	0xbc5807cf	-0.013185455
231	0xbd3e340a	-0.046436347
232	0xbd6bf0df	-0.05760276
233	0xbc1f0ae5	-0.009707187
234	0xbb602fed	-0.0034208253
235	0xbd87d0ee	-0.06631647
236	0x3d6b5514	0.057454184
237	0x3d9c36c7	0.076276354
238	0x3d37d9f8	0.044885606
239	0x3d0dad40	0.034589052
240	0xbd0bf600	-0.03417015
241	0xbce46018	-0.027877852
242	0x3d94d0ad	0.07266364
243	0x3ceb23fe	0.028703686
244	0x3d29ac50	0.041424096
245	0xbd98013a	-0.07422109
246	0x3d57d1ca	0.052690305
247	0xbdd0c0fa	-0.10193057
248	0xbd8e80a7	-0.06958132
249	0xbd45da8c	-0.048304126
250	0xbd8d985c	-0.06913826
251	0x3d47fc33	0.0488245
252	0x3c0e8505	0.0086987065
253	0xbcf6cd5d	-0.030127222
254	0xbda3fb0f	-0.0800687
255	0xbdb6d961	-0.089281805

encoder.stages.0.0.depth_conv.bias f4 [32]
0	0xbc02438c	-0.007950675
1	0x3ac14a42	0.0014746862
2	0x3c52021e	0.012817888
3	0x3bf86607	0.007580522
4	0x3a9cd616	0.0011965658
5	0xbc339358	-0.010960422
6	0xbb8ce2c5	-0.004299494
7	0x3c23a41b	0.009987856
8	0xbaec1da2	-0.0018014202
9	0xbb87b39e	-0.004141285
10	0x3c410da7	0.01178304
11	0x3b6991eb	0.0035639952
12	0x3b99fa2b	0.004699012
13	0xbb95434c	-0.0045551416
14	0xbbb70782	-0.005585612
15	0xbb86e443	-0.0041165664
16	0xbc1e686d	-0.009668452
17	0xbbe1cc42	-0.0068908045
18	0xbc1bbf2b	-0.009506027
19	0x3ba14e72	0.0049226815
20	0x3b467c4a	0.0030286484
21	0xbbc1c1e9	-0.0059130085
22	0x389eee86	7.5784556e-05
23	0x3b2c0b49	0.0026251844
24	0xbc0dee11	-0.0086627165
25	0xba5ead4f	-0.0008494453
26	0xbb22f361	-0.0024864303
27	0xbb4bf474	-0.0031121047
28	0x3c23d27f	0.009998917
29	0xbad15b01	-0.0015972556
30	0x3913279d	0.0001403377
31	0x39feb0e6	0.00048578455

encoder.stages.0.0.norm.weight f4 [32]
0	0x3f6ced87	0.9254994
1	0x3f555895	0.8333829
2	0x3f66607e	0.89990985
3	0x3f6f1121	0.9338551
4	0x3f6b3c11	0.9188853
5	0x3f5dbecd	0.86619264
6	0x3f846723	1.0343975
7	0x3f7e1a87	0.9925923
8	0x3f78dd54	0.9721272
9	0x3f5f27a5	0.8716987
10	0x3f7d16be	0.98862827
11	0x3f7d4e21	0.9894734
12	0x3f795045	0.97388107
13	0x3f623682	0.8836442
14	0x3f618eb8	0.88108397
15	0x3f82caf7	1.021819
16	0x3f7b299f	0.98110384
17	0x3f662db8	0.8991351
18	0x3f7b276c	0.9810703
19	0x3f69194f	0.9105424
20	0x3f6be53e	0.9214667
21	0x3f68c23f	0.90921396
22	0x3f7b1078	0.98072004
23	0x3f73aab7	0.95182365
24	0x3f78251b	0.9693162
25	0x3f6d3fe4	0.92675614
26	0x3f803c81	1.0018464
27	0x3f5e2fd9	0.8679176
28	0x3f7c070c	0.9844825
29	0x3f6c61f7	0.9233698
30	0x3f6667b5	0.90001994
31	0x3f87e183	1.0615696

encoder.stages.0.0.norm.bias f4 [32]
0	0x3acc4c61	0.0015586728
1	0x3bb40ef9	0.005494949
2	0x3cabdeb8	0.020980224
3	0x3bbe1be0	0.005801663
4	0x3bc3d1fc	0.00597596
5	0x3c8a3763	0.016872114
6	0x3b0b0a8a	0.0021215999
7	0x3c841725	0.016124317
8	0x3b366670	0.0027832054
9	0x3af69aec	0.0018814481
10	0x3caa1359	0.020761179
11	0x3bd2c833	0.006432557
12	0x3bead750	0.0071667805
13	0xb9c4a911	-0.00037509997
14	0x3c2e157d	0.01062524
15	0xba36707c	-0.00069595105
16	0xbc0041f2	-0.007828223
17	0x3b83a6b9	0.0040176776
18	0xbbff9f2a	-0.0078009563
19	0x3bf4449c	0.007454468
20	0x3be3890f	0.006943829
21	0xbb2f076b	-0.0026707302
22	0xbab67321	-0.0013919809
23	0x3b9250be	0.0044651916
24	0xbc42ba5a	-0.01188525
25	0x3c4049c4	0.011736337
26	0x3c366d62	0.011134477
27	0xbb91f9c6	-0.004454824
28	0x3c36c04e	0.011154247
29	0x3ad5413a	0.0016270049
30	0x3cc8574d	0.02445569
31	0x3b60b80c	0.0034289388

encoder.stages.0.0.conv1.bias f4 [128]
0	0xbca8252d	-0.02052554
1	0xbb056781	-0.0020355883
2	0xbc6a9b55	-0.014319261
3	0xbbccd879	-0.0062513915
4	0xbcb08f2a	-0.021552641
5	0xbc09daff	-0.008414029
6	0xbd63ca8b	-0.055613082
7	0x3c569044	0.013095919
8	0xbd11bbce	-0.035579495
9	0xbc214ca1	-0.00984493
10	0x3c946f05	0.018119344
11	0xbc2c5dec	-0.01052044
12	0xbcef92a6	-0.029244732
13	0xbd2d0a75	-0.0422463
14	0xba19c618	-0.0005866005
15	0xbcb9036b	-0.022584638
16	0x3c5f3935	0.013624479
17	0xbbf548be	-0.007485478
18	0xbc41cbdd	-0.01182839
19	0xbc131353	-0.008976775
20	0xbc8a2a7d	-0.016865963
21	0xbb283dda	-0.0025671632
22	0xbd7fbc6c	-0.062435552
23	0x3c26776b	0.010160307
24	0xbcb32abf	-0.021870969
25	0xbd627ee1	-0.055296782
26	0xbbc547d7	-0.006020527
27	0x3a8ba708	0.0010654638
28	0xbc281cfd	-0.010260818
29	0xba10d8f8	-0.0005525495
30	0xbcaa4ae9	-0.020787673
31	0xbd072c1f	-0.03300106
32	0xbbfb8768	-0.007676054
33	0xbceaca22	-0.028660838
34	0xbbe4696e	-0.006970576
35	0x3c02dafd	0.007986781
36	0xbd478a33	-0.04871578
37	0xbcd8d31a	-0.026467849
38	0xbcdfdd91	-0.02732733
39	0xbc9ba71d	-0.019000584
40	0xbcca17d3	-0.024669563
41	0xbcc117a3	-0.023570841
42	0xbb18f8ff	-0.0023341773
43	0xbcb08f26	-0.021552633
44	0xbc8529db	-0.01625531
45	0xbb6a7000	-0.0035772324
46	0xbc191438	-0.009343199
47	0xbce5c826	-0.02804954
48	0xba8e4ead	-0.0010857187
49	0xbc5d2627	-0.013497866
50	0xbd311b2f	-0.043238815
51	0x3bdc3bf5	0.0067210146
52	0xbc81df9d	-0.015853697
53	0xbcd9c9b7	-0.026585443
54	0xbbdeed22	-0.006803171
55	0x3aa0ca58	0.0012267334
56	0xbca90bca	-0.020635504
57	0x3b8d2dac	0.004308423
58	0xbc748cfa	-0.01492619
59	0x3b145784	0.0022635171
60	0x3c0eff61	0.008727879
61	0xbc8dca8e	-0.0173085
62	0xbcc1cd56	-0.023657482
63	0xbcc6dacf	-0.024274258
64	0xbbd49399	-0.0064873216
65	0xbb8d1f5e	-0.004306718
66	0xbc94f6a6	-0.018184017
67	0xbc7a7983	-0.01528776
68	0xbb6c0fa0	-0.0036020055
69	0xbcac8be9	-0.021062808
70	0xbb571958	-0.0032821503
71	0xbc867b77	-0.016416295
72	0xbbf6f833	-0.007536912
73	0xbc355bfe	-0.011069296
74	0x3bab5936	0.0052291406
75	0xbcb76847	-0.02238859
76	0x3bac0333	0.005249405
77	0xbd1ed0de	-0.03877341
78	0xbb6b609a	-0.0035915733
79	0x3b3e7f53	0.002906759
80	0x3c83f76f	0.016109196
81	0x3b61e26f	0.003446724
82	0xbbd04819	-0.006356251
83	0xbb36e5bc	-0.0027907928
84	0x3a86c4a8	0.0010281997
85	0xbcaba0b9	-0.020950662
86	0x3cb2b4ef	0.021814791
87	0xbbe353b7	-0.00693747
88	0xbd5b2007	-0.05349734
89	0xbb44dede	-0.0030040066
90	0xbcfc218b	-0.030777713
91	0xbd2e08ef	-0.04248899
92	0xbd073ff2	-0.033019967
93	0xbd2da1fe	-0.042390816
94	0xbd0ad8f5	-0.033898313
95	0xbcdaa40f	-0.026689557
96	0xbd53c61e	-0.05170261
97	0xbcdf510e	-0.02726033
98	0xbc2dc25e	-0.010605423
99	0xbc2751d1	-0.010212378
100	0xbceab813	-0.028652227
101	0xbd1a2c1b	-0.03763972
102	0xbc97aa12	-0.018513713
103	0xbcbbb9ac	-0.022915684
104	0xbc91fb45	-0.01782001
105	0xbb2310d3	-0.0024881854
106	0xbd08e5a0	-0.033422112
107	0xbbb24972	-0.0054408843
108	0xbd3d2246	-0.046175264
109	0xbbd69816	-0.006548892
110	0xbaf26430	-0.0018492993
111	0xbcec5fba	-0.02885424
112	0xbd40afdd	-0.047042716
113	0xbd39e476	-0.045383893
114	0xbd42ce19	-0.04755983
115	0xbaf3676a	-0.0018570249
116	0xbc883806	-0.016628277
117	0xbbde594d	-0.006785548
118	0xba6c3464	-0.00090104924
119	0xbd58c682	-0.052923687
120	0xbcca175d	-0.024669344
121	0xbc56bbb7	-0.013106278
122	0xbac17290	-0.0014758874
123	0x3bace923	0.0052768155
124	0xbd73de29	-0.05953804
125	0xbc400ae0	-0.011721343
126	0xbc6e11a7	-0.014530576
127	0x3ba26916	0.004956375

encoder.stages.0.0.conv2.bias f4 [32]
0	0xbb9a4b96	-0.0047087176
1	0xbb8875d4	-0.004164437
2	0xbcbaf79b	-0.022823146
3	0xbcf53f65	-0.029937455
4	0x3b8da475	0.0043225833
5	0x3ccddf79	0.025130974
6	0x38d2ff78	0.00010061165
7	0xbc92f6b4	-0.017939903
8	0xbd367251	-0.044542614
9	0x3b607366	0.003424847
10	0x3c8f8c56	0.017522972
11	0x3b412ac5	0.0029474956
12	0x3c8ea0ac	0.017410599
13	0x3b816a40	0.0039494336
14	0x3d47ce23	0.04878057
15	0xbc8cf308	-0.01720573
16	0xbcb80c54	-0.022466816
17	0xbc1f9820	-0.009740859
18	0x3c6c0487	0.014405376
19	0xbc374aa0	-0.011187226
20	0x3ccb78c0	0.024837852
21	0x3b9eb234	0.004843021
22	0x3c17f9da	0.009275878
23	0x3c46e239	0.012138897
24	0xbc8895a2	-0.016672913
25	0x3c45f37b	0.012081976
26	0xbc0090a8	-0.007846989
27	0x3add8870	0.0016901623
28	0x38c6e20c	9.48348e-05
29	0xbc02f827	-0.007993734
30	0x3b31ed3f	0.0027149466
31	0xbc59a5f9	-0.0132842

encoder.stages.1.0.depth_conv.bias f4 [64]
0	0xbcf68074	-0.030090548
1	0xbc0448c1	-0.0080739865
2	0xbcdb5594	-0.026774205
3	0x3d153dee	0.036436014
4	0x3d296261	0.041353587
5	0xbdd83302	-0.10556604
6	0x3c6490b5	0.0139505165
7	0xbd6c3de1	-0.0576762
8	0xbe1e8335	-0.15479739
9	0x3d088248	0.03332737
10	0x3c5119d2	0.012762504
11	0x3d425bae	0.047450714
12	0xbd7d074b	-0.061774533
13	0xbd3aa614	-0.04556854
14	0x3c2d8f2a	0.010593215
15	0x3c904c9f	0.01761466
16	0xbe19314b	-0.1496021
17	0xbcd21a70	-0.025647372
18	0x3b9f3ed7	0.004859786
19	0xbcf25727	-0.029582573
20	0xbc61fba4	-0.013792906
21	0xbd03ee11	-0.03220946
22	0x3c68abaa	0.014201084
23	0x3d917fed	0.07104478
24	0x3d11bae1	0.035578612
25	0x3c8cedda	0.01720326
26	0xbc47d18b	-0.012195955
27	0x3dcf1ce9	0.10112936
28	0x3b95471e	0.004555597
29	0xbe0f8fe0	-0.14019728
30	0x3d120e38	0.03565809
31	0xbdb057aa	-0.086104706
32	0x3e5efb08	0.21775448
33	0xbc5f0a65	-0.013613318
34	0x3d9ff9d3	0.07811322
35	0xbe4a5064	-0.19757229
36	0x3dcb01fa	0.099124864
37	0xbcfdc3fb	-0.03097724
38	0xbbda4c36	-0.006661917
39	0xbd95e8f5	-0.07319824
40	0xbb33d3f7	-0.0027439573
41	0x3bf5edb6	0.007505144
42	0xbd810295	-0.062993206
43	0x3e0ca2bb	0.13733952
44	0x3d24582a	0.040123142
45	0xbd08c82a	-0.033394016
46	0x3d965563	0.07340505
47	0xbcd70772	-0.026248667
48	0xbd1f7811	-0.038932864
49	0x3c902467	0.017595483
50	0x3b660d67	0.0035103203
51	0xbd78891e	-0.06067764
52	0xbdb4f708	-0.0883618
53	0x3cfa200b	0.030532857
54	0x3caca9ad	0.021077001
55	0x3e0c83f0	0.13722205
56	0xbc9203c6	-0.017824065
57	0x3ce6f453	0.028192675
58	0xbb33b65d	-0.002742193
59	0x3c8ce917	0.01720099
60	0xbd85002a	-0.06494172
61	0x3d614a3b	0.055002432
62	0xbb1b6d7e	-0.0023716385
63	0x3e0deeab	0.13860576

encoder.stages.1.0.norm.weight f4 [64]
0	0x3f83d768	1.0300112
1	0x3f878175	1.0586382
2	0x3f86147b	1.0475
3	0x3f7e3d5d	0.9931238
4	0x3f727a5d	0.9471796
5	0x3f8067a4	1.0031629
6	0x3f802f5f	1.0014457
7	0x3f7c1ce1	0.98481566
8	0x3f84572a	1.03391
9	0x3f74fe35	0.9570039
10	0x3f97d1f5	1.1860949
11	0x3f84e146	1.0381248
12	0x3f90f858	1.1325788
13	0x3f73b720	0.952013
14	0x3f7c5033	0.98559874
15	0x3f813520	1.0094337
16	0x3f7be1e6	0.9839157
17	0x3f7e3779	0.99303395
18	0x3f809646	1.004586
19	0x3f812441	1.0089189
20	0x3f6f29a3	0.9342291
21	0x3f83768e	1.0270555
22	0x3f6e4c8d	0.9308556
23	0x3f7660f0	0.96241665
24	0x3f836706	1.0265815
25	0x3f92b2fa	1.1460869
26	0x3f7b9dbd	0.98287565
27	0x3f89441c	1.072391
28	0x3f7ce00e	0.9877938
29	0x3f8361cd	1.0264221
30	0x3f7a3e65	0.97751456
31	0x3f7bd44c	0.98370814
32	0x3f9a93de	1.2076375
33	0x3f84b702	1.036835
34	0x3f82b13d	1.0210339
35	0x3f95ba41	1.1697465
36	0x3f8116f8	1.0085135
37	0x3f6f2455	0.93414813
38	0x3f8af0fc	1.0854793
39	0x3f8586a8	1.0431719
40	0x3f824d45	1.0179831
41	0x3f8b3985	1.0876929
42	0x3f803fe4	1.0019498
43	0x3f8aa92e	1.083288
44	0x3f7c3ad3	0.9852726
45	0x3f7871b7	0.97048515
46	0x3f7e0765	0.99230033
47	0x3f835bf1	1.0262433
48	0x3f78c37f	0.97173303
49	0x3f92fcb3	1.1483368
50	0x3f84e3eb	1.0382055
51	0x3f82189b	1.0163759
52	0x3f749673	0.9554207
53	0x3f712ed4	0.9421208
54	0x3f817382	1.0113375
55	0x3f8d7738	1.1052008
56	0x3f787173	0.9704811
57	0x3f66ba55	0.9012807
58	0x3f809b6b	1.004743
59	0x3f8b91e2	1.0903895
60	0x3f81941f	1.0123328
61	0x3f882a48	1.0637903
62	0x3f83ba65	1.0291258
63	0x3f8e386e	1.1110971

encoder.stages.1.0.norm.bias f4 [64]
0	0xbc569aa9	-0.013098397
1	0xbb12aeb4	-0.0022381963
2	0xbc88bbd2	-0.016691122
3	0x3cd2b2fc	0.025720112
4	0x3d720669	0.059088144
5	0xbdef46d2	-0.1168343
6	0x3ccb7e32	0.024840448
7	0xbd6ae6f6	-0.057349168
8	0xbd5351af	-0.05159157
9	0x3d1a6ccc	0.037701413
10	0x3de6acb8	0.11263412
11	0x3d854e07	0.06509023
12	0xbd657326	-0.056018017
13	0xbd42af69	-0.047530565
14	0x3c79f132	0.015255259
15	0x3d0dc3bb	0.03461049
16	0xbdb1e900	-0.08687019
17	0xbcff8b16	-0.031194251
18	0x3cdce348	0.026963845
19	0xbd07bb5e	-0.03313767
20	0x3c2685cf	0.010163738
21	0xbd130144	-0.03588988
22	0x3c91b75c	0.017787628
23	0x3da9d878	0.08293241
24	0x3d80ce81	0.062893875
25	0x3c0472cf	0.008084013
26	0xba9e5a28	-0.0012081312
27	0x3def6cfe	0.116907105
28	0x3c11a0ae	0.008888407
29	0xbdf32aa1	-0.11873365
30	0x3d410cd0	0.04713136
31	0xbd8c47ad	-0.068496086
32	0x3e348bb8	0.17631423
33	0xbc664d0d	-0.014056456
34	0x3dcbe0a7	0.099549584
35	0xbe210eed	-0.1572835
36	0x3dbf6ee5	0.09347323
37	0xbb6f9b93	-0.0036561235
38	0xbb8f0c09	-0.0043654484
39	0xbe00c7e1	-0.12576248
40	0x3ca2db41	0.019879939
41	0x3bb83328	0.0056213327
42	0xbd270f31	-0.040785972
43	0x3dcc51d7	0.09976547
44	0x3d29a569	0.041417513
45	0xbca0e2b3	-0.019639349
46	0x3d87c0f0	0.06628597
47	0x3cc53300	0.02407217
48	0xbd6a5309	-0.057208095
49	0x3b4da452	0.003137846
50	0x3c36aba7	0.011149324
51	0xbd739578	-0.059468716
52	0xbdaa1a7c	-0.08305833
53	0x3cfaf5ee	0.030634847
54	0x3cb28419	0.021791505
55	0x3e1027a8	0.14077628
56	0x3cca898f	0.024723796
57	0x3d8960cb	0.06707915
58	0xbca3aaa8	-0.019978836
59	0x3bda578e	0.0066632694
60	0xbd4d4866	-0.050117873
61	0x3d779c9c	0.06045209
62	0xbbd61d40	-0.0065342486
63	0x3e32c7cc	0.17459029

encoder.stages.1.0.conv1.bias f4 [256]
0	0xbddcf5a6	-0.10789041
1	0xbd43ff1e	-0.04785072
2	0xbdf4ced1	-0.119535096
3	0xbd070ad9	-0.03296933
4	0xbbe11169	-0.0068685305
5	0xbd97acf9	-0.07406039
6	0xba40f434	-0.0007360608
7	0xbde5f4c0	-0.11228323
8	0xbd315238	-0.0432913
9	0xbd810bd3	-0.063010834
10	0xbd50b916	-0.05095776
11	0xbda76a0c	-0.08174524
12	0xbd0b3386	-0.033984683
13	0xbd4b5e96	-0.04965075
14	0xbc383ea8	-0.011245407
15	0xbe015d5c	-0.1263327
16	0xbc80a273	-0.015702462
17	0xbcc7bad4	-0.024381079
18	0xbe276a40	-0.16349125
19	0xbd613d2b	-0.054989975
20	0xbd854b89	-0.06508548
21	0xbd36aebd	-0.044600237
22	0xbdb77812	-0.089584485
23	0xbd870b98	-0.06594008
24	0xbd888623	-0.066662095
25	0xbd35de76	-0.04440161
26	0xbd292563	-0.04129542
27	0xbce42035	-0.027847389
28	0xbd7b6f38	-0.061385363
29	0xbe0a3a87	-0.13498889
30	0xbd0ea31e	-0.03482353
31	0xbd8ad613	-0.06779113
32	0xbd7631c4	-0.060106054
33	0xbd3a1f13	-0.04543979
34	0xbdbb8e9c	-0.0915806
35	0xbccbfc92	-0.024900708
36	0xbe33398a	-0.17502418
37	0xbddc52e4	-0.10757998
38	0xbd6ecedb	-0.05830274
39	0xbde7d402	-0.11319734
40	0xbd10451b	-0.035222154
41	0xbd3d8b16	-0.04627522
42	0xbc8775ab	-0.0165356
43	0xbcd357df	-0.025798736
44	0xbdae2947	-0.08503967
45	0xbd8e9ed4	-0.06963888
46	0xbd4853d1	-0.04890806
47	0xbda3c9ee	-0.079974994
48	0xbd9c3605	-0.07627491
49	0xbcf1f834	-0.029537298
50	0xbd81703e	-0.063202366
51	0x3722e618	9.709525e-06
52	0xbdd491cd	-0.10379372
53	0xbd811b31	-0.063040145
54	0xbd4b0d55	-0.04957326
55	0xbd8f3491	-0.06992448
56	0xbbc1b2a3	-0.0059111877
57	0xbda26f80	-0.07931423
58	0xbd822b26	-0.06355886
59	0xbe047422	-0.12934926
60	0xbd9743ca	-0.073859766
61	0xbcb60f85	-0.022224197
62	0xbd738469	-0.059452448
63	0xbd235e66	-0.039884947
64	0xbd696417	-0.05698022
65	0xbd35a8c3	-0.044350397
66	0xbdae819d	-0.085208155
67	0xbd3b50ef	-0.04573148
68	0xbd8bdae4	-0.068288594
69	0xbc2f8d17	-0.010714791
70	0xbd349a8c	-0.0440927
71	0xbc895068	-0.016761974
72	0xbd152013	-0.03640754
73	0xbd805804	-0.06266788
74	0xbd4730de	-0.048630588
75	0xbe090304	-0.13380057
76	0xbd88fca7	-0.066888146
77	0xbdd4d8d7	-0.103929214
78	0xbcbe18b9	-0.023205148
79	0x3c020910	0.007936731
80	0xbd3251b0	-0.043534935
81	0xbd3810fd	-0.044938076
82	0xbd106977	-0.03525683
83	0xbdd14def	-0.10219943
84	0xbd4be05d	-0.049774516
85	0xbd202142	-0.039094217
86	0xbca2985f	-0.019848047
87	0xbbd23224	-0.0064146686
88	0xbd119daa	-0.03555075
89	0xbd519612	-0.05116851
90	0xbd281b24	-0.04104151
91	0xbd7e0b7e	-0.06202268
92	0xbe0b2e9a	-0.13591996
93	0xbb0f3def	-0.0021856984
94	0xbd2ed42f	-0.042682823
95	0xbd10a49b	-0.03531323
96	0xbc89ea1a	-0.016835261
97	0xbc86a07d	-0.016433949
98	0xbdc48692	-0.0959598
99	0xbdded3da	-0.10880251
100	0xbd9274ea	-0.07151206
101	0xbd717955	-0.058953602
102	0xbd83d43e	-0.06436966
103	0xbd1b1d46	-0.037869714
104	0xbda01fd3	-0.0781857
105	0xbc772cfe	-0.015086411
106	0xbdc8b515	-0.09800164
107	0xbdba4502	-0.090951934
108	0xbd822fb5	-0.06356756
109	0xbd736c50	-0.059429467
110	0xbd8a9d1d	-0.06768248
111	0xbd2e49c6	-0.042550825
112	0xbd220e73	-0.03956456
113	0xbcdd6bb7	-0.027028902
114	0xbd6b7944	-0.057488695
115	0xbda44e63	-0.080227636
116	0xbd4e4646	-0.050359987
117	0xbdf40312	-0.11914648
118	0xbdd5686b	-0.10420307
119	0xbd05678e	-0.03256946
120	0xbd3955bb	-0.045247775
121	0xbc1db483	-0.009625557
122	0xbe2e5e65	-0.17028196
123	0xbadc279a	-0.001679647
124	0xbddb04f7	-0.10694306
125	0xbd35f4c5	-0.044422884
126	0xbe056145	-0.13025387
127	0xbd19b459	-0.03752551
128	0xbd9baadd	-0.07600949
129	0xbd3725f5	-0.044713933
130	0xbdab1770	-0.0835408
131	0xbd0a0a25	-0.03370108
132	0xbcc33177	-0.023827298
133	0xbce317c6	-0.027721297
134	0xbc395280	-0.011311173
135	0xbd7f4eb7	-0.062330928
136	0xbd3062b0	-0.043062866
137	0xbd3c5f69	-0.045989428
138	0xbd24f953	-0.040276837
139	0xbbebc694	-0.007195303
140	0xbcbbfaa3	-0.022946661
141	0xbd59df19	-0.053191278
142	0xbcfa2e09	-0.03053953
143	0xbc90bdfb	-0.017668715
144	0xbd827e10	-0.06371701
145	0xbcb2f469	-0.02184506
146	0xbd3a6b00	-0.0455122
147	0xbd8690fd	-0.06570623
148	0xbd864721	-0.065565355
149	0xbd9a0783	-0.07520964
150	0xbd503505	-0.050831813
151	0xbd0b09ce	-0.033944897
152	0xbdf5caec	-0.12001595
153	0xbd5f3e3e	-0.05450272
154	0xbda58239	-0.080814786
155	0xbc1aa096	-0.009437701
156	0xbc96c5f9	-0.018404948
157	0xbd06a1a5	-0.032869
158	0xbe0405ca	-0.12892833
159	0xbc86096a	-0.01636191
160	0xbd52f24d	-0.051500607
161	0xbd77dcdb	-0.06051336
162	0xbcd63d7e	-0.026152369
163	0xbc45ceaa	-0.012073198
164	0xbd6e5fef	-0.05819696
165	0xbd508122	-0.0509044
166	0xbccf7fe7	-0.025329543
167	0xbd50dfb7	-0.0509946
168	0xbd9a95a8	-0.07548076
169	0xbd059a18	-0.03261766
170	0xbd3367b1	-0.04380006
171	0xbc28072c	-0.010255616
172	0xbdcc2e2f	-0.09969746
173	0xbd92b268	-0.071629345
174	0xbd9d2e17	-0.076748066
175	0xbd3a8a06	-0.045541786
176	0xbdb9cb6a	-0.09072001
177	0xbcca62e3	-0.024705356
178	0x3b855796	0.004069279
179	0xbce6b927	-0.02816446
180	0xbd3b7a14	-0.04577072
181	0xbdb5b95b	-0.088732444
182	0xbd90ff79	-0.070799775
183	0xbcaed497	-0.021341605
184	0xbd9518bc	-0.07280108
185	0xbd5261eb	-0.051362913
186	0xbdb80a15	-0.08986298
187	0xbd922441	-0.07135821
188	0xbdeb0a1e	-0.11476539
189	0xbd0ca6bc	-0.034338698
190	0xbc9172e6	-0.017754983
191	0xbd935216	-0.07193391
192	0xbd886a54	-0.066609055
193	0xbd8e6637	-0.0695309
194	0xbdf88418	-0.1213457
195	0x3cbc40fa	0.022980202
196	0xbcba954c	-0.022776268
197	0xbd093bff	-0.033504482
198	0xbd22dc8a	-0.039761104
199	0xbd9201b4	-0.07129231
200	0xbd417263	-0.04722823
201	0xbdad0e09	-0.084499426
202	0xbd7413a2	-0.059589036
203	0xbd96e2dc	-0.07367489
204	0xbdbc3a04	-0.09190753
205	0xbdad87c8	-0.08473164
206	0xbdb83d2a	-0.08996041
207	0xbbf0eb7b	-0.00735229
208	0xbdb94d38	-0.090479314
209	0xbc935607	-0.017985357
210	0xbd6a5597	-0.05721053
211	0xbd0140b4	-0.031555846
212	0xbd7af9b8	-0.061273307
213	0xbd4708df	-0.048592445
214	0xbe07fc6c	-0.13279885
215	0xbd22c856	-0.039741836
216	0xbd7b14e8	-0.061299235
217	0xbd844f6a	-0.064604595
218	0xbd372fb9	-0.044723246
219	0xbcf94ddb	-0.030432632
220	0xbde03fb1	-0.10949648
221	0xbdabb5b8	-0.083842695
222	0xbdbc9d22	-0.09209658
223	0xbd645157	-0.055741634
224	0xbccd8fdb	-0.02509301
225	0xbc1889f5	-0.009310235
226	0xbd8a43e3	-0.067512296
227	0xbd84cdbe	-0.06484555
228	0xbce9317e	-0.028465983
229	0xbdb034ec	-0.08603844
230	0xbd38f320	-0.045153737
231	0xbd2d56e4	-0.042319193
232	0xbe16cc9b	-0.14726488
233	0xbd97da4b	-0.07414683
234	0xbdd9688f	-0.10615646
235	0xbd4a90f0	-0.04945463
236	0x3aaef06e	0.00133468
237	0xbd48beb2	-0.049009986
238	0xbda41691	-0.08012117
239	0xbc6a56e9	-0.014302948
240	0xbcf3b183	-0.02974773
241	0xbdafae6e	-0.08578192
242	0xbc5c5045	-0.013446872
243	0xbd441f1e	-0.04788124
244	0xbd0a5ee7	-0.033781912
245	0xbd0b0ac6	-0.03394582
246	0xbe089b34	-0.13340455
247	0xbdf58f59	-0.11990232
248	0xbd8e30d1	-0.06942905
249	0xbd26c18f	-0.040711936
250	0xbdb0ff70	-0.08642471
251	0xbd8f02ec	-0.06982979
252	0xbd55641e	-0.052097432
253	0xbd0c0d21	-0.03419221
254	0xbd6d00f8	-0.057862252
255	0xbd3d2663	-0.046179187

encoder.stages.1.0.conv2.bias f4 [64]
0	0xba6fc6b9	-0.00091467384
1	0x3c871e1d	0.016493851
2	0xbb7ed925	-0.0038886752
3	0x3c8516dc	0.016246252
4	0xbcb6e691	-0.02232674
5	0x3b8e021c	0.0043337476
6	0x3c9d4299	0.019196795
7	0x3c70a22b	0.014687101
8	0xbc95372c	-0.018214785
9	0xbcc8e4fc	-0.02452325
10	0xbc9f304a	-0.019432206
11	0x3b9a8f6f	0.0047168056
12	0xbb624d65	-0.0034530994
13	0x3b2bbfe3	0.0026206903
14	0x3aa77804	0.0012776856
15	0xbc3f1f80	-0.011665225
16	0x3cb3618e	0.021897104
17	0x3c7dbe66	0.015487289
18	0x396466f9	0.00021782135
19	0xbbcbc2e5	-0.0062183016
20	0xbcc177c1	-0.023616673
21	0x3c71edfd	0.0147662135
22	0xbbf70d71	-0.007539444
23	0xbc17c96c	-0.009264331
24	0x3c447620	0.011991054
25	0x3b4beb21	0.003111549
26	0xba151ec8	-0.00056884857
27	0xbd161004	-0.036636367
28	0xbc9cd9e2	-0.019146863
29	0x3c4d2ce3	0.012522909
30	0xbba4e647	-0.005032334
31	0x3ca0f256	0.019646805
32	0xbc1b9cd0	-0.009497836
33	0xbab139d7	-0.0013521266
34	0xba2a13f2	-0.00064879574
35	0xbadba147	-0.0016756438
36	0xbc912b60	-0.017720878
37	0x3ca5c12c	0.020233713
38	0xbc29dbbd	-0.010367331
39	0x3c4464d3	0.011986929
40	0xb8a59100	-7.8948215e-05
41	0x3c208b53	0.0097988425
42	0x3cf6a649	0.030108588
43	0x3b5b499d	0.0033460625
44	0x3c5d379d	0.013502029
45	0x3c28c2bf	0.010300337
46	0xbc1cb455	-0.009564479
47	0x3c404969	0.011736252
48	0xbc80da73	-0.015729165
49	0x3cd7bf49	0.026336329
50	0xbc08b146	-0.0083430465
51	0x3c7f332f	0.015576168
52	0xbbd601f5	-0.006530995
53	0x3c12a5a5	0.008950626
54	0xbbc7d928	-0.006098885
55	0xbbfe1e3e	-0.00775507
56	0xbba3faf8	-0.005004283
57	0xbc03527d	-0.008015272
58	0x3ccb0535	0.024782756
59	0xbcbc7b0e	-0.023007896
60	0xba8b2c41	-0.0010618047
61	0xbbf62e9b	-0.00751288
62	0x3bebc6fe	0.0071953526
63	0xba9d1dc7	-0.0011987024

encoder.readin.weight f4 [32, 2, 1, 1]
0	0xbeb93902	-0.36176306
1	0x3e7ce618	0.24697149
2	0xbe6768fd	-0.22598644
3	0xbe59fca1	-0.21287777
4	0x3e5bfa4e	0.21482202
5	0x3c97fecc	0.018554114
6	0xbe318c9c	-0.17338794
7	0x3eab95a0	0.33512592
8	0xbec8a6b3	-0.3918968
9	0xbead19c6	-0.33808726
10	0x3e27f1c6	0.16400823
11	0xbe9d6549	-0.30741337
12	0x3e14f504	0.14546591
13	0xbefaa7f7	-0.48956272
14	0xbecbe931	-0.39826348
15	0xbeb5936f	-0.35464045
16	0x3e7eecfd	0.24895091
17	0xbe32034f	-0.17384075
18	0x3e9f5f81	0.3112755
19	0x3b83e966	0.004025626
20	0xbe8e6879	-0.2781408
21	0xbdaf6079	-0.085633226
22	0x3d4bec45	0.04978587
23	0xbe6e6047	-0.23278914
24	0x3ea885d6	0.3291461
25	0x3c232f51	0.009960012
26	0xbe987a70	-0.29780912
27	0xbd8f4df8	-0.06997293
28	0x3e11bb5f	0.14231633
29	0xbe4096f4	-0.18807584
30	0xbe9a350a	-0.3011859
31	0x3ea26dd1	0.31724408
32	0xbd4b8945	-0.049691457
33	0xbed39937	-0.4132783
34	0xbec06d9e	-0.3758363
35	0x3afc93e7	0.0019270153
36	0x3e03bafd	0.12864299
37	0xbe920e00	-0.28526306
38	0xbe9a9455	-0.30191293
39	0xbe3ef547	-0.18648253
40	0xbe750e00	-0.23931122
41	0xbe47c101	-0.19507219
42	0x3e21f2fd	0.15815349
43	0xbe4bcda2	-0.19902661
44	0xbe640865	-0.22268827
45	0x3d65eff8	0.056137055
46	0x3ea6ec8c	0.32602346
47	0x3e9078f1	0.2821727
48	0xbe95fc5a	-0.2929409
49	0x3e6bb92f	0.2301986
50	0x3e0edab1	0.13950612
51	0x3ea5b8b0	0.32367468
52	0xbe0c8fac	-0.13726681
53	0x3cc925b8	0.024554119
54	0x3df0cca9	0.11757786
55	0xbe5b698e	-0.21426985
56	0x3e08c1e2	0.1335521
57	0x3de10f61	0.109892614
58	0x3c8b226e	0.01698419
59	0xbe650ccb	-0.22368161
60	0xbdd20795	-0.102553524
61	0xbe1d1d9e	-0.1534333
62	0x3ee83a48	0.45356965
63	0x3e5c68bd	0.2152433
