parameter_estimation/models/ConvNextParameterEstimator_KZ_v1/model_weight.ckpt (torch, 266919 bytes, 43 tensors)

cnn_cells.downsample_blocks.0.0.weight f4 [32]
0.87328 0.9129805 0.63898355 0.8044426 0.73906004 0.6289533 0.7519763 0.7377589
0.9151686 0.72936976 0.8328664 0.737953 0.8191163 0.7610142 0.51067084 0.59541786
1.0275066 0.8503359 1.018396 0.866391 0.7912074 0.5136072 0.7227974 0.8052222
0.69009244 0.92991495 0.823532 0.6128278 0.9023205 0.7626632 0.72265273 0.6391652
00000000: 478f 5f3f 17b9 693f 6d94 233f f3ef 4d3f
00000010: 0a33 3d3f 1503 213f 8581 403f c4dd 3c3f
00000020: 7d48 6a3f fab7 3a3f bb36 553f 7dea 3c3f
00000030: 9bb1 513f d4d1 423f 53bb 023f 4e6d 183f
00000040: 5685 833f 9daf 593f cd5a 823f cdcb 5d3f
00000050: 918c 4a3f c37b 033f 4009 393f 0b23 4e3f
00000060: e6a9 303f e80e 6e3f fed2 523f 48e2 1c3f
00000070: 7afe 663f e53d 433f c5ff 383f 55a0 233f

cnn_cells.downsample_blocks.0.0.bias f4 [32]
-0.13610765 0.19837129 0.32784724 -0.26885986 0.13367379 0.137104 0.16350356 0.13034914
-0.06581523 0.031964447 0.070734754 0.21606767 -0.023966393 0.14722963 -0.20068923 -0.1163225
-0.011361797 -0.112889595 0.200592 -0.008488842 0.091581866 -0.029553352 -0.15157847 -0.18482715
-0.20098916 0.07085605 0.025733909 0.20678252 0.19975303 0.07750493 -0.1947159 -0.05467113
00000000: ce5f 0bbe d821 4b3e 98db a73e 00a8 89be
00000010: c8e1 083e fe64 0c3e 7a6d 273e 3f7a 053e
00000020: 23ca 86bd 27ed 023d 62dd 903d d840 5d3e
00000030: 2b55 c4bc 5dc3 163e 7a81 4dbe 7e3a eebd
00000040: d526 3abc a932 e7bd fd67 4d3e c914 0bbc
00000050: 468f bb3d df19 f2bc 6337 1bbe 5443 3dbe
00000060: 1ad0 4dbe fa1c 913d ebcf d23c ccbe 533e
00000070: 0f8c 4c3e e8ba 9e3d 9b63 47be d6ee 5fbd

cnn_cells.downsample_blocks.0.1.weight f4 [32, 32, 2, 2]
0.16886008 0.0128457155 -0.1252069 -0.2747724 0.07707984 0.14078392 0.11165698 -0.05948532
-0.17581004 0.054743543 0.11574822 0.16881672 -0.06361732 0.11471001 -0.012158827 -0.054205075
-0.029573172 0.13534579 -0.19432534 0.011205833 0.11969397 0.020409433 0.024084654 -0.17405732
-0.022257939 -0.1813268 -0.024783336 -0.024721723 0.036005568 -0.0031295342 0.07564993 -0.06699109
-0.053292785 -0.030420318 0.005564628 0.053654 0.089243144 -0.027651055 0.0022869334 0.07389121
0.12151095 0.0573879 0.13275133 -0.24805617 0.12114872 0.16265889 0.0639164 -0.096625045
0.092866816 0.08332528 0.041764013 -0.2649793 -0.14018425 -0.13423027 -0.054045986 0.015715541
0.014673168 0.07871291 0.040863853 0.014909571 -0.08672265 -0.10946207 -0.022082122 0.16506185
-0.10638935 0.03437675 -0.084227696 0.039181482 -0.15000956 -0.18357939 0.16224167 0.13173893
0.093439214 -0.11612449 -0.013761236 -0.080046795 -0.114862196 0.02441578 -0.0629312 0.1276454
-0.085258685 -0.08453327 -0.049284954 -0.03481852 -0.12281137 0.06499098 -0.07446415 0.018027693
-0.13046333 -0.19637938 0.11798581 -0.037414815 -0.059579935 -0.032374475 -0.0071775457 -0.08892787
-0.21957475 -0.07230526 0.07809479 -0.014102295 0.17638186 -0.107621595 -0.12947586 0.02366848
-0.110772505 0.023889586 0.11475778 0.09737934 -0.10865695 0.12541813 0.039010614 0.11228057
-0.060000867 -0.07036213 0.18048999 0.085297145 0.24897695 0.14189287 -0.08519961 -0.2693077
0.12572275 -0.14947961 -0.033581346 -0.13481589 0.01496746 0.0108115515 -0.0248043 0.030624723
0.24186566 0.050525725 -0.18055709 -0.2765282 -0.14760995 0.28691018 -0.13922183 0.044803567
0.023778953 -0.15011366 0.036462266 0.08632527 0.11354011 -0.024624785 -0.10596815 0.034821063
0.016025059 -0.10107403 0.12818748 0.120148785 0.0128789125 0.01120315 -0.1716084 0.0028540362
0.018008834 0.012010213 0.025809286 -0.024702724 -0.1931799 0.30763406 -0.19697206 0.37721124
0.1670843 -0.21002673 0.14022188 -0.11665173 -0.08409523 0.07354354 0.034204964 -0.034694344
-0.009940528 0.34416124 -0.2763166 -0.078194745 0.1402214 -0.07680916 0.16642202 -0.23519741
0.14061232 0.18436071 -0.177982 -0.19756107 -0.10582252 -0.08632872 0.12719719 0.085835345
-0.12045483 0.1381584 -0.105778016 -0.02620351 0.011534964 0.075705566 0.07687858 -0.06709569
0.0986557 -0.31533766 0.14092834 -0.022438578 -0.21239765 0.09733409 0.078323714 0.09933904
0.29453242 -0.0053038006 -0.21589352 -0.29925278 0.07499852 -0.1069611 -0.048669472 0.10764738
0.039340984 -0.21448052 0.20022349 -0.02452269 -0.11429315 -0.08971077 0.17317039 0.09580035
-0.02864048 -0.010472028 0.0016763308 0.07471142 0.053717546 -0.06493824 0.0024909503 -0.13919646
-0.18446966 -0.014086396 -0.047720887 0.28569523 0.26898003 -0.14087108 0.055970255 -0.362089
-0.117182426 0.08779831 -0.04702434 0.090954095 0.0025233992 -0.066793494 -0.0038126665 0.034497797
-0.21061505 0.038143422 -0.07833951 0.26136106 0.14743538 0.006185021 0.013238264 -0.29004714
0.061222 0.052970532 -0.057328288 -0.014735689 -0.045320667 0.07469989 0.029042779 0.11321555
00000000: a8e9 2c3e d676 523c 3d36 00be f8ae 8cbe
00000010: 09dc 9d3d a929 103e 6aac e43d e1a6 73bd
00000020: 8c07 34be c43a 603d 670d ed3d 4ade 2c3e
00000030: cc49 82bd 15ed ea3d d135 47bc 2406 5ebd
00000040: 7043 f2bc 1698 0a3e 39fd 46be ac98 373c
00000050: 1d22 f53d af31 a73c 2e4d c53c 153c 32be
00000060: 4856 b6bc bcad 39be 6c06 cbbc 3685 cabc
00000070: 937a 133d df18 4dbb 5aee 9a3d a032 89bd
00000080: 8949 5abd 0834 f9bc 7c57 b63b 4cc4 5b3d
00000090: 1cc5 b63d 7784 e2bc 60e0 153b 4654 973d
000000a0: bcda f83d 930f 6b3d f7ef 073e 7002 7ebe
000000b0: d21c f83d 0d90 263e 9ae6 823d 5ae3 c5bd
000000c0: f530 be3d 72a6 aa3d be10 2b3d 5eab 87be
000000d0: 768c 0fbe a973 09be 535f 5dbd e1bd 803c
000000e0: ba67 703c 3c34 a13d db60 273d 4647 743c
000000f0: a59b b1bd a62d e0bd 91e5 b4bc f905 293e
00000100: a9e2 d9bd a3ce 0c3d 927f acbd c37c 203d
00000110: 1b9c 19be 3cfc 3bbe ae22 263e 92e6 063e
00000120: 0f5d bf3d add2 edbd cf76 61bc 93ef a3bd
00000130: df3c ebbd 9a03 c83c 13e2 80bd 7ab5 023e
00000140: 1b9c aebd c71f adbd 05df 49bd dd9d 0ebd
00000150: 8784 fbbd fe19 853d a980 98bd d0ae 933c
00000160: 2e98 05be ad17 49be 8ba2 f13d 4740 19bd
00000170: 170a 74bd 199b 04bd 9e31 ebbb d11f b6bd
00000180: 34d8 60be c814 94bd 29f0 9f3d 500d 67bc
00000190: 729d 343e b668 dcbd 5295 04be 66e4 c13c
000001a0: b2dc e2bd 18b4 c33c 2106 eb3d d26e c73d
000001b0: 8987 debd 9c6d 003e 98c9 1f3d 5bf3 e53d
000001c0: 78c3 75bd 051a 90bd 5ed2 383e 45b0 ae3d
000001d0: d0f3 7e3e 5d4c 113e 227d aebd b3e2 89be
000001e0: 77bd 003e 2f11 19be 988c 09bd 2d0d 0abe
000001f0: 143a 753c ef22 313c 6332 cbbc b3e0 fa3c
00000200: a2ab 773e 10f4 4e3d f5e3 38be 1b95 8dbe
00000210: 1027 17be e4e5 923e 2b90 0ebe f283 373d
00000220: 14cc c23c 65b7 19be 7559 153d 4ecb b03d
00000230: b887 e83d ebb9 c9bc d405 d9bd 88a0 0e3d
00000240: fc46 833c e7ff cebd 9443 033e 9110 f63d
00000250: 1302 533c 6b8d 373c 1dba 2fbe c80a 3b3b
00000260: 4387 933c 7cc6 443c ff6d d33c 5e5d cabc
00000270: f4d0 45be 3682 9d3e 0bb3 49be d521 c13e
00000280: 2618 2b3e 3f11 57be 5396 0f3e 1ae7 eebd
00000290: 1f3a acbd ff9d 963d 811a 0c3d a81b 0ebd
000002a0: 99dd 22bc e735 b03e 5f79 8dbe 9124 a0bd
000002b0: 3396 0f3e 1f4e 9dbd 896a 2a3e 97d7 70be
000002c0: adfc 0f3e 0ec9 3c3e ea40 36be 734d 4abe
000002d0: 7ab9 d8bd 1dcd b0bd fb3f 023e 71ca af3d
000002e0: 06b1 f6bd 6579 0d3e 25a2 d8bd bea8 d6bc
000002f0: 25fd 3c3c 850b 9b3d 8472 9d3d 7769 89bd
00000300: 000c ca3d f073 a1be 854f 103e 1cd1 b7bc
00000310: c57e 59be 1857 c73d 2f68 a03d 4472 cb3d
00000320: f4cc 963e 81cb adbb 3113 5dbe a937 99be
00000330: d398 993d 6c0e dbbd a459 47bd 3b76 dc3d
00000340: 0324 213d c8a0 5bbe 6307 4d3e cfe3 c8bc
00000350: 8712 eabd 48ba b7bd 9453 313e f932 c43d
00000360: 719f eabc de92 2bbc 54b8 db3a 4d02 993d
00000370: ee06 5c3d 57fe 84bd 363f 233b 8489 0ebe
00000380: 9de5 3cbe a1ca 66bc fa76 43bd a546 923e
00000390: c0b7 893e 8240 10be 1141 653d bb63 b9be
000003a0: 57fd efbd 9acf b33d 989c 40bd 2446 ba3d
000003b0: 9d5f 253b 07cb 88bd eedd 79bb 904d 0d3d
000003c0: 79ab 57be 473c 1c3d 7770 a0bd 1ed1 853e
000003d0: 4df9 163e b7ab ca3b 4ee5 583c 0f81 94be
000003e0: ebc3 7a3d a1f7 583d 11d1 6abd f66d 71bc
000003f0: 2aa2 39bd 42fc 983d 1feb ed3c 8edd e73d

cnn_cells.downsample_blocks.0.1.bias f4 [32]
0.18091138 0.06473606 0.029081583 -0.025067722 -0.026490634 -0.06114911 0.044063974 -0.14889385
0.046037246 -0.017783418 0.014816521 -0.05494674 -0.036804717 0.06202373 0.02699727 -0.06059491
0.06093321 0.077551655 0.0044684727 0.029065695 -0.003908467 -0.058906272 -0.0033754318 0.047463916
0.019699572 0.04897461 0.07080647 0.0059063327 -0.22192389 0.053484395 -0.033743463 0.0365271
00000000: d540 393e 5794 843d 803c ee3c d35a cdbc
00000010: e302 d9bc 7d77 7abd 6d7c 343d a177 18be
00000020: 8d91 3c3d 88ae 91bc fec0 723c d50f 61bd
00000030: 8bc0 16bd 980c 7e3d 6129 dd3c 5e32 78bd
00000040: 1a95 793d 67d3 9e3d 446c 923b 2e1b ee3c
00000050: 9912 80bb b447 71bd 5936 5dbb 8669 423d
00000060: ff60 a13c 9a99 483d fc02 913d e989 c13b
00000070: 0440 63be 7412 5b3d 9636 0abd 719d 153d

cnn_cells.downsample_blocks.1.0.weight f4 [32]
0.56604695 0.6183933 0.48180357 0.558547 0.4690203 0.6405406 0.6367215 0.6069905
0.6230455 0.49139687 0.5698767 0.5034241 0.64830136 0.6097878 0.61924535 0.678932
0.5341835 0.6023137 0.65781593 0.6304433 0.5813026 0.47935572 0.4466886 0.58647496
0.6293394 0.5920085 0.5532861 0.6324277 0.63083416 0.61158335 0.6014987 0.5266431
00000000: 74e8 103f 064f 1e3f f5ae f63e f0fc 0e3f
00000010: 6e23 f03e 78fa 233f 2e00 233f bb63 1b3f
00000020: e97f 1f3f 5f98 fb3e 70e3 113f 67e0 003f
00000030: 14f7 253f 0e1b 1c3f dd86 1e3f 7dce 2d3f
00000040: 40c0 083f 3b31 1a3f a066 283f bb64 213f
00000050: 3fd0 143f 1d6e f53e 5eb4 e43e 3923 163f
00000060: 631c 213f de8d 173f 28a4 0d3f c8e6 213f
00000070: 597e 213f ba90 1c3f d2fb 193f 15d2 063f

cnn_cells.downsample_blocks.1.0.bias f4 [32]
0.00303508 -0.013409006 0.016472796 0.01279162 0.0031200668 -0.004570683 -0.00048935896 -0.034362037
-0.006006584 -0.0015807962 -0.010293158 -0.0093274545 0.01870846 -0.0042544766 -0.004569929 0.014149946
-0.024851419 0.002833165 0.0058737844 0.00087638496 -0.004629133 0.013560233 0.015675284 0.0006824972
-0.0021488278 0.03724718 -0.008069764 0.01392641 -0.012542205 -0.0026400806 0.036730614 0.004994938
00000000: 31e8 463b 73b1 5bbc f5f1 863c f193 513c
00000010: 097a 4c3b abc5 95bb 5348 00ba 35bf 0cbd
00000020: e1d2 c4bb b832 cfba a2a4 28bc 2ed2 18bc
00000030: 7c42 993c 2369 8bbb 58bf 95bb 2dd5 673c
00000040: 3495 cbbc 9fac 393b e078 c03b 33bd 653a
00000050: fbaf 97bb bd2b 5e3c 7469 803c 9de9 323a
00000060: 59d3 0cbb 8090 183d 0b37 04bc 992b 643c
00000070: d27d 4dbc 3405 2dbb d772 163d 94ac a33b

cnn_cells.downsample_blocks.1.1.weight f4 [32, 32, 2, 2]
-0.052499384 0.09152149 0.08110624 0.10750428 -0.078951344 -0.042387646 0.098445855 -0.07422362
0.2647168 -0.05167843 -0.0057453606 -0.024038298 -0.06230386 0.13942464 -0.14024983 0.054898527
0.08866551 -0.07262685 0.16859223 -0.11183604 -0.13547356 -0.08838687 0.14369842 -0.13049202
-0.046184577 -0.080696985 -0.07372202 -0.07231461 -0.05271019 -0.01761552 -0.13370326 0.110702895
0.03451657 0.07345547 -0.06763992 -0.05215956 -0.0007456957 0.092643924 -0.042591736 0.10510265
-0.085454755 0.04965464 -0.041047454 -0.019740384 0.097704634 0.05323544 -0.02892019 -0.0036646933
-0.08149814 0.007577539 0.06266211 -0.011683416 -0.03332387 0.19035655 -0.09869973 -0.086034894
-0.12138765 -0.041959256 0.00038989817 0.0228044 -0.12991092 -0.08080402 0.13541138 -0.003914909
-0.00028376855 0.09732099 0.0037411004 0.020615796 0.04995026 0.1134757 -0.004466474 0.04391232
0.010675519 0.0824011 -0.1148524 -0.21052837 -0.08410017 -0.07380277 0.012895792 -0.014605911
0.07501584 0.018373068 0.054093402 0.05156981 -0.002449547 -0.07229351 0.090847135 -0.0060943295
-0.08427098 0.025517507 0.0922959 -0.03037801 -0.0911463 0.1365564 -0.20333368 -0.16653247
-0.058884967 -0.17491059 0.05106787 -0.060522057 -0.007496945 -0.04724228 0.16699366 0.14330876
-0.054248143 0.034498036 -0.08720994 -0.12492934 -0.01599913 0.01579756 -0.0806588 -0.06731594
-0.07375909 0.071133316 0.0912083 -0.006689369 -0.0044946405 0.10892294 -0.027163506 0.12066898
-0.098820075 0.031299528 -0.059863012 0.075431906 0.07635723 0.1260239 -0.024967203 -0.08803748
-0.0902784 -0.039732788 -0.025591282 -0.09132765 -0.049929507 -0.0676903 -0.0919485 -0.047334123
-0.10262741 0.10880036 0.015666459 0.14869222 0.04785249 -0.061205946 0.003405273 -0.051698107
-0.018187556 0.14935376 -0.09103459 0.106809795 0.03749851 -0.20966959 -0.1901459 0.052154545
-0.104199134 0.07819443 0.0049748123 0.062342234 -0.06737573 0.0010074613 -0.23909405 -0.053148128
-0.059276436 -0.06351065 0.11312406 -0.030068867 -0.08275729 -0.15794471 0.11269095 -0.1762358
-0.031543754 0.060086638 0.116230875 -0.031131972 -0.09122685 -0.11855266 0.0716247 -0.00052286714
0.07951602 0.04405473 -0.00881656 -0.12423264 -0.2001629 -0.0699509 0.08542413 -0.044713974
0.073875986 0.04017003 -0.03158715 -0.06944581 -0.049232073 -0.11212617 -0.001318844 -0.09764933
0.044462927 -0.0101263495 0.10570994 -0.067717485 -0.12533005 0.13542126 0.0809781 0.02255065
-0.17538744 0.031408485 0.033969156 0.15954444 -0.031318564 0.09519109 0.0789906 -0.13112842
-0.026447 0.14240634 -0.059541773 0.07844283 0.10215915 0.01609408 -0.00981398 0.09198065
0.03774587 0.05740552 -0.026657222 -0.07999196 -0.10104264 -0.06906651 -0.06692895 0.07372228
0.0023746486 -0.053298775 -0.074966535 -0.0747169 0.10687748 0.033232626 0.018874884 0.11624375
-0.09788216 0.043165404 0.08384922 -0.01612518 -0.06490491 0.056281425 -0.16700716 0.07810985
-0.06598091 -0.007530743 0.121792175 0.029002916 0.100848705 0.118142314 0.10675789 -0.17639764
0.17690927 -0.06943001 0.084054105 -0.11042505 0.032051615 -0.025480442 0.02134368 0.16007183
00000000: 9809 57bd 9e6f bb3d 071b a63d 342b dc3d
00000010: 3eb1 a1bd ab9e 2dbd fb9d c93d 8e02 98bd
00000020: f688 873e c3ac 53bd 9443 bcbb f7eb c4bc
00000030: 5532 7fbd 55c5 0e3e a79d 0fbe 47dd 603d
00000040: 4396 b53d 63bd 94bd 71a3 2c3e 4b0a e5bd
00000050: 95b9 0abe 2d04 b5bd ae25 133e b39f 05be
00000060: 0a2c 3dbd 7644 a5bd 92fb 96bd af19 94bd
00000070: a4e6 57bd 6c4e 90bc 82e9 08be 33b8 e23d
00000080: 3f61 0d3d d26f 963d cc86 8abd 43a5 55bd
00000090: cb7a 43ba 19bc bd3d ac74 2ebd 0f40 d73d
000000a0: e702 afbd aa62 4b3d 6021 28bd 96b6 a1bc
000000b0: 5e19 c83d 680d 5a3d 09ea ecbc 5a2b 70bb
000000c0: 7fe8 a6bd 014d f83b fe54 803d cc6b 3fbc
000000d0: 9c7e 08bd d4ec 423e 1623 cabd 1033 b0bd
000000e0: 179a f8bd 78dd 2bbd 3f6b cc39 4bd0 ba3c
000000f0: 5e07 05be 947c a5bd 48a9 0a3e a348 80bb
00000100: c5c6 94b9 3a50 c73d 402d 753b 75e2 a83c
00000110: a598 4c3d f365 e83d 805b 92bb 68dd 333d
00000120: 5fe8 2e3c e8c1 a83d bc37 ebbd c094 57be
00000130: b63c acbd e825 97bd df48 533c a24d 6fbc
00000140: e8a1 993d 1e83 963c 0b91 5d3d dd3a 533d
00000150: 9488 20bb 9f0e 94bd 100e ba3d f1b2 c7bb
00000160: 4396 acbd 170a d13c a205 bd3d 4edb f8bc
00000170: e9aa babd 71d5 0b3e b436 50be 7d87 2abe
00000180: 5d31 71bd c31b 33be 8b2c 513d fae5 77bd
00000190: efa8 f5bb 1f81 41bd 6300 2b3e 88bf 123e
000001a0: 4d33 5ebd d04d 0d3d 209b b2bd f4da ffbd
000001b0: 9c10 83bc e269 813c 7130 a5bd f1dc 89bd
000001c0: 010f 97bd 58ae 913d 6bcb ba3d 7f32 dbbb
000001d0: c747 93bb fe12 df3d 0086 debc 4c21 f73d
000001e0: 2e62 cabd ef33 003d eb32 75bd 0b7c 9a3d
000001f0: 2e61 9c3d 690c 013e 0588 ccbc ff4c b4bd
00000200: e2e3 b8bd d9be 22bd cfa4 d1bc fe09 bbbd
00000210: e282 4cbd 36a1 8abd 7f4f bcbd 6de1 41bd
00000220: 522e d2bd b9d2 de3d f256 803c c642 183e
00000230: f900 443d 16b3 7abd 002b 5f3b 65c1 53bd
00000240: 12fe 94bc 31f0 183e 5870 babd 18bf da3d
00000250: 0a98 193d a0b3 56be 9bb5 42be 01a0 553d
00000260: 5b66 d5bd 6724 a03d c003 a33b 925a 7f3d
00000270: 49fc 89bd cb0c 843a 12d5 74be dab1 59bd
00000280: d9cb 72bd df11 82bd 96ad e73d fc52 f6bc
00000290: a77c a9bd 42bc 21be 83ca e63d 2877 34be
000002a0: 0634 01bd 681d 763d 740a ee3d 7a08 ffbc
000002b0: 25d5 babd bdcb f2bd f9af 923d 0511 09ba
000002c0: 4cd9 a23d bc72 343d 5573 10bc af6d febd
000002d0: 81f7 4cbe 6b42 8fbd d9f2 ae3d 0026 37bd
000002e0: 4b4c 973d 5489 243d 8761 01bd 9b39 8ebd
000002f0: 92a7 49bd 68a2 e5bd 10dd acba 5ffc c7bd
00000300: c21e 363d fde8 25bc 747e d83d 77af 8abd
00000310: 8556 00be dfab 0a3e d9d7 a53d 24bc b83c
00000320: c498 33be 2fa6 003d 3e23 0b3d 9e5f 233e
00000330: e547 00bd 8cf3 c23d d3c5 a13d 8746 06be
00000340: 61a7 d8bc f8d2 113e 13e2 73bd a2a6 a03d
00000350: d138 d13d bbd7 833c d1ca 20bc 5a60 bc3d
00000360: 6a9b 1a3d 0d22 6b3d 3f60 dabc d3d2 a3bd
00000370: 72ef cebd be72 8dbd 0c12 89bd b5fb 963d
00000380: fe9f 1b3b d14f 5abd 0e88 99bd 2d05 99bd
00000390: 95e2 da3d ef1e 083d 809f 9a3c 3411 ee3d
000003a0: 7176 c8bd 35ce 303d 24b9 ab3d f418 84bc
000003b0: deec 84bd 5a87 663d ed03 2bbe 0ff8 9f3d
000003c0: 0021 87bd 73c4 f6bb 2d6e f93d 8697 ed3c
000003d0: c489 ce3d 99f4 f13d e1a3 da3d 95a1 34be
000003e0: b427 353e 5231 8ebd 8f24 ac3d 8726 e2bd
000003f0: 8e48 033d 5cbc d0bc f1d8 ae3c dfe9 233e

cnn_cells.downsample_blocks.1.1.bias f4 [32]
0.022812467 0.0028730605 -0.0063726977 -0.03929005 0.0076334467 -0.014036411 -0.012051701 -0.030617727
0.0064679305 -0.0050067697 0.02283391 -0.026382493 -0.02418873 -0.03048614 -0.01799881 0.0358642
0.007185993 0.02486327 -0.050377797 0.07115933 -0.023761667 -0.010531051 -0.055089638 0.009465349
-0.0119082695 -0.020780904 -0.08075112 -0.021020869 -0.05107422 0.048179306 0.016589206 0.03792267
00000000: 36e1 ba3c f549 3c3b 10d2 d0bb 9aee 20bd
00000010: fe21 fa3b faf8 65bc 7f74 45bc 07d2 fabc
00000020: eff0 d33b d40f a4bb 2e0e bb3c 1920 d8bc
00000030: 7227 c6bc 12be f9bc 3e72 93bc 57e6 123d
00000040: 7a78 eb3b 0eae cb3c f358 4ebd fcbb 913d
00000050: d4a7 c2bc 6e8a 2cbc aca5 61bd 8d14 1b3c
00000060: e71a 43bc b73c aabc d860 a5bd f533 acbc
00000070: 3433 51bd aa57 453d 16e6 873c cd54 1b3d

cnn_cells.stages.0.0.depth_conv.weight f4 [32, 1, 5, 5]
0.06232982 0.0047563124 -0.07911511 0.02976319 0.058821023 -0.011567584 -0.051311474 0.0058425856
0.031761482 0.00028151326 -0.12506534 -0.06716405 -0.106318474 0.032010105 0.061892573 -0.1303729
-0.016687961 0.009664162 0.01068678 -0.08707773 0.040053893 0.1393295 0.1562562 0.155202
4.8059363e-05 -0.03410063 -0.07608237 -0.082521744 -0.112630494 -0.04190506 0.12950584 -0.021397937
-0.054120306 0.0067603798 -0.026925178 0.19298232 0.111558974 0.1136945 0.10625489 0.07429731
-0.021922095 -0.035169758 -0.03726553 -0.03652841 -0.025426915 -0.0011107281 -0.024172045 -0.087713234
-0.059136845 -0.013739936 0.019864896 -0.09035526 -0.09267649 0.00019330984 0.10073827 0.023943787
0.02171194 0.05213731 0.02343018 -0.051679768 0.014369364 0.010215656 -0.026197536 -0.16566221
-0.13563697 0.08911985 0.11838858 0.12754016 -0.020449294 -0.011469801 -0.14941637 0.05635943
0.08626662 -0.026639057 0.077741146 0.007922288 -0.057255704 0.12389657 0.041974347 -0.026585177
-0.08619406 -0.09256437 0.08495086 0.089726776 -0.073345594 -0.14906254 -0.12764345 -0.024616184
-0.03971267 -0.11934684 -0.038802832 -0.071133606 0.10884945 0.025666911 -0.08483996 -0.008047232
0.057234637 0.1656031 0.15297945 0.028791886 0.044615127 0.005079806 -0.039474897 -0.12616439
-0.10690685 0.033922363 0.05147423 0.028506346 0.008914558 0.014254265 -0.033680785 0.103171185
0.17167756 0.15723202 0.0057802247 -0.040094122 0.11315135 0.03942591 0.028625576 -0.032593634
-0.11016763 -0.005759279 -0.122717984 -0.14873813 -0.07820491 -0.06745158 0.017620718 0.06039508
-0.004502135 -0.030126901 0.043954846 0.016627638 0.025028948 -0.00056738005 -0.08969779 0.04634154
-0.06985075 -0.03515212 0.030456001 0.038915876 0.036969792 -0.09178997 -0.029933041 0.020812599
0.010760857 0.06691215 -0.01031656 -0.048934523 0.018130573 0.03680031 -0.013486687 -0.030860756
-0.055392705 -0.063959785 -0.037267055 0.06345618 -0.042201288 -0.011541302 0.02365908 -0.006660669
0.12494847 0.16102028 0.100491606 -0.064654626 0.14779802 0.11912237 0.06961383 -0.14010112
-0.05161412 0.089634076 -0.040188402 -0.09143967 -0.19894968 -0.22808869 0.11447175 0.010855233
0.0038943228 0.0027334087 -3.950228e-05 -0.0058333883 0.0066170795 -0.024993697 0.0009836538 -0.021565711
-0.009954624 -0.04209921 -0.04492029 -0.0052780267 0.017946124 0.0051714852 0.031861793 -0.009539818
-0.0016823784 0.04014547 0.016475072 0.014921997 0.002342043 -0.0012428673 0.019594347 -0.050013646
-0.019874012 -0.09368988 -0.1259037 -0.035903648 -0.0042961366 0.027561285 -0.04510688 -0.11200893
-0.07028131 -0.10081163 0.14161003 0.2621972 0.20796649 0.17185748 0.035580598 0.04869999
0.11948829 -0.025829839 0.043151174 -0.115374684 -0.09575086 -0.04669278 -0.13716021 0.0021440743
-0.049294222 0.01739392 -0.01827824 0.03820169 -0.043644316 0.0639773 0.0038632443 0.018684171
-0.025355315 -0.020147894 0.03210233 -0.08108123 0.029843941 -0.052693553 0.031571873 -0.046333466
0.039763924 0.018208118 0.047465358 -0.054643814 -0.026024513 0.029212018 0.014428454 -0.019215807
0.042814173 -0.028569967 0.018891584 0.021860942 0.009463548 0.08078656 0.0016226767 -0.01924016
00000000: 8e4d 7f3d d7da 9b3b 1a07 a2bd efd1 f33c
00000010: 50ee 703d f785 3dbc fb2b 52bd 2973 bf3b
00000020: 5418 023d 1298 9339 2111 00be 4e8d 89bd
00000030: 80bd d9bd 071d 033d 1183 7d3d 7980 05be
00000040: 31b5 88bc 6f56 1e3c 9b17 2f3c cf55 b2bd
00000050: 8d0f 243d 64ac 0e3e a001 203e 46ed 1e3e
00000060: 5993 4938 1aad 0bbd 13d1 9bbd 2901 a9bd
00000070: d1aa e6bd a4a4 2bbd 2e9d 043e ba4a afbc
00000080: 41ad 5dbd 2d86 dd3b 3192 dcbc 289d 453e
00000090: 0879 e43d a9d8 e83d 2a9c d93d 3029 983d
000000a0: f795 b3bc 2a0e 10bd bea3 18bd d09e 15bd
000000b0: 1b4c d0bc da95 91ba 7404 c6bc ffa2 b3bd
000000c0: 7a39 72bd 781d 61bc b5bb a23c 2e0c b9bd
000000d0: 2ccd bdbd 37b3 4a39 de4f ce3d c325 c43c
000000e0: 3ddd b13c ef8d 553d a6f0 bf3c 2aae 53bd
000000f0: 7b6d 6b3c 915f 273c 379c d6bc 5ba3 29be
00000100: 6be4 0abe 7884 b63d b675 f23d e399 023e
00000110: 4785 a7bc d5eb 3bbc 9b00 19be 25d9 663d
00000120: 8eac b03d 273a dabc c036 9f3d 7ccc 013c
00000130: f584 6abd 7cbd fd3d 4bed 2b3d 28c9 d9bc
00000140: 8386 b0bd 6392 bdbd b7fa ad3d acc2 b73d
00000150: 3736 96bd daa3 18be f7b4 02be e1a7 c9bc
00000160: c1a9 22bd 1e6c f4bd b8ef 1ebd 7fae 91bd
00000170: 76ec de3d 6a43 d23c 93c0 adbd 8ad8 03bc
00000180: de6e 6a3d dc93 293e a5a6 1c3e f6dc eb3c
00000190: 5abe 363d 8074 a63b 6eb0 21bd 3d31 01be
000001a0: fbf1 dabd 2df2 0a3d a4d6 523d 2486 e93c
000001b0: 5e0e 123c b98a 693c ddf4 09bd 6a4b d33d
000001c0: 3ecc 2f3e 6e01 213e 0a68 bd3b bc39 24bd
000001d0: e5bb e73d 107d 213d 2f80 ea3c e780 05bd
000001e0: 919f e1bd 55b8 bcbb 9153 fbbd cf4e 18be
000001f0: e529 a0bd 0e24 8abd 5359 903c d560 773d
00000200: a586 93bb b1cc f6bc ff09 343d af36 883c
00000210: 8209 cd3c 3bbc 14ba 7ab3 b7bd a0d0 3d3d
00000220: e90d 8fbd abfb 0fbd dd7e f93c 4166 1f3d
00000230: a36d 173d 61fc bbbd 2336 f5bc 2f7f aa3c
00000240: 4e4e 303c 3d09 893d ca06 29bc 916f 48bd
00000250: 9186 943c ecbb 163d 44f7 5cbc b2cf fcbc
00000260: 76e3 62bd 59fd 82bd 57a5 18bd 50f5 813d
00000270: 42db 2cbd bb17 3dbc b0d0 c13c be41 dabb
00000280: fce4 ff3d 80e2 243e 8bce cd3d a569 84bd
00000290: 5d58 173e 6ef6 f33d b291 8e3d ab76 0fbe
000002a0: 5469 53bd 1292 b73d 989c 24bd b944 bbbd
000002b0: 77b9 4bbe 1590 69be 2a70 ea3d 26da 313c
000002c0: e537 7f3b fd22 333b 40af 25b8 0226 bfbb
000002d0: 16d4 d83b 95bf ccbc f2ed 803a 93aa b0bc
000002e0: b818 23bc 3970 2cbd 57fe 37bd 4cf3 acbb
000002f0: c003 933c 9075 a93b 8381 023d e64c 1cbc
00000300: 4083 dcba 946f 243d bbf6 863c 647b 743c
00000310: f67c 193b b5e7 a2ba 5384 a03c 1cdb 4cbd
00000320: d3ce a2bc 7be0 bfbd e6ec 00be b40f 13bd
00000330: 9bc6 8cbb 34c8 e13c fec1 38bd f064 e5bd
00000340: a6ef 8fbd 5476 cebd 3802 113e b63e 863e
00000350: 2bf5 543e 68fb 2f3e f6bc 113d a479 473d
00000360: 47b6 f43d 1999 d3bc 49bf 303d 9049 ecbd
00000370: 0719 c4bd ee40 3fbd ba73 0cbe 9983 0c3b
00000380: bde8 49bd b27d 8e3c 3fbc 95bc 6079 1c3d
00000390: 62c4 32bd 8806 833d 7c2e 7d3b 8c0f 993c
000003a0: f3b5 cfbc 320d a5bc bc7d 033d ea0d a6bd
000003b0: 487b f43c 32d5 57bd 8251 013d 29c8 3dbd
000003c0: 7fdf 223d 3129 953c 096b 423d 31d2 5fbd
000003d0: 5c31 d5bc 0b4e ef3c 5365 6c3c 786a 9dbc
000003e0: ea5d 2f3d 900b eabc 86c2 9a3c b815 b33c
000003f0: ff0c 1b3c 6d73 a53d ffaf d43a 8a9d 9dbc

cnn_cells.stages.0.0.depth_conv.bias f4 [32]
-0.019389426 -0.014070897 0.0017983521 0.0203778 -0.013403834 -0.028397629 0.013020785 0.061947607
0.0065404675 -0.015808381 -0.015061626 0.061701242 -0.028581195 -0.032068156 -0.0073079886 -0.00094403187
-0.0142296115 0.01149861 0.0056801597 0.012241326 -0.025473481 -0.005427438 0.019940663 -0.022467835
-0.012037751 -0.023633966 0.023980817 0.009510053 -0.028052494 0.018492779 -0.027340863 0.043758024
00000000: 93d6 9ebc 9f89 66bc afb6 eb3a 58ef a63c
00000010: c19b 5bbc 25a2 e8bc 2155 553c c6bc 7d3d
00000020: 6b51 d63b 9480 81bc 0ac5 76bc 71ba 7c3d
00000030: 1c23 eabc e659 03bd da77 efbb e878 77ba
00000040: 5123 69bc aa64 3c3c a220 ba3b d88f 483c
00000050: c3ad d0bc a6d8 b1bb 9a5a a33c 770e b8bc
00000060: fd39 45bc 059c c1bc 6b73 c43c 0ed0 1b3c
00000070: 58ce e5bc 2b7e 973c f2f9 dfbc 9d3b 333d

cnn_cells.stages.0.0.norm.weight f4 [32]
0.75629485 0.65792775 0.7634922 0.6927382 0.81030303 0.731076 0.6700814 0.7835216
0.9790705 0.6081855 0.67968005 0.7766149 0.80448943 0.8962565 0.75754917 0.83738023
0.7835879 0.89576286 0.8206924 0.8153713 0.7165978 0.90377706 0.7856368 0.88960266
0.62302446 0.7272986 0.8924709 0.79706067 0.7914233 0.7677188 0.70732784 0.9713713
00000000: 8a9c 413f f46d 283f 3a74 433f 4a57 313f
00000010: 0570 4f3f cc27 3b3f 748a 2b3f df94 483f
00000020: 5da4 7a3f 0cb2 1b3f 83ff 2d3f 3cd0 463f
00000030: 05f3 4d3f 1171 653f beee 413f 8d5e 563f
00000040: 3799 483f b750 653f e618 523f 2cbc 503f
00000050: f472 373f ef5d 673f 7e1f 493f 00bd 633f
00000060: 887e 1f3f 3e30 3a3f f978 643f 2b0c 4c3f
00000070: b89a 4a3f 3889 443f 7013 353f caab 783f

cnn_cells.stages.0.0.norm.bias f4 [32]
0.10253128 0.14191261 0.025293246 -0.16744654 0.10277665 0.1748471 -0.039902035 -0.18054385
-0.06964833 0.15490615 0.10210271 -0.16374491 0.13630782 0.0872161 0.027688975 0.03269915
-0.02622406 -0.0473562 0.015496481 -0.0987764 0.16082302 0.035008255 0.050280724 0.10600824
0.06390409 0.12622768 -0.029855248 -0.022823904 0.05620084 -0.15064445 0.047243055 -0.10482691
00000000: ebfb d13d 8a51 113e c833 cf3c 1b77 2bbe
00000010: 907c d23d 1e0b 333e 5170 23bd 7de0 38be
00000020: c9a3 8ebd b89f 1e3e 3a1b d13d bfac 27be
00000030: 4794 0b3e 5b9e b23d fdd3 e23c 8bef 053d
00000040: d7d3 d6bc 93f8 41bd f4e4 7d3c 484b cabd
00000050: caae 243e d164 0f3d 29f3 4d3d d91a d93d
00000060: 26e0 823d d441 013e fe92 f4bc 32f9 babc
00000070: da32 663d 8a42 1abe ef81 413d 7eaf d6bd

cnn_cells.stages.0.0.conv1.weight f4 [128, 32, 1, 1]
0.0066792727 -0.042125605 -0.04344844 0.014225275 0.11986289 -0.07571656 0.10242548 0.06563835
-0.102429934 -0.00556411 -0.05752013 0.0018775633 0.050642855 0.22882439 -0.01206277 -0.14175403
-0.0068639726 -0.052480645 0.02641357 -0.1143059 0.11702393 0.03805031 0.085471764 0.12796393
-0.08650247 0.13386142 0.037401628 0.020758204 -0.15348114 -0.00691588 0.04678809 0.15388939
0.037561182 0.18499674 -0.16386923 0.09805864 0.26119125 0.25307402 0.22530481 -0.06563809
0.09270832 0.09354019 -0.11879735 -0.26133394 -0.07207336 0.28997838 0.18079835 0.13450162
-0.07901712 0.017589817 -0.005961629 0.14239752 0.004216089 -0.017501835 0.03263705 -0.010866616
0.072783634 0.2240803 -0.28917453 -0.075907536 -0.13489762 0.017859768 0.12301657 -0.26396304
0.35623723 -0.10910175 0.04563133 0.016903237 0.2219037 0.09863299 -0.076717936 -0.08565608
-0.12607154 0.13120925 0.016679991 -0.07384361 0.08177907 -0.097550236 -0.018468034 -0.007385785
0.1358388 0.014117256 0.08601375 0.10943826 -0.109868094 -0.08907662 0.23606214 0.14648165
0.13435991 -0.14448728 -0.034275908 -0.028339177 -0.06304599 -0.24075204 -0.032961275 -0.5418271
0.09854306 -0.0066926517 0.07306964 0.031586874 0.0028358374 -0.06881665 -0.08944883 0.102096885
0.20727986 -0.14555304 0.028661368 0.08554682 -0.03075781 -0.0923112 -0.025605982 0.03035399
0.24125418 0.06655893 -0.0436789 0.19391641 -0.086162984 -0.05591989 -0.16106485 -0.0041613337
0.013923447 0.0987286 -0.2187133 -0.09015756 -0.044156194 -0.03327839 0.00079539744 0.15639605
-0.17872806 -0.08536197 0.082918875 0.11219585 0.36849067 -0.08810436 -0.0020134265 0.031929653
-0.055964947 -0.007451515 0.020196006 0.13594139 -0.051867142 0.16730243 -0.11740612 -0.085012004
-0.15886272 -0.0610461 -0.10561746 -0.14418155 0.07741795 0.21466409 0.054219116 -0.0071808966
-0.080816284 -0.021335883 0.023349933 -0.032115664 -0.12826362 0.10466881 0.044748727 -0.21669996
0.04167277 -0.10009554 -0.15998095 0.06631576 0.048349835 -0.11462344 0.071530454 0.034369893
-0.029688112 -0.08850481 -0.08725928 -0.02142882 0.13554889 0.06691239 -0.12863992 -0.048611544
-0.03339136 -0.19348428 0.04451063 0.12082385 -0.111782834 -0.090302065 -0.054521535 0.07119773
-0.09858867 0.17941542 0.03381625 -0.037542265 -0.014122833 0.13617806 0.08910523 0.0071121627
0.0639097 0.08086551 0.023816891 0.1754357 0.013270456 0.14975044 -0.16300915 0.08875196
-0.2920625 0.053075124 -0.04307929 -0.034348976 -0.036192015 -0.07759466 0.13633259 -0.09925823
0.09846585 0.09059522 0.013829629 -0.00927282 0.020023484 -0.17011772 -0.11391206 -0.027956732
0.11592927 0.10822303 -0.17861621 0.12631555 0.17114922 0.012820221 0.24363624 0.09893325
-0.11756592 -0.014945388 0.027525576 0.14016835 0.033819687 0.07549333 0.13540743 -0.117679395
0.041512482 -0.09731534 -0.20090884 -0.13141723 0.02307869 -0.15575016 0.107207246 -0.03886754
-0.0685044 0.089091755 0.14877205 -0.1118096 -0.01935754 0.12924528 -0.13351737 -0.1591542
0.10672661 0.17286508 0.05598497 0.24327624 0.0031824685 -0.0092841135 0.17110161 -0.16379492
00000000: cddd da3b e68b 2cbd fef6 31bd 2111 693c
00000010: ad7a f53d 4911 9bbd 73c4 d13d 666d 863d
00000020: c9c6 d1bd 2353 b6bb 3a9a 6bbd 9218 f63a
00000030: e26e 4f3d f150 6a3e eda2 45bc f827 11be
00000040: 2deb e0bb f2f5 56bd 4561 d83c 3619 eabd
00000050: 3eaa ef3d a4da 1b3d d20b af3d fa08 033e
00000060: 3528 b1bd f812 093e 7332 193d 1c0d aa3c
00000070: 292a 1dbe 9b9e e2bb dea4 3f3d 2e95 1d3e
00000080: c1d9 193d c96f 3d3e 56cd 27be f8d2 c83d
00000090: dcba 853e eb92 813e 4eb6 663e 436d 86bd
000000a0: dcdd bd3d 0092 bf3d 064c f3bd 90cd 85be
000000b0: 339b 93bd 0c78 943e 3423 393e cbba 093e
000000c0: bad3 a1bd 8518 903c c559 c3bb a8d0 113e
000000d0: 1e27 8a3b 0260 8fbc 6dae 053d e409 32bc
000000e0: 960f 953d 4e75 653e af0e 94be 6975 9bbd
000000f0: 9a22 0abe a64e 923c 1df0 fb3d 2a26 87be
00000100: ba64 b63e bd70 dfbd ebe7 3a3d a878 8a3c
00000110: b93a 633e 1800 ca3d 4b1e 9dbd 746c afbd
00000120: e618 01be b85b 063e 7aa4 883c 523b 97bd
00000130: c97b a73d 6bc8 c7bd 464a 97bc 7504 f2bb
00000140: 5419 0b3e 104c 673c fa27 b03d 2b21 e03d
00000150: 8602 e1bd ce6d b6bd 46ba 713e 49ff 153e
00000160: a595 093e 79f4 13be e564 0cbd 9027 e8bc
00000170: 421e 81bd b487 76be 6702 07bd 2eb5 0abf
00000180: f2d0 c93d 084e dbbb 89a5 953d 3d61 013d
00000190: 75d9 393b beef 8cbd f330 b7bd 2c18 d13d
000001a0: 2c41 543e db0b 15be 3fcb ea3c 2c33 af3d
000001b0: cef7 fbbc a80d bdbd a3c3 d1bc eea8 f83c
000001c0: 560b 773e 0c50 883d a5e8 32bd 0692 463e
000001d0: 3876 b0bd 410c 65bd 2fee 24be cc5b 88bb
000001e0: 2b1f 643c 3832 ca3d 61f6 5fbe 87a4 b8bd
000001f0: 20dd 34bd ec4e 08bd 3882 503a 4926 203e
00000200: 7d04 37be 42d2 aebd 5fd1 a93d f0c6 e53d
00000210: cfaa bc3e 0f70 b4bd b1f3 03bb abc8 023d
00000220: 803b 65bd d72b f4bb 1872 a53c 3834 0b3e
00000230: a472 54bd 5451 2b3e 9f72 f0bd c61a aebd
00000240: e9ac 22be 7a0b 7abd f84d d8bd 54a4 13be
00000250: 4d8d 9e3d e7d0 5b3e dd14 5e3d ba4d ebbb
00000260: 0283 a5bd 97c8 aebc 5c48 bf3c b78b 03bd
00000270: 8a57 03be 9a5c d63d 714a 373d 98e6 5dbe
00000280: 11b1 2a3d e4fe ccbd 0cd2 23be 8fd0 873d
00000290: 7a0a 463d b2bf eabd 8f7e 923d 72c7 0c3d
000002a0: 7c34 f3bc 0342 b5bd feb4 b2bd 7e8b afbc
000002b0: 54cd 0a3e 5d09 893d 2fba 03be e61c 47bd
000002c0: 61c5 08bd be20 46be c750 363d 7f72 f73d
000002d0: 66ee e4bd 4af0 b8bd f951 5fbd 1ed0 913d
000002e0: dbe8 c9bd adb8 373e e882 0a3d ebc5 19bd
000002f0: 7463 67bc 4372 0b3e ce7c b63d 250d e93b
00000300: 17e3 823d d19c a53d a41b c33c 6ba5 333e
00000310: 546c 593c 2e58 193e dfeb 26be 96c3 b53d
00000320: 3789 95be 4d65 593d e973 30bd 83b1 0cbd
00000330: 143e 14bd f3e9 9ebd c59a 0b3e e647 cbbd
00000340: 77a8 c93d fd89 b93d ab95 623c 07ed 17bc
00000350: 4a08 a43c 5733 2ebe ba4a e9bd 8405 e5bc
00000360: 536c ed3d 09a4 dd3d 2be7 36be dd58 013e
00000370: be41 2f3e e70b 523c c77b 793e 849d ca3d
00000380: 67c6 f0bd 80dd 74bc 517d e13c 4b88 0f3e
00000390: 8386 0a3d 3f9c 9a3d 3fa8 0a3e e501 f1bd
000003a0: fe08 2a3d 444d c7bd 0cbb 4dbe 3d92 06be
000003b0: 850f bd3c f87c 1fbe 798f db3d 9233 1fbd
000003c0: 094c 8cbd bd75 b63d b357 183e 6efc e4bd
000003d0: b493 9ebc e058 043e c7b8 08be 52f9 22be
000003e0: 7b93 da3d 8b03 313e 7f50 653d 681d 793e
000003f0: f690 503b 651c 18bc 4335 2f3e dbb9 27be

cnn_cells.stages.0.0.conv1.bias f4 [128]
-0.045112655 -0.009860023 0.060218763 -0.05422544 -0.044853326 -0.017326567 -0.019557483 -0.055962242
0.008096632 -0.027727453 -0.026475253 -0.04409197 -0.0821758 -0.0131248785 -0.0363016 -0.010851519
-0.013941447 -0.09285653 -0.009702948 -0.09446611 -0.024513012 -0.023395838 -0.1158313 -0.12779737
-0.0015356541 -0.015702765 -0.015700717 -0.043003447 -0.074753806 -0.015857952 -0.116149694 0.024531445
0.0074030813 -0.007269529 0.0052846884 -0.099845715 0.006116263 -0.042087097 -0.07538291 -0.07819701
-0.0225894 -0.03376713 0.03049063 -0.09751929 -0.018313736 0.037011825 -0.031442247 -0.020151092
-0.06463853 -0.05213765 -0.0779084 -0.12636526 -0.0016262591 -0.04406182 -0.041105725 -0.078608885
-0.016776724 0.008448989 0.0152004715 -0.017928233 -0.0413258 -0.040404104 -0.02299183 0.011457952
0.059507042 -0.062378258 -0.055674866 -0.026091512 -0.11315806 -0.12226181 0.03084957 -0.0031267176
0.021273723 -0.02868152 -0.032053277 -0.074917614 -0.10154492 -0.117252655 -0.09976601 -0.013501644
-0.05418369 -0.040817816 0.014341049 0.035719257 -0.067004494 -0.06546752 -0.16148296 0.03682998
-0.075348355 -0.053239956 -0.032316606 0.02743342 -0.1074058 -0.070448026 -0.12037615 -0.048264757
-0.019534672 0.03575569 -0.02844815 -0.05077359 -0.064207226 -0.08287856 -0.070103675 -0.04144794
0.009879816 -0.007902033 -0.058543976 -0.026175274 -0.027315885 0.009091998 -0.12963706 -0.043473385
-0.009996203 0.027393468 -0.03591962 0.0067248796 0.046602402 -0.06323766 -0.01120181 0.027076807
-0.0662524 -0.08184692 -0.03591242 0.023620922 -0.0049386662 -0.08878417 -0.05008298 -0.035635576
00000000: 0cc8 38bd ef8b 21bc f3a7 763d 7f1b 5ebd
00000010: 1fb8 37bd 72f0 8dbc 0437 a0bc aa38 65bd
00000020: bca7 043c af24 e3bc a1e2 d8bc c899 34bd
00000030: c94b a8bd bb09 57bc fdb0 14bd 92ca 31bc
00000040: ab6a 64bc 902b bebd 1df9 1ebc 7377 c1bd
00000050: 83cf c8bc a1a8 bfbc f638 edbd 50dd 02be
00000060: 0048 c9ba 16a3 80bc ca9e 80bc 6224 30bd
00000070: 8618 99bd 89e8 81bc e4df edbd 2bf6 c83c
00000080: 8c95 f23b 3b35 eebb 2e2b ad3b e97b ccbd
00000090: ef6a c83b 8563 2cbd 5b62 9abd c125 a0bd
000000a0: 680d b9bc 674f 0abd 7cc7 f93c 32b8 c7bd
000000b0: b006 96bc b699 173d 96c9 00bd e713 a5bc
000000c0: 3561 84bd 4a8e 55bd 708e 9fbd e565 01be
000000d0: 3328 d5ba 2b7a 34bd 7a5e 28bd b2fd a0bd
000000e0: 576f 89bc a16d 0a3c 660b 793c 3bde 92bc
000000f0: 3e45 29bd c67e 25bd 5d59 bcbc 22ba 3b3c
00000100: a8bd 733d 5880 7fbd 540b 64bd debd d5bc
00000110: 6abf e7bd 6664 fabd 3db8 fc3c 9ee9 4cbb
00000120: 3b46 ae3c 82f5 eabc 4c4a 03bd 686e 99bd
00000130: c8f6 cfbd 2922 f0bd 1f52 ccbd 0036 5dbc
00000140: b8ef 5dbd 9530 27bd b8f6 6a3c 5b4e 123d
00000150: a739 89bd d613 86bd ca5b 25be 08db 163d
00000160: 3d50 9abd 2412 5abd 6b5e 04bd 0dbc e03c
00000170: 92f7 dbbd 0e47 90bd c587 f6bd 44b1 45bd
00000180: 2d07 a0bc 8f74 123d 180c e9bc f8f7 4fbd
00000190: 147f 83bd 3cbc a9bd 8492 8fbd 51c5 29bd
000001a0: f4de 213c 8777 01bc cfcb 6fbd 876d d6bc
000001b0: 90c5 dfbc 9bf6 143c 94bf 04be 2611 32bd
000001c0: 1dc7 23bc 4468 e03c 7420 13bd 615c dc3b
000001d0: 29e2 3e3d bf82 81bd cc87 37bc 2ed0 dd3c
000001e0: 57af 87bd 5c9f a7bd e718 13bd aa80 c13c
000001f0: 89d4 a1bb 7ad4 b5bd d023 4dbd 9cf6 11bd

cnn_cells.stages.0.0.conv2.weight f4 [32, 128, 1, 1]
0.016951116 -0.2014165 0.027308982 -0.027944375 -0.14573005 0.18053274 -0.033587046 -0.20239688
0.04534636 -0.06304539 0.058564555 0.071372375 -0.08497691 0.0025091162 0.13684998 -0.16484706
-0.07070798 -0.03499558 -0.005348772 -0.101782106 -0.16018659 -0.055424765 0.13056515 -0.13860208
0.14334343 0.027506264 0.0011373435 0.015797563 0.061363757 0.02891601 -0.05311004 -0.20865536
0.019354645 -0.034048323 -0.09800621 -0.057599343 -0.08407231 0.07223748 -0.10983983 -0.08456586
0.12142325 -0.024400426 -0.09817444 -0.09907444 -0.16382402 -0.056768492 0.0739894 0.015126775
-0.107891105 0.09844881 0.08497607 -0.04890824 0.06131415 0.017159857 0.14427333 0.01420211
0.09591634 -0.10498302 0.08348202 0.06162835 -0.24535073 -0.13837045 0.17644472 -0.06602579
0.03386607 0.05437778 -0.037927173 -0.095382825 0.09168158 0.098382115 0.012244276 0.044456817
-0.1406347 0.03104092 -0.076676935 0.09126367 0.049572233 0.10103407 -0.08552675 -0.032435965
0.1466636 0.10607319 -0.15157942 -0.1422422 0.11915698 0.01418015 0.15352567 -0.20237643
0.023758767 0.11095075 0.013048408 -0.1537211 -0.15662754 0.08402534 0.096116714 0.059209254
0.06529158 0.01015756 0.0639386 0.17714417 0.0011568505 -0.10446685 -0.15977897 -0.008543016
-0.19906418 -0.044953167 -0.018536368 -0.18013185 0.07105471 -0.3276774 0.0046638804 -0.15344833
-0.18961874 -0.2181423 0.1293329 0.13271886 -0.1383721 -0.20340747 -0.039607324 0.0334616
-0.029810125 -0.059723187 0.06945188 -0.019699479 -0.31216744 0.040505994 -0.016745783 0.10066692
-0.0088699255 0.2962199 0.19081225 -0.21615595 -0.026727553 0.10090843 0.01383741 0.025968093
0.013822391 -0.012219572 0.09090009 -0.090417966 -0.09012094 -0.016663432 -0.010536407 0.24758758
-0.029345011 -0.045401014 0.13699928 0.18860914 0.12436987 -0.033346485 -0.012343269 -0.100629896
0.048172254 0.079365686 0.16854152 0.011724284 0.036345724 -0.03417737 -0.044483844 0.16939826
0.002945269 0.16346401 0.07488902 0.042837393 0.2752416 0.05650171 -0.12436162 -0.05680397
0.15202487 -0.00342966 0.12729715 -0.11273411 0.011380154 0.10819812 -0.011237395 -0.11287454
-0.07585278 0.012059246 -0.15135631 -0.052479934 0.014389189 -0.03969618 0.12384492 -0.12866183
0.020222545 -0.03249855 0.18466772 -0.037852082 -0.117223956 0.1630211 0.1407877 0.26420644
-0.0606219 0.056461822 -0.029525157 -0.05000684 -0.017482167 -0.104384564 0.24147475 0.18230112
0.18824069 0.09184257 0.0192775 -0.117862195 -0.048119016 -0.039907075 -0.07730216 0.14784512
-0.10438081 0.05347079 0.19799462 0.13953044 0.017443057 0.04403406 0.047367867 0.32047224
-0.078153305 -0.0024317754 -0.15173733 0.14137109 0.11018442 -0.104363166 -0.11290125 0.1247778
0.08404626 -0.012326097 -0.059610475 -0.07716188 -0.062730365 -0.09920188 -0.14204407 -0.006682408
0.04994123 0.045371585 0.1723751 -0.092502125 0.0073406408 0.11861256 -0.14624086 -0.0179696
0.15157045 -0.066178486 -0.1272128 -0.01637474 0.057476975 0.08003948 0.04520856 0.049112488
-0.07944499 0.11904439 0.0027193078 -0.0014733736 0.12512244 -0.076716304 -0.076920524 -0.08812683
00000000: 11dd 8a3c 2140 4ebe 16b7 df3c 9aeb e4bc
00000010: 423a 15be 93dd 383e 9292 09bd 2141 4fbe
00000020: 1bbd 393d f11d 81bd 63e1 6f3d ae2b 923d
00000030: 6008 aebd fc6f 243b 6722 0c3e abcd 28be
00000040: 58cf 90bd 8657 0fbd c044 afbb 2373 d0bd
00000050: f407 24be 1405 63bd dfb2 053e b4ed 0dbe
00000060: 9fc8 123e d154 e13c ea12 953a e469 813c
00000070: 9058 7b3d 45e1 ec3c ea89 59bd c0a9 55be
00000080: a28d 9e3c 4176 0bbd 7bb7 c8bd 4aed 6bbd
00000090: 1a2e acbd 3ef1 933d b4f3 e0bd de30 adbd
000000a0: c1ac f83d 67e3 c7bc ae0f c9bd 8ae7 cabd
000000b0: 7cc1 27be 1486 68bd c187 973d 4bd6 773c
000000c0: 03f6 dcbd 889f c93d ef07 ae3d 0254 48bd
000000d0: 8c24 7b3d d492 8c3c 63bc 133e f7af 683c
000000e0: c96f c43d 5601 d7bd 9ff8 aa3d 026e 7c3d
000000f0: 393d 7bbe fcb0 0dbe edad 343e 8838 87bd
00000100: 26b7 0a3d 3cbb 5e3d 8659 1bbd 1258 c3bd
00000110: 8dc3 bb3d 907c c93d 379c 483c 5a18 363d
00000120: 8b02 10be 8749 fe3c cc08 9dbd 72e8 ba3d
00000130: 410c 4b3d f3ea ce3d a628 afbd 93db 04bd
00000140: fc2e 163e e73c d93d a337 1bbe f0a7 11be
00000150: 9308 f43d dc53 683c d535 1d3e c43b 4fbe
00000160: bfa1 c23c 263a e33d fdc8 553c 1069 1dbe
00000170: f862 20be 7a15 ac3d d7d8 c43d 6785 723d
00000180: 98b7 853d e56b 263c 3ef2 823d 4865 353e
00000190: 76a1 973a b7f2 d5bd 199d 23be 02f8 0bbc
000001a0: 7bd7 4bbe d020 38bd 95d9 97bc 7c74 38be
000001b0: 2285 913d 55c5 a7be 77d3 983b 8f21 1dbe
000001c0: 6a2b 42be b260 5fbe d86f 043e 74e7 073e
000001d0: 6ab1 0dbe 0c4a 50be 4a3b 22bd 080f 093d
000001e0: 5d34 f4bc 4da0 74bd ca3c 8e3d cd60 a1bc
000001f0: 69d4 9fbe 9de9 253d 742e 89bc 752a ce3d
00000200: 2a53 11bc 22aa 973e 4964 433e fc57 5dbe
00000210: bef3 dabc 14a9 ce3d 4eb6 623c 0abb d43c
00000220: 4f77 623c 9a34 48bc d429 ba3d 0e2d b9bd
00000230: 5491 b8bd c081 88bc e5a0 2cbc 9987 7d3e
00000240: f364 f0bc 6af6 39bd 8a49 0c3e c122 413e
00000250: a1b5 fe3d 5396 08bd 6c3b 4abc 0c17 cebd
00000260: 4550 453d 7a8a a23d 2696 2c3e 3617 403c
00000270: 41df 143d 92fd 0bbd b134 36bd bd76 2d3e
00000280: 6a05 413b 1c63 273e 6a5f 993d 4376 2f3d
00000290: 78ec 8c3e 566e 673d 4eb1 febd 48ab 68bd
000002a0: 68ac 1b3e 26c4 60bb 2f5a 023e 24e1 e6bd
000002b0: d373 3a3c fa96 dd3d 0d1d 38bc c42a e7bd
000002c0: b458 9bbd 2594 453c 26fd 1abe 33f5 56bd
000002d0: a2c0 6b3c 7698 22bd 68a2 fd3d edbf 03be
000002e0: c0a9 a53c 331d 05bd 8919 3d3e c90a 1bbd
000002f0: 1d13 f0bd 01ef 263e a72a 103e 1146 873e
00000300: ab4e 78bd 8344 673d bede f1bc f9d3 4cbd
00000310: c336 8fbc 93c7 d5bd 2845 773e 25ad 3a3e
00000320: 2bc2 403e f517 bc3d d9eb 9d3c bc61 f1bd
00000330: 7218 45bd 9a75 23bd 9850 9ebd b664 173e
00000340: 9bc5 d5bd 3004 5b3d 1abf 4a3e 11e1 0e3e
00000350: bee4 8e3c 0f5d 343d cf04 423d f014 a43e
00000360: d70e a0bd 6c5e 1fbb 0861 1bbe 95c3 103e
00000370: 5fa8 e13d 5bbc d5bd c538 e7bd 818b ff3d
00000380: 7220 ac3d 66f3 49bc 1d2a 74bd 0c07 9ebd
00000390: c778 80bd 5b2a cbbd 0074 11be 1af8 dabb
000003a0: 2d8f 4c3d 8ed7 393d 1983 303e c171 bdbd
000003b0: c289 f03b 24eb f23d 2ac0 15be fc34 93bc
000003c0: 4935 1b3e 9688 87bd 1244 02be 5224 86bc
000003d0: fa6c 6b3d bdeb a33d 9c2c 393d 2d2a 493d
000003e0: 0eb4 a2bd 8ccd f33d 6a36 323b 371e c1ba
000003f0: 1920 003e 701d 9dbd 8288 9dbd d77b b4bd

cnn_cells.stages.0.0.conv2.bias f4 [32]
-0.0065825386 0.10062825 -0.061283983 0.016684582 -0.023955692 -0.012819358 0.025286023 0.035938974
-0.020370526 -0.041160207 0.045067634 0.0076139965 -0.03167749 0.017177852 0.08819195 -0.039568763
-0.027080484 -0.017216472 0.052311573 0.02031203 0.01187759 -0.032260083 -0.0216352 -0.05100905
-0.015012623 -0.0023578238 0.009039753 -0.0010137546 0.0123652965 0.025154041 -0.009213749 -0.011118142
00000000: 56b2 d7bb 2f16 ce3d ea04 7bbd 1bae 883c
00000010: ba3e c4bc 4908 52bc a224 cf3c bf34 133d
00000020: 17e0 a6bc 9b97 28bd d798 383d d57e f93b
00000030: 41c0 01bd 91b8 8c3c fb9d b43d db12 22bd
00000040: e4d7 ddbc 8f09 8dbc a944 563d 6a65 a63c
00000050: 399a 423c 2623 04bd 4e3c b1bc deee 50bd
00000060: 81f7 75bc b885 1abb 791b 143c f6df 84ba
00000070: d097 4a3c d90f ce3c 44f5 16bc de28 36bc

cnn_cells.stages.1.0.depth_conv.weight f4 [32, 1, 5, 5]
-0.016663186 -0.012386922 0.10188237 0.0052350773 0.0078097787 -0.009483004 0.14322196 -0.005013364
-0.1446031 -0.041227527 0.12443764 -0.073279686 -0.13126513 -0.112495884 0.0026720637 -0.03943169
-0.13761292 0.060696088 0.15858945 0.005093829 -0.031306997 -0.017540045 0.10276276 0.08656217
-0.01088994 0.00026797748 0.11599055 -0.05907345 -0.025205739 0.024383636 -0.044720516 -0.042017505
-0.19660349 -0.18324779 0.12803045 -0.086324364 0.27764294 0.17894375 -0.14218317 0.07806342
-0.07959924 0.17555061 0.017010752 -0.09716285 0.03854519 -0.005199322 -0.039170552 -0.044253338
-0.049352683 0.033679985 -0.063277096 -0.056970235 0.122905694 0.040616214 -0.014417583 0.016686043
-0.035858486 -0.106682494 0.092073455 -0.059350293 0.098159604 -0.11099736 -0.17996447 0.07658042
0.041250154 0.029011626 0.0138383685 -0.046070226 0.09308487 -0.034586042 0.06604546 -0.06479154
0.02576196 0.03684936 0.007907604 -0.014281943 -0.021379912 -0.034359798 0.019143006 -0.013160978
0.014682752 -0.10652469 -0.034352567 0.09071265 -0.061063517 -0.063511424 -0.1015371 -0.000116221236
0.15413143 -0.010146414 -0.031743366 -0.06897852 0.10557819 0.12711786 0.061342075 0.005920826
0.018415889 -0.023832345 -0.05675665 -0.058818173 0.012358857 0.0040131705 0.048611283 -0.011944708
0.0059111463 0.033232037 -0.15070952 -0.10806817 0.061091125 -0.023171548 0.016651088 -0.17271058
0.13939887 0.052742388 -0.0024799795 0.072545655 -0.10341113 0.16097687 0.044430174 -0.034439784
-0.027524225 -0.096003026 -0.05305926 0.011673971 0.073365375 -0.07155176 -0.08623462 -0.11408403
-0.006111236 -0.045282096 0.13283783 -0.06217269 -0.121487424 0.13772753 0.05332713 0.12561662
0.02083261 0.07427402 0.20927967 0.08551882 -0.0389044 0.014514316 -0.059262585 -0.13186939
0.07887917 -0.10070372 0.007790898 0.06174504 -0.13355838 -0.006414687 0.01918176 0.059752714
0.08354058 -0.0039407997 0.0130532915 0.025691304 0.056507677 0.07108102 -0.24251042 0.09026586
0.04970824 -0.07672983 -0.055376388 -0.20724556 0.13233721 0.08528167 0.029421583 0.09284712
-0.09698641 0.02752737 0.00049259915 -0.087984174 0.14689364 -0.10243201 -0.0618409 -0.0867872
-0.031680476 -0.066419296 0.016688604 0.0029001664 0.061121885 0.089174144 0.052922033 -0.057627443
-0.0235728 0.035789613 0.10833013 0.086289674 -0.025902616 -0.054493915 -0.026243407 0.072328
0.11248458 -0.04093286 -0.05329261 -0.13937978 0.010971671 0.062971726 0.055099607 -0.04692122
0.019982446 -0.010030151 0.017213635 0.054111674 -0.05747364 0.0782535 -0.085258074 -0.24729277
0.054052625 0.008524535 0.09443027 -0.0034967337 0.0008796382 0.22651048 -0.06269771 0.08970219
-0.09180188 -0.108420186 -0.015345245 0.00565636 0.046531457 -0.04689946 -0.0029957043 0.035724755
-0.027663127 0.079893164 0.09537832 0.070602074 0.11384896 0.047705244 0.021710765 -0.07573686
0.06512981 -0.003642168 -0.034768917 -0.0070376103 -0.19647716 -0.14446798 0.054726224 -0.066065624
-0.008520379 -0.10321125 -0.12866168 0.016876627 -0.014912113 0.018237283 0.07830572 3.1678417e-05
0.076822475 0.04383908 0.00012316323 -0.07584995 -1.5235299e-05 -0.0392235 0.021341585 0.008741779
00000000: 3c81 88bc 84f2 4abc b4a7 d03d 038b ab3b
00000010: 2ce9 ff3b 9a5e 1bbc c7a8 123e 2547 a4bb
00000020: d612 14be 32de 28bd 29d9 fe3d a913 96bd
00000030: 5e6a 06be 3e64 e6bd ca1d 2f3b 2083 21bd
00000040: 67ea 0cbe 769c 783d 4665 223e 22ea a63b
00000050: c43b 00bd 24b0 8fbc 4875 d23d 8247 b13d
00000060: b86b 32bc 547f 8c39 748c ed3d 00f7 71bd
00000070: 447c cebc 31c0 c73c dc2c 37bd 8c1a 2cbd
00000080: 6d52 49be 4fa5 3bbe 6a1a 033e d4ca b0bd
00000090: 3727 8e3e 083d 373e 7798 11be b7df 9f3d
000000a0: ed04 a3bd 8ac3 333e 225a 8b3c 51fd c6bd
000000b0: 90e1 1d3d 135f aabb 4d71 20bd fd42 35bd
000000c0: 0a26 4abd 06f4 093d 6c97 81bd 9f59 69bd
000000d0: fbb5 fb3d 305d 263d ba37 6cbc 2bb1 883c
000000e0: 59e0 12bd 5a7c dabd 0291 bc3d 4b19 73bd
000000f0: e707 c93d 9552 e3bd 9b48 38be 32d6 9c3d
00000100: ecf5 283d caa9 ed3c 53ba 623c 22b4 3cbd
00000110: 48a3 be3d 18aa 0dbd d842 873d 6db1 84bd
00000120: bf0a d33c 5bef 163d e58e 013c d0fe 69bc
00000130: ed24 afbc dcbc 0cbd cbd1 9c3c 25a1 57bc
00000140: ed8f 703c 9e29 dabd 47b5 0cbd 8ec7 b93d
00000150: bd1d 7abd 4712 82bd aff2 cfbd cdbb f3b8
00000160: a1d4 1d3e 253d 26bc 5505 02bd 9c44 8dbd
00000170: 6139 d83d 2f2b 023e d441 7b3d 7d03 c23b
00000180: ebdc 963c 0d3c c3bc a979 68bd 53eb 70bd
00000190: ce7c 4a3c ea80 833b a01c 473d bdb3 43bc
000001a0: 4ab2 c13b 511e 083d 9953 1abe d852 ddbd
000001b0: b03a 7a3d 42d2 bdbc dd67 883c 0bdb 30be
000001c0: 94be 0e3e 6708 583d 2787 22bb d192 943d
000001d0: 37c9 d3bd 1fd7 243e 6afc 353d bb10 0dbd
000001e0: 7c7a e1bc 3c9d c4bd ab54 59bd 2f44 3f3c
000001f0: 9640 963d bb89 92bd c79b b0bd e3a4 e9bd
00000200: c340 c8bb b879 39bd a406 083e caa8 7ebd
00000210: 66ce f8bd 7208 0d3e 8c6d 5a3d a5a1 003e
00000220: 26a9 aa3c fa1c 983d 694d 563e 7e24 af3d
00000230: 385a 1fbd 74cd 6d3c 53bd 72bd c508 07be
00000240: 678b a13d c03d cebd ca4a ff3b 5ee8 7c3d
00000250: 87c3 08be 4b32 d2bb 1123 9d3c 43bf 743d
00000260: 5317 ab3d d321 81bb 79dd 553c 9276 d23c
00000270: 9874 673d ed92 913d a754 78be 4fdd b83d
00000280: de9a 4b3d 8724 9dbd 5ad2 62bd 2e38 54be
00000290: 6883 073e 28a8 ae3d 8805 f13c a126 be3d
000002a0: d0a0 c6bd 1481 e13c c521 013a 0c31 b4bd
000002b0: 496b 163e e0c7 d1bd e24c 7dbd 7dbd b1bd
000002c0: 63c3 01bd d706 88bd 8ab6 883c b810 3e3b
000002d0: f15a 7a3d efa0 b63d c6c4 583d c10a 6cbd
000002e0: bf1b c1bc 2198 123d 30dc dd3d a4b8 b03d
000002f0: b931 d4bc 0335 5fbd 6afc d6bc b420 943d
00000300: 515e e63d 37a9 27bd 5a49 5abd 93b9 0ebe
00000310: 86c2 333c 52f7 803d 20b0 613d 7730 40bd
00000320: 3ab2 a33c 8155 24bc 9c03 8d3c 34a4 5d3d
00000330: 7b69 6bbd 5f43 a03d c99b aebd 513a 7dbe
00000340: 4966 5d3d 7eaa 0b3c a864 c13d 7529 65bb
00000350: 8597 663a 5df2 673e a867 80bd c8b5 b73d
00000360: a002 bcbd 670b debd 9f6a 7bbc fd58 b93b
00000370: c597 3e3d a619 40bd 9453 44bb 1f54 123d
00000380: c89d e2bc 079f a33d b555 c33d d297 903d
00000390: a529 e93d 9366 433d c6da b13c ed1b 9bbd
000003a0: c762 853d 70b1 6ebb da69 0ebd c19b e6bb
000003b0: 4f31 49be 6aef 13be 9b28 603d 6a4d 87bd
000003c0: 0f99 0bbc 6b60 d3bd e3bf 03be da40 8a3c
000003d0: ef51 74bc 5b66 953c c05e a03d 71de 0438
000003e0: 1a55 9d3d 9b90 333d 6125 0139 3857 9bbd
000003f0: 1c9b 7fb7 d2a8 20bd 8cd4 ae3c ae39 0f3c

cnn_cells.stages.1.0.depth_conv.bias f4 [32]
-0.009260664 -0.05834728 -0.037932754 -0.04006591 -0.016729508 -0.0041720634 -0.0077038864 0.08764826
0.028806059 -0.07002183 -0.0075489283 0.057538133 0.11567145 0.077118084 0.008253978 -0.011294162
-0.05796738 0.0062401574 0.03556663 0.012297528 0.013477835 0.011173018 0.052156378 -0.03251216
-0.095178135 -0.077095866 -0.0050064404 -0.059077717 -0.10858995 -0.05734778 0.00017715254 0.09694674
00000000: 0aba 17bc 8ffd 6ebd 605f 1bbd 271c 24bd
00000010: 520c 89bc ceb5 88bb e270 fcbb ee80 b33d
00000020: affa eb3c 9b67 8fbd 005d f7bb 1bad 6b3d
00000030: 27e5 ec3d 16f0 9d3d b13b 073c 260b 39bc
00000040: 346f 6dbd 3c7a cc3b 51ae 113d 927b 493c
00000050: 23d2 5c3c 090f 373c eda1 553d 782b 05bd
00000060: c1ec c2bd 70e4 9dbd 110d a4bb 7afb 71bd
00000070: 6864 debd 81e5 6abd 06c2 3939 038c c63d

cnn_cells.stages.1.0.norm.weight f4 [32]
0.848257 0.95198524 0.82663196 0.758176 0.8070268 0.8794827 0.8969727 0.788294
0.90762675 0.8193922 0.72666615 0.82568264 0.83728695 0.69922996 0.78497386 0.89630896
0.8155777 0.8046217 0.80111223 0.8222757 0.8223675 0.83820033 0.7815928 0.7560223
0.9427536 0.7964257 0.8890518 0.8692341 0.8182031 0.8621502 0.7707874 0.78452677
00000000: 5f27 593f 4eb5 733f 279e 533f d317 423f
00000010: 4f99 4e3f c725 613f 01a0 653f a3cd 493f
00000020: 3a5a 683f b0c3 513f cb06 3a3f f05f 533f
00000030: 7058 563f bc00 333f 0cf4 483f 8174 653f
00000040: b3c9 503f b0fb 4d3f b115 4d3f a980 523f
00000050: ad86 523f 4c94 563f 7716 483f ad8a 413f
00000060: 4d58 713f 8ee2 4b3f e698 633f 2086 5e3f
00000070: c275 513f e0b5 5c3f 5352 453f bfd6 483f
