parameter_estimation/models/ConvNextParameterEstimator_KZ_v3/model_weight.ckpt (torch, 265365 bytes, 43 tensors)

cnn_cells.downsample_blocks.0.0.weight f4 [32]
00000000: 3bb8 533f 4762 3f3f 429d b03e f2d6 3d3f
00000010: f5f3 6a3f f878 723f bf1f 283f 328f 4e3f
00000020: e1ee 6a3f 5b91 143f d7fa 6e3f 77c4 523f
00000030: 77eb 483f 6b52 533f 52bb 803f f4c0 403f
00000040: d392 6e3f 13d3 6b3f 9eed 1e3f b84c 753f
00000050: 1245 4f3f 0618 723f 9c23 6b3f 6abe 373f
00000060: de3a 483f 3d48 503f 1927 4d3f 561d 0e3f
00000070: eeef f73e 2ff2 873f a758 7b3f dbb7 0c3f
0.8270299 0.74759334 0.34494978 0.74156106 0.917785 0.94715834 0.6567344 0.8068725
0.9177075 0.58034295 0.933515 0.8233103 0.7848429 0.82547635 1.0057166 0.75294423
0.93192786 0.9211895 0.62081325 0.9582019 0.8096477 0.94567907 0.9185121 0.71774924
0.78214824 0.81360227 0.80137783 0.55513513 0.4842524 1.0620784 0.9818215 0.5496804

cnn_cells.downsample_blocks.0.0.bias f4 [32]
00000000: ebeb 833d ba97 163d 69b3 a7be fdd3 78bd
00000010: f43e 803d 678b a9bd 9735 083d 250a 733d
00000020: 3b9a 113d 49d9 a53e 275d a4bd 71ba 9b3b
00000030: 0268 0bbd a169 5dbc 65d1 a33d 17d8 463d
00000040: c9bc 983d 2804 fb3c 84cb 2dbe 86dc 7ebd
00000050: 86c9 403d 684a c3bd 543a 833d 96a6 55bd
00000060: f84b 10bd f2b3 20bb 4fa4 68bb f9ff 25bd
00000070: 82f1 963e f048 8f3d 7a1b 29bd 9a39 e5bd
0.06441482 0.03676579 -0.32754067 -0.060749043 0.06262007 -0.08278542 0.033254232 0.059335846
0.035547476 0.32392338 -0.0802558 0.00475245 -0.034034736 -0.013513953 0.07998923 0.048545923
0.07457883 0.03064163 -0.16972166 -0.062222026 0.047067188 -0.09535676 0.064076096 -0.05216082
-0.0352287 -0.0024521318 -0.0035498326 -0.040527318 0.2948113 0.069963336 -0.04128597 -0.11192627

cnn_cells.downsample_blocks.0.1.weight f4 [32, 32, 2, 2]
00000000: 86a1 57bc 374e b0bc 441c f9bc d88a 97bc
00000010: f357 183b 05ab 7bbd b49e 06bd 5a31 ad3c
00000020: d8be cb3c 8774 1fbd e597 0d3e 187b 90bd
00000030: 1dd5 b6bc 22cc 88bd 3348 0e3d ffbe 22bc
00000040: 1a9a 1abd 318c f8bc 60f5 24bd 3bb0 64bb
00000050: 287b ad3d 7de0 06be 66b1 973c 1d78 8bbd
00000060: 98d1 653b 9617 ff3c 4887 943d 86e4 9b3d
00000070: b4ff b1bd d0d6 fabd a8ee ee3d 3ed0 263e
00000080: b225 103e 2b53 613d c09e 90bd f535 1abd
00000090: 240d e73d d027 b0bd 75cf 2c3d d289 923d
000000a0: 2aad 883d ce1b eb3c d7fa 09be a51c d1bd
000000b0: a0ed eebd a37f 5bbc a38b 063e ae29 bd3d
000000c0: 4992 83bd 4c44 bcbc 8277 5bbd 3900 bb3d
000000d0: 42fe 42bd 6175 17bd 4e45 633c 2da6 773c
000000e0: e630 d0bd 45d9 74bb 4999 e4bc 24a3 243d
000000f0: 529b eb3d 1c89 adbc 15fc 883c f1a0 db3d
00000100: d685 193e c325 b63d d319 96bc b8bb 35bd
00000110: 9bac f93d 7d9a 9f3d bd58 023e 2eb2 e03d
00000120: ff05 263d 9134 9e3b a7b4 dabd 2a08 4ebc
00000130: 7f23 2ebd fcd0 80bd 2c83 f63c eee4 36bd
00000140: dc73 3f3d f9e8 673d 59dc af3d 44a0 34bd
00000150: e2ec 763d efae fb3d c54f 8c3c 3638 1cbd
00000160: 5271 78bc b308 c8bc 0898 4f3d 286a dc3d
00000170: 756e f93b 7df9 babd 4cb2 11be 6401 803c
00000180: b8dd 9d3d 9e62 8bbd 2c10 5a3d ea44 863d
00000190: 766a c73d b403 1abd 7739 7c3d f91f d8bd
000001a0: b262 11bd 495d 313e eb15 94bd 2b06 0e3d
000001b0: b487 02be 262d c1bd d29e 8a3d a881 8c3d
000001c0: 15e0 843b bf45 81bc 9d08 a83d 76b7 6fbd
000001d0: 39aa 8b3c 72b0 0e3c 3e94 ba3d 0508 6cbc
000001e0: c4ad 183e 4e9b 043c 497a f3bd c0b5 74bd
000001f0: 01d2 f1bc 285e 603d b64c a939 cfec 95bc
00000200: 753a bcbd c3d0 38bd ea1a 89bd 7082 413e
00000210: 1c8f 193d c793 823d fa1d 37be 0d0e a13d
00000220: fc19 34be 48e8 c7bd 7d20 ef3d 7208 223e
00000230: dd85 3a3c bfb9 c73d bc2f dfbd 2a88 ad3d
00000240: 2c3b e03c 6003 b0bb 4936 883d 84ac 06be
00000250: 75a2 a7bd 1ea9 6d3d 9595 26bd 1f63 593d
00000260: b048 8dbc 466d dc3c 6a71 6d3d 2856 c9bd
00000270: 8cb2 b23d 8cc5 6e3e 4132 55be 2295 6dbd
00000280: 5183 89be 6fda 30bd 4204 273e cd3b 863e
00000290: b69a 21be 4b37 a3bc 2b3c 933d 752b fb3d
000002a0: 8e8f 86bd 2584 46be a834 5b3e 8e25 d83d
000002b0: 33fc 2c3e f88d 1b3e 8709 2ebe c57e 76be
000002c0: 1427 2c3e 3f58 1b3d 381f fc3c 5966 1fbe
000002d0: 3f65 47bd 614c 6c3d 61f6 00bc a48c 553d
000002e0: 7d53 39bc 5dde a73d c85f 063d 0aad b1bd
000002f0: 0821 44bd 95a8 e43b e353 833d f65b 613c
00000300: bf18 4fbe 9a12 19be c425 bf3d 55c7 b23e
00000310: ffdc abbd cd86 fa3d 5bdd c2b8 4ff5 7f3e
00000320: aab2 9a3d bd6f 293e ab46 28be a118 a8bd
00000330: 7049 843e 72c8 5abd 8ded e8bd a67c 8fbe
00000340: 99f6 023e 3e63 2cbd ac74 543c f751 d43c
00000350: c475 29bd ef4c 823b 717b cabd fc99 0d3e
00000360: b024 19be fb33 eabd 9474 ba3d 0213 733e
00000370: a6bc 2d3d 9739 82bd 586b d5bd 8c78 c0bd
00000380: 61de e33d 6f3c 84bd 4df4 8cbd 82ba c4bd
00000390: 58d9 f6bc 47b0 0bbe 6c50 7c3d c6f5 463c
000003a0: 0e26 d63d 0529 1cbe 5e96 063e 62a1 07be
000003b0: 980c 923d 79b8 043d 6d67 cdbd 49b1 e8bd
000003c0: 13de 7a3d 38fe 0bbe 442d f03d d75f c0bd
000003d0: 865b 3fbe 1a12 edbd 01c5 5f3e 7abb 813e
000003e0: 364b 1fbe 8ccc fcbd aab6 543d b978 f23d
000003f0: 81ec 913c 975b dc3c b9d5 bb3c 9d0e d03c
-0.013161069 -0.02152167 -0.030408986 -0.018498823 0.0023245781 -0.061442394 -0.032866195 0.021141697
0.024871275 -0.03892949 0.13827474 -0.07054728 -0.022318417 -0.0667956 0.034736823 -0.009933232
-0.03774462 -0.030340286 -0.04027307 -0.003489508 0.08470756 -0.13171573 0.018517207 -0.06810019
0.0035067555 0.031139176 0.07252365 0.07611947 -0.086913496 -0.122480035 0.11666614 0.16290376
0.1407688 0.055010956 -0.07061529 -0.037649114 0.11281803 -0.08601344 0.042190034 0.071551934
0.066736534 0.028699782 -0.13474594 -0.10210542 -0.11666417 -0.01339713 0.13139205 0.092364654
-0.06424386 -0.022981785 -0.05358077 0.09130902 -0.04760576 -0.036977176 0.013871504 0.015115303
-0.10165577 -0.0037360948 -0.027905123 0.040194646 0.115042344 -0.021183543 0.016721765 0.107240565
0.1499246 0.08893921 -0.01832286 -0.044368476 0.12191125 0.07793138 0.12729163 0.10971485
0.040533062 0.0048280437 -0.10678988 -0.012575189 -0.04251432 -0.062898606 0.030091844 -0.044651918
0.04674135 0.056618664 0.0858695 -0.044098154 0.060284503 0.12289225 0.01712788 -0.038139544
-0.015163736 -0.02441821 0.050682098 0.10762435 0.0076120445 -0.09129617 -0.14228171 0.015625663
0.07708305 -0.06805919 0.05323808 0.06556113 0.09737103 -0.037601188 0.06157824 -0.10552973
-0.035494514 0.17320742 -0.07230743 0.03467385 -0.12747079 -0.094324395 0.06768574 0.068606675
0.004055033 -0.015780328 0.08204768 -0.05852457 0.017048942 0.00870906 0.09110306 -0.014406209
0.14910036 0.008093668 -0.118885584 -0.059743643 -0.029519083 0.054777294 0.00032291346 -0.018301396
-0.09190837 -0.045120966 -0.066945866 0.18897414 0.037489995 0.063758425 -0.17882529 0.07864008
-0.17588037 -0.09761101 0.116761185 0.15823534 0.011384455 0.09752225 -0.108977765 0.08473237
0.027371965 -0.005371496 0.06650979 -0.13151747 -0.08185283 0.05802261 -0.040669996 0.053073045
-0.017246574 0.026907574 0.05796949 -0.09830886 0.08725461 0.23317546 -0.20819952 -0.058003552
-0.26858 -0.043177065 0.16310218 0.262175 -0.15781674 -0.019923827 0.071892105 0.12264148
-0.0657035 -0.19386347 0.21406806 0.10554038 0.16893081 0.15190876 -0.16995822 -0.24071796
0.16811782 0.037925955 0.030776605 -0.15566386 -0.04868054 0.057690028 -0.007871241 0.05213608
-0.011311409 0.08196709 0.032806188 -0.08675583 -0.047883064 0.0069781044 0.064124845 0.013754835
-0.20224284 -0.14948502 0.09333375 0.34917703 -0.08391761 0.122327425 -9.2918715e-05 0.24995922
0.07553609 0.16546531 -0.16433208 -0.082078226 0.25837278 -0.053413816 -0.11373434 -0.28024787
0.12789382 -0.042086832 0.01296727 0.02591799 -0.041372076 0.0039764564 -0.09886826 0.13828272
-0.14955401 -0.11435696 0.09104267 0.2373772 0.042416237 -0.06358641 -0.10420865 -0.093979925
0.111264 -0.06456839 -0.06882534 -0.09605886 -0.030132934 -0.13641463 0.061600134 0.012143558
0.10456477 -0.15250023 0.13143298 -0.13245156 0.07131308 0.03240249 -0.100294925 -0.113619395
0.061246943 -0.13671196 0.11727384 -0.0939328 -0.18687257 -0.11575718 0.21852495 0.25338346
-0.15556034 -0.12343702 0.051932015 0.11839432 0.01781297 0.026899142 0.02292906 0.025397593

cnn_cells.downsample_blocks.0.1.bias f4 [32]
00000000: a0ff 5f3c 35c3 80bc 8e64 a4bb 32f1 40bd
00000010: 68b8 c93d d26a 9ebc e030 8bbc ebf7 b8bd
00000020: 2f7c 1dbd 9987 bdbc 8f64 62bb 938a 143d
00000030: a90a 863d d000 b0bc b741 abbd 1e76 723d
00000040: b2ff debc 97c6 793d 0ecc f7bc b205 ccbd
00000050: c842 5b3b ac23 a3bc 18fb 94bd 7bdb edbc
00000060: c444 ef3c b8a1 cdbc e2bb 9dbc 7aba ab3d
00000070: 6b61 0dbd 6550 fcbc b831 afbd 8351 9ebc
0.013671786 -0.015718082 -0.00501687 -0.04710502 0.09849626 -0.019338045 -0.016991079 -0.090316616
-0.03844851 -0.023135947 -0.00345448 0.036264967 0.06545002 -0.021484762 -0.083621435 0.059194677
-0.027221534 0.060980406 -0.030248668 -0.09962024 0.0033456553 -0.01991447 -0.07274455 -0.02903532
0.029207595 -0.025101528 -0.019254629 0.08385177 -0.034516733 -0.030800054 -0.08554405 -0.019325977

cnn_cells.downsample_blocks.1.0.weight f4 [32]
00000000: 1f22 1b3f 822b 1c3f 3be5 1b3f 65aa 223f
00000010: 525c 2c3f 49c2 1d3f 7ab0 293f 8e9a 1e3f
00000020: 1292 193f 4841 1a3f 2339 1e3f 4c62 2b3f
00000030: 4ea9 1d3f 5e36 213f a140 2e3f 08c3 2a3f
00000040: 5ed7 253f 185b 0d3f ce4c 153f ba32 293f
00000050: 3590 363f 658c 373f 0f9c 233f 4c8d 193f
00000060: ef34 1c3f b21d 1b3f f6a6 2e3f b541 273f
00000070: 41c4 173f 1822 273f a688 1b3f fa83 2b3f
0.6059894 0.6100389 0.6089665 0.6354125 0.6732837 0.6162458 0.66284907 0.6195458
0.5998851 0.6025586 0.61805934 0.66946864 0.61586463 0.6297358 0.68067366 0.66703844
0.6478175 0.55217123 0.5832032 0.6609303 0.7131379 0.716986 0.6391 0.59981227
0.6101827 0.60592186 0.6822351 0.65334636 0.59283835 0.652864 0.60755384 0.66998255

cnn_cells.downsample_blocks.1.0.bias f4 [32]
00000000: 2e47 423b 5e0b dabb 62aa 343c e8d1 23bd
00000010: ef2b 18bd 0ff5 8bbc 8498 c2bc 36bb e7bb
00000020: 1806 97ba 2128 50bc d4c0 4bbc aeef fdbc
00000030: ce41 c3bc b65d 283c 4ff2 32bd f0d2 aebc
00000040: 7eeb a1bc 41f5 97bc d18c cebc 2d9e 833a
00000050: cdd4 503c 5238 08bc 5b1d a5b9 ee5c 38bd
00000060: 1fdf 17bd 7710 b4bb d914 d4bc 1c2a 62bc
00000070: c596 80bc e4ba a1bd 9994 45bc a118 9e3b
0.0029644477 -0.006654187 0.011026951 -0.039995104 -0.037151273 -0.017084626 -0.023754366 -0.007071878
-0.0011522202 -0.01270488 -0.0124361105 -0.030998077 -0.023835089 0.010276249 -0.043688115 -0.021340817
-0.019765612 -0.018549563 -0.02521363 0.0010041647 0.012746048 -0.008314209 -0.00031493124 -0.0450105
-0.03707802 -0.005495127 -0.025888847 -0.013803985 -0.015696893 -0.07896975 -0.012059354 0.0048247133

cnn_cells.downsample_blocks.1.1.weight f4 [32, 32, 2, 2]
00000000: 6f50 01be 37f0 41bd 7020 66bb d344 8e3d
00000010: f5c8 e63c c8ac d43d 610c 0bbe f9c1 fdbc
00000020: 2dc2 153e 0136 dc3d 3ff1 aebd 5392 61bd
00000030: d3d7 ef3c 71ef b63d 07f3 11bd 43b1 0cbd
00000040: f3d0 4fbd accb ff3b e842 8a3d 9090 51bd
00000050: c0da 1a3e 513e 123d af3b b2bc b6f9 0a3d
00000060: b4e6 013e 6fb0 a73d 73b7 88bd bd9a 13bd
00000070: ee86 52bd 9497 35be 242e cdbd 6ecc 0fbd
00000080: db67 b3bd cdde b5bd 94e1 59bd 224b 293c
00000090: 1c71 85bd 28e7 16bd 8596 5e3d 9f47 12be
000000a0: b317 973c a0f4 b9bd 9fc5 a1bc 0234 fa3d
000000b0: cf80 cf3d b909 8c3d baac 9d3c e07a bbbb
000000c0: c3dd 85bd 7077 563d 74b4 cc3d b35b f8bd
000000d0: 95cf 203d d650 8dbd 99a8 ec3c 83ea c43d
000000e0: ce2e f03d bc69 533e 962b 8ebc 53f8 d5bc
000000f0: 13c4 08be 0126 06be 7212 b6bd ee62 31bd
00000100: 221d 2f3d 632e dfbc 4ac4 1b3d 732d 0bbc
00000110: 2716 7d3c e595 41be d146 ee3d 6f7c 9dbd
00000120: f15b 52bc 8b2d 04be a9b1 93bd da0b d53d
00000130: e78a 41bd 2570 b9bc bba8 f93c 406f bdbd
00000140: c592 8d3d 6421 47bd ba3d 353c 30b9 45bd
00000150: 7aa9 2a3a 61a1 223d 914a c63d 8423 99bb
00000160: e747 8dbd 3a1c 8f3d 7f74 be3c 5d69 c73d
00000170: 95b6 07be 0db9 03be fc05 3abd 1085 85bd
00000180: 7210 1cbc d67a a2bd e002 923d 8f13 acbd
00000190: d588 323e 1b3b d13d 0500 f1ba fa29 00bd
000001a0: ebaa 7fbd 3ca6 2abd 9ed2 873d f14b c23c
000001b0: df5f 00bc f199 a83c a4c2 d43d 1312 6fbd
000001c0: 2a6d 05be 3dce e4bd 43b1 263d 075f 4abb
000001d0: bb3f 0fbe e5ef 94bc 552c a8bc 5491 2bbe
000001e0: 41ad 893d 7c49 793c b7a3 1a3e 9378 24bd
000001f0: baec 17bd ae0b ac3b 5842 733d f4ac 23bd
00000200: 3df6 eabc 3683 d3bc b434 e0bd 6d18 cdbc
00000210: f071 053e 1654 4dbb f3d5 fa3b b507 17be
00000220: 2e68 0e3e 4113 8dbd d9f1 283e bcf9 dfbd
00000230: a8d4 9fbc 7c9b 0cbe 9c1b e23d c35b cc3d
00000240: 94d2 083e 290f 033e c73b df3d 8e4b 4f3d
00000250: d780 2b3d 2497 8b3d 2d4a 6e3d bbf8 f4bb
00000260: 102a 01be 838d 2c3d edb8 db3d 8ba6 383d
00000270: 8fbf edbd 66db a8bd 378f f4bc 4900 2c3d
00000280: 9a3a 40be 8a02 a2bc 4d44 533d 2832 213e
00000290: f520 833d e3fa 45bd 7652 a8ba be0e b23d
000002a0: 8971 30bd 5895 f4bb d4b1 acbd 4f1d babd
000002b0: f1cd 033e 3758 623c cfdd 1b3d 9d65 a1bd
000002c0: 61c6 1abe 1642 083d 9ee8 bbbc 4a4e e5bc
000002d0: 98d6 51bd 2a0d f7bd 176e 713c 80d9 86bc
000002e0: 158f f13c 4c32 87bb e286 bc3c ce90 1bbd
000002f0: 03df b0bd 63eb 41bc 0a4f 42be 34ae 3b3d
00000300: aee6 cd3d 95cd 23be a16f afbd 02fc 4cbe
00000310: b611 30bd 3377 34be d1f6 aa3c 7e1d c9bc
00000320: 4b48 073e e634 353d 59d8 c33d 4c31 f1bd
00000330: 665d 06bd 0b0a 313d 2371 52ba 4861 573d
00000340: 1142 b43c c2a1 c9bd ae36 a3bd 8102 f7bd
00000350: 4941 2abe 6061 f1bc 4255 273d 0d17 083e
00000360: af9a c7bd 1d43 9b3d f310 033e 54d7 d4bc
00000370: 38d1 6e3d 43c6 c63d 61b3 09be 3acc fa3c
00000380: b106 0cbc c08b 0fbd c877 633c 6319 44bd
00000390: ce4c d4bd 68e4 063d 7803 6d3d cacf 573d
000003a0: 5fa1 9e3d 93e9 003b ddf5 cf3d 888a 26be
000003b0: a50c afbd 2af8 c03d d756 293c 453d 3c3d
000003c0: 0f9d 403d 4780 8f39 18b0 483b f8e0 e6bd
000003d0: c4a0 743d 209d 4a3d 2f49 8bbd 0765 433e
000003e0: b50c cdbd 9722 5cbb 5efe bdbd 1548 763c
000003f0: be91 8f3d 8b1e 17bd d796 2bbe 8628 c5bb
-0.12628339 -0.047348227 -0.003511455 0.06946721 0.028171996 0.10384518 -0.13578941 -0.030976282
0.14624853 0.10752488 -0.08542108 -0.055071186 0.029277718 0.089323886 -0.03563216 -0.034348737
-0.05073638 0.007806262 0.067510426 -0.051163256 0.15122509 0.03570396 -0.021756975 0.03392955
0.12685663 0.08187949 -0.06675615 -0.03603624 -0.05139821 -0.17733604 -0.10018566 -0.03510707
-0.08760043 -0.088803865 -0.053193644 0.010332854 -0.065157145 -0.03684154 0.054342765 -0.14285134
0.018443918 -0.09079862 -0.019747553 0.12216951 0.1013199 0.06837792 0.019247402 -0.005721435
-0.06536438 0.05236 0.09995356 -0.12126865 0.039260466 -0.06900184 0.028888987 0.09615042
0.11727677 0.20645803 -0.017354768 -0.026119387 -0.13356046 -0.13100435 -0.08890237 -0.043307237
0.042752393 -0.027243799 0.038028993 -0.008494723 0.015447176 -0.18904836 0.11634601 -0.076897494
-0.012839303 -0.12907998 -0.0721162 0.10402651 -0.04725161 -0.022636482 0.030475965 -0.09249735
0.0691276 -0.04861583 0.01106208 -0.04827231 0.00065102393 0.039704684 0.09682191 -0.0046734232
-0.0689848 0.06987806 0.023248909 0.09736893 -0.13253243 -0.1286356 -0.045415863 -0.0651952
-0.009525405 -0.07933585 0.071294546 -0.08402168 0.1743501 0.102163516 -0.0018386847 -0.031290032
-0.06241886 -0.04166244 0.06631969 0.023717852 -0.007835357 0.020581217 0.10388687 -0.058366846
-0.13029924 -0.11172149 0.040696394 -0.0030879395 -0.13989155 -0.018180797 -0.020528952 -0.16754657
0.06722499 0.015215274 0.15101515 -0.04015405 -0.037090994 0.0052504158 0.059389442 -0.039959863
-0.028681869 -0.025819402 -0.10947552 -0.025036061 0.13031745 -0.0031330637 0.0076548993 -0.14749034
0.13906929 -0.06888438 0.16498508 -0.10936305 -0.019510582 -0.13731188 0.11040422 0.0997844
0.13361579 0.12798752 0.109000735 0.050609164 0.041870918 0.06815937 0.05817621 -0.00747594
-0.12613702 0.042127144 0.10728631 0.045080703 -0.116088025 -0.08244972 -0.029853446 0.04199246
-0.18772355 -0.019776601 0.05157881 0.1574179 0.064027704 -0.048334967 -0.0012841958 0.08694218
-0.043077026 -0.007464092 -0.084323555 -0.090876214 0.12871529 0.013814977 0.03805333 -0.07880709
-0.15114738 0.03326615 -0.022938069 -0.027991433 -0.051230043 -0.12063058 0.01473572 -0.016461134
0.029487172 -0.004125869 0.023013536 -0.037979893 -0.08636286 -0.011835906 -0.18975464 0.04582043
0.10053764 -0.15996392 -0.085662134 -0.20018008 -0.04298564 -0.17623596 0.020869644 -0.024550196
0.13211171 0.0442399 0.095627494 -0.11776981 -0.032803915 0.04322247 -0.0008027723 0.05258301
0.02200416 -0.09845306 -0.07969414 -0.120610245 -0.16626467 -0.029465377 0.040852793 0.13290043
-0.097463004 0.0758116 0.12799434 -0.025981583 0.058304995 0.09705784 -0.13447334 0.030614961
-0.008546517 -0.035045385 0.013883539 -0.047875773 -0.10366212 0.03293267 0.057864636 0.052688397
0.07745623 0.001967047 0.101543166 -0.16263783 -0.08547334 0.094223335 0.010335646 0.04595687
0.047024783 0.0002737066 0.0030622538 -0.11273378 0.05972363 0.049466252 -0.06801068 0.19081508
-0.10012189 -0.0033589953 -0.09277032 0.015031834 0.0701022 -0.036894362 -0.1675676 -0.0060167937

cnn_cells.downsample_blocks.1.1.bias f4 [32]
00000000: 0c0c f33c f77e 11bd 39fd 04be 5318 9abd
00000010: 6ad1 58bd 3418 14bc e202 32bc 270e a8bd
00000020: a5bb 99bc 6b79 9f3d 21d8 ca3c 61d0 043c
00000030: 2049 d73d 3926 f53d fc8c 5a3d 1ddd 2abe
00000040: eeac 9bbd 3329 e939 6ada c4bc 92b8 853e
00000050: 593c 353d 8c94 1cbd 8fa2 95bd 8a83 0bbd
00000060: d28f efbc b1a9 ea3d 8dd6 38bd e806 7cbc
00000070: e3bd f1bd f638 843c 4757 05bd 7fd7 783d
0.02966883 -0.035521474 -0.12987222 -0.07524171 -0.052934088 -0.009038974 -0.010864945 -0.08205824
-0.018766234 0.077868305 0.024761261 0.008106322 0.10511994 0.11970181 0.05335711 -0.1668591
-0.07601343 0.0004447192 -0.02402993 0.26117378 0.044247005 -0.038227603 -0.07306396 -0.034060992
-0.029243384 0.11458147 -0.045126487 -0.015382506 -0.11803796 0.016140442 -0.032553937 0.060752388

cnn_cells.stages.0.0.depth_conv.weight f4 [32, 1, 5, 5]
00000000: bef5 313e ee42 8b3d 96dc e23d d76e f23d
00000010: 877c e03d 8307 ac3d 9cfb 643d 76d0 b53d
00000020: 5a80 98bb 60b6 c73c aeba c73b b3c4 d9bd
00000030: b6bc 97bd 13b9 d0bd 14e3 48bd 08a3 c8bc
00000040: fc1b 95bd 6ecb c0bd dfb3 38bd da84 21bd
00000050: 1554 54bd 72e8 c9bd a3ed a53c e954 123d
00000060: 5141 253d 8d4b 413d 2d04 253d f2a6 8e3c
00000070: 4637 823c e69b 913d 6ef8 1f3e 7227 b2bd
00000080: 0fdb a5bd 650b eb3c f45a 0ebd c632 973d
00000090: 64de a4bd 4043 5cbe 61bf 02be daa4 153d
000000a0: f8f1 bc3d b5be 0a3d 7d2d d4bd 0fb5 fbbc
000000b0: 490b bb3c 238c 503d 9afa d3bc 364d 5a3d
000000c0: 8c44 113d c67d 4a3d 67d6 c3bc 47c4 5b3d
000000d0: 55ca 50bc db53 7dbd a72c d53b fdeb a63d
000000e0: 2913 0a3d 202d 03bd 3e83 f5bd 3d10 3e3c
000000f0: 5729 e8bc 2bbd a4bd b360 abbd e8ad d5bd
00000100: b65a 13bc c944 e7bd 845b 6a3a f22f f33d
00000110: b5d2 58bd 970d 1f3c 53c4 f2bb ec65 0f3d
00000120: 2f23 2a3e 3ffa 203d a8d6 5b3b 0580 663d
00000130: da89 1b3d bd5a 9a3c fb57 36bd 10f6 84b9
00000140: 046d 083b 2ea3 2e3d db1f fabc 5b66 bcbd
00000150: 7611 f83c a267 8f3a cec6 fb3c 1b15 bebc
00000160: a3ce e2bc f383 26bc cd73 48bd 4bf2 b73b
00000170: 2f69 323d 108f c73c 102b eebc 1830 083c
00000180: b28d 20bc e032 1c3d 186f 6dbd 0ca9 833d
00000190: 2f60 cbbc 6b15 203c 7f2f af3c 727c b93c
000001a0: c513 a1bd e820 9f3d 55ee b43c a8ba 08bd
000001b0: 182a 2bbd 1fca dcbd f033 213e 4472 853d
000001c0: 9da9 c9bd aac8 16be 78e2 63be 2b96 b03d
000001d0: a751 623d b022 79bb 6e58 a7bd db85 2fbe
000001e0: 7bf9 883d b4b2 ad3c 2a8d ee3b 9524 9d3d
000001f0: d23f a3bc 1551 8dbd 567f cb3c a3d5 48bd
00000200: 64f0 743d f798 efbd 4ee9 c6bd 77a2 d63b
00000210: 7a5f 96bc 037c ee3d 65ba 7a3d ca0a 91bd
00000220: 888f 9f3d bf02 413d 962d 0d3e 4d54 183c
00000230: 30c4 b93c 2d66 ca3d 36a7 74bd f448 4a3d
00000240: e39a 53bd b9f9 08be a65c bf3c bb43 01be
00000250: 099a 533c 40bb 5d39 0946 843d 7d36 113d
00000260: 6d09 1d3d bcd7 f03c d256 a23d 7164 a43d
00000270: 3f1e d6bd ae99 9fbc 839d 88bd 947d 693d
00000280: d622 a6bd 875d 61be d8ad 2ebe 728b 6bbd
00000290: 11fd 5a3d 9dde aa3b 55f3 d0bd 08c7 f2bd
000002a0: 94ef 97bc 6fdc e03d 7164 823c 8514 233d
000002b0: 7ebf be3d 943d b23d dc1d 1a3e f7d0 8fbd
000002c0: 70a0 74bd d0de 1cbd ba4e 4e3d 3cd0 c03c
000002d0: c46b 5abd 16d8 abbc b6dd f13c a1bf d43c
000002e0: cdf9 ef3d 6bf5 8b3c 3a67 0ebd 7dec 7abc
000002f0: e4c2 b63d 02a9 1f3e 463d 53bd 8617 743d
00000300: 7871 d8bd fbca 2ebd 4d76 d13d 0d12 10be
00000310: 36f9 47bc f293 a3bd 80c0 7ebc 9efa b93d
00000320: 393a 9f3c 8dcb a1bc 2852 033d a8db 48bd
00000330: af87 643d a98a c0bc 5ab9 0abd 5347 a8bd
00000340: f80d 85bd 3b80 1b3e 33fa c3bd b1db 24be
00000350: 6911 27be 184d fabd 9141 dd3d 07a9 b8bd
00000360: d0d5 cabd 1052 44bc 669c d43b 3281 533d
00000370: c878 d73d 5214 213d 5a96 183e b02f bc3d
00000380: c75a 0e3c 265a c1bc baf1 e03d 00e2 1d3e
00000390: 9cbe 0d3c 9419 d43b 049d 43be 2ca4 3ebc
000003a0: bf5c bc3d 94f8 4a3c 0264 8ebc d127 04be
000003b0: 61ea dd3c b375 033e c513 013e 0664 a83d
000003c0: 01e4 cb3b 01f3 acbd 0039 92bd 5951 aeb9
000003d0: 2005 ad3d 09b6 1fbd 365d 0dbe 0e1c 43be
000003e0: b32c 9dbd 8fd3 ecbc e602 b1bc 18cd 4d3d
000003f0: 7099 e83d 449f 613d 08ac 113d 1df5 f83d
0.173789 0.06799875 0.1107723 0.11837547 0.10961252 0.0839987 0.055904016 0.088776514
-0.0046539726 0.024378955 0.006095252 -0.106332205 -0.07409041 -0.1019155 -0.049044684 -0.024491802
-0.07280728 -0.09413801 -0.045093413 -0.039433338 -0.051838 -0.098587885 0.020254916 0.035725508
0.040345494 0.04719119 0.040287185 0.01741359 0.015895497 0.071098134 0.15622112 -0.0869893
-0.08098423 0.028691957 -0.03475471 0.07382731 -0.0805023 -0.21510029 -0.12768318 0.036534168
0.092258394 0.03387328 -0.10360239 -0.030725984 0.02283253 0.050914895 -0.025876332 0.05329629
0.035465762 0.049436353 -0.023905946 0.05365398 -0.012743552 -0.06184755 0.006505567 0.0815048
0.03370968 -0.032025456 -0.11987923 0.011600551 -0.028340025 -0.080438934 -0.08368053 -0.104335606
-0.008993795 -0.112924166 0.00089400285 0.11874379 -0.05293532 0.00970783 -0.0074086576 0.03500931
0.16614984 0.039301153 0.0033544693 0.056274433 0.037973262 0.018842096 -0.0445175 -0.00025360333
0.0020816932 0.04263609 -0.030532768 -0.0919921 0.030281764 0.0010940919 0.030734446 -0.023203423
-0.027686423 -0.010163295 -0.04893856 0.0056136004 0.043557342 0.02436021 -0.029073268 0.008312248
-0.009799408 0.038134456 -0.057967275 0.064287275 -0.024826137 0.009770731 0.021384953 0.022642348
-0.07865099 0.07769948 0.022086302 -0.033381134 -0.04178819 -0.10780739 0.15742469 0.06515935
-0.09846804 -0.14724985 -0.2225436 0.08622392 0.05525365 -0.003801506 -0.081711635 -0.17140906
0.066882096 0.021203376 0.0072800117 0.07672993 -0.019927893 -0.06900231 0.024840992 -0.049031865
0.059799567 -0.116990976 -0.09712468 0.006550129 -0.018356074 0.11644747 0.061212916 -0.07082136
0.07791048 0.04712176 0.13786921 0.009297443 0.022676557 0.0988277 -0.059729777 0.04938598
-0.051661383 -0.13376512 0.023359608 -0.12623493 0.012915143 0.00021145958 0.06458671 0.035452355
0.038339067 0.029399745 0.07926716 0.0802697 -0.10454988 -0.01948246 -0.06670668 0.057004526
-0.08112113 -0.22008334 -0.17058504 -0.057506032 0.053464 0.005214526 -0.10202662 -0.118543684
-0.018546857 0.10979544 0.015917035 0.03981449 0.09313868 0.08703151 0.15050453 -0.07022279
-0.059723318 -0.038298428 0.05036805 0.023536794 -0.05332543 -0.020977061 0.029524665 0.025970282
0.117175676 0.017084798 -0.034766413 -0.015315172 0.08923891 0.15591815 -0.051572107 0.059592746
-0.105685174 -0.042674046 0.10227642 -0.14069386 -0.012205413 -0.07987203 -0.015548825 0.090810046
0.019436942 -0.01975038 0.032060772 -0.049037606 0.05579346 -0.023503618 -0.03386817 -0.08216729
-0.06496805 0.15185635 -0.09569206 -0.1609943 -0.16315235 -0.12221736 0.108035214 -0.090166144
-0.09904063 -0.011982456 0.0064883707 0.051636882 0.10521084 0.03932602 0.14901105 0.09188783
0.008688635 -0.023602556 0.10983606 0.15418243 0.008651402 0.0064727757 -0.19102865 -0.011635821
0.091973774 0.012388367 -0.017381672 -0.12905814 0.0270893 0.12837867 0.12605198 0.08222203
0.0062222485 -0.08444787 -0.07139778 -0.00033248475 0.08448243 -0.03899196 -0.13805088 -0.19053671
-0.07674541 -0.028909473 -0.021607827 0.05024442 0.11357391 0.05508353 0.035564452 0.12156127

cnn_cells.stages.0.0.depth_conv.bias f4 [32]
00000000: 98d5 ddbb b645 bfbb 3113 0b3d 61b0 a8bb
00000010: c1f4 8dbc 1fa4 c4ba 3a8a 36bc 6ebe 3c3d
00000020: 92ca 2fbc 6346 643c 264c 49bb e446 27bc
00000030: b9ca ba3c f5cf 9ebb fc06 0c3c 4e16 083d
00000040: 9dfa 8d3c 44a2 1f3c 6954 853c 357b 4cbc
00000050: 4c4a 043c dbab 253d e605 0ebb 0214 5e3c
00000060: 7311 97bb a6ad a3bd 62f8 1abd 3265 86bc
00000070: 2f0f 9bb8 73c0 1039 9d4b f2bb 0c04 8f3c
-0.006769847 -0.0058371676 0.03395385 -0.005147979 -0.017328622 -0.0015002525 -0.011141354 0.046080045
-0.010729449 0.013932797 -0.0030715554 -0.010209773 0.022801744 -0.0048465678 0.008546587 0.033224396
0.017331416 0.009743277 0.016275601 -0.012480547 0.008074354 0.040447097 -0.0021670996 0.013554575
-0.0046102344 -0.07992105 -0.037834533 -0.016405676 -7.393804e-05 0.00013804603 -0.0073942677 0.017457984

cnn_cells.stages.0.0.norm.weight f4 [32]
00000000: 1fe6 2b3f 8173 3c3f f2ec 363f 4a8d ff3e
00000010: d6e3 553f 25f0 203f 567d 743f a1ba 353f
00000020: 7835 453f ca95 583f ffb8 5b3f dc8c d33e
00000030: a106 353f c9b2 443f 85d5 503f 0179 793f
00000040: f983 3f3f 9a08 3a3f 6f7f 203f b96d 243f
00000050: 0be8 283f edc9 483f a8de 093f aa06 4c3f
00000060: 0e0b 383f e7da 5e3f 69bc 4c3f edad 5a3f
00000070: f736 773f 11da 523f d4d4 4e3f d96e 143f
0.6714801 0.73613745 0.714553 0.49912483 0.83550775 0.6286643 0.9550375 0.709879
0.7703471 0.8460356 0.85829157 0.41318405 0.7071324 0.76835304 0.81575805 0.9745026
0.7481075 0.72669375 0.6269445 0.64229923 0.6597907 0.78433114 0.5385537 0.7969767
0.7189187 0.8705277 0.7997499 0.8542164 0.96568245 0.8236399 0.807935 0.5798164

cnn_cells.stages.0.0.norm.bias f4 [32]
00000000: c998 1dbd 42ba e13c 148c 92bd dd55 ca3d
00000010: 4d24 693d 897e c43c 72c9 0e3d d03f b1bd
00000020: f42c 583c ab57 51bd a5dc e1bb 9354 8e3d
00000030: 346b 39be 1573 083d b66c 8dbc 7a68 ccbc
00000040: 639b aebc dae0 a93c 87c9 34be ba22 fb3d
00000050: b9c0 b23c ce85 d0bd 8858 023d 0be9 bebd
00000060: 770c d63c 29b1 cc3d c7a5 623d 3347 833d
00000070: 69a8 afbc b2f5 eabb 761e 763c 74df 10be
-0.038475785 0.027554635 -0.07155624 0.09879658 0.056919385 0.023986118 0.034860082 -0.086547494
0.013194311 -0.051108997 -0.006892758 0.06949725 -0.18107301 0.033312876 -0.017263751 -0.024952162
-0.021314329 0.0207371 -0.17655002 0.12262483 0.021820413 -0.10181771 0.03182271 -0.09321793
0.02612899 0.09994728 0.05533388 0.064100645 -0.021442609 -0.0071704024 0.015021911 -0.1414774

cnn_cells.stages.0.0.conv1.weight f4 [128, 32, 1, 1]
00000000: ad42 f7bd 182a 8e3d 15c5 93bc 2976 14bd
00000010: 7e77 49be 3e09 a7bd 6749 213e b528 863d
00000020: 96d8 13be 2832 25bd e95e f7bd a9c1 7dbd
00000030: dbf7 843d 681f d73d e9ed 3dbe f131 7a3e
00000040: 3541 b83d 7e99 ce3d dfda da3d 946e 8e3d
00000050: 3e6e a23c 3409 22be c05c 77bc 2a70 d4bd
00000060: 7b7b 50bd af1a 57be 6d52 a0bc c0ad 40bd
00000070: e308 f73d 86c3 173e 4de8 21bd ac7f 1d3e
00000080: 764a 01be 7193 6b3d 088e 8a3d fe5d 153e
00000090: f215 4d3e 4912 633d c0aa e5bc ab56 ba3d
000000a0: a9dd 41be c4cb 24be f452 4c3d b06c 91bc
000000b0: 961a 24be daf1 1fbd a9f9 853d 82d1 9fbd
000000c0: ab94 a63d 2d02 8cbd d4b8 94bd 354d 3cbd
000000d0: 66e2 953d 9e7f 5b3e 2181 b6bd 2714 83be
000000e0: 71e3 19bc 1d45 2fbd f703 503d 7415 abbd
000000f0: 10f5 f3bd bfb5 ba3d fb41 36bc 5efd 503d
00000100: 5a95 0cbe df8f 96bd 6287 963d d3e5 eabc
00000110: 1d76 c8bd 9f45 943e cc5a 14bd 369f 22be
00000120: dc04 4b3e 9fa1 563e e3a8 86be 2bcc 0e3e
00000130: a4d4 57bd 240e 903a bd6a e5bd 6cc0 cbbe
00000140: 8c51 30be 8c45 afbc 7e15 abbd 9d03 1f3d
00000150: 6235 393c bbb5 42be 2b66 7d3c 6ffc 543d
00000160: eabb 073c cd8a 863e 04d4 593e 44f3 733d
00000170: 362f d1bc a738 683d faed 993d 7a0e 2dbe
00000180: 4e1d de3d fe73 23bd e7d2 2bbd 4d40 ae3d
00000190: 1096 18be 0a35 b3bb e4c9 c9bd 08dd c4bc
000001a0: f50e 3c3c c9fe 48be 4525 233e d579 44bd
000001b0: 4af2 4e3e 5a0f b8bc 49ab 3dbd 117a b63e
000001c0: b6f4 48be fc49 9bbc 51a5 5ebd a69a d7bd
000001d0: 9651 2f3e 83fb dc3c 3a5c 183e 586c 1bbd
000001e0: 5436 b2bd 1355 15be a24b d13d 4928 f2bd
000001f0: 2a8a 763d fd56 d43d 4eb9 2abe 34a1 eb3d
00000200: 56e4 7d3d 764a 2ebd ddf2 1a3e 2c00 84bd
00000210: 8b1b 99bd a853 e9bc 2585 c8bd c79c 8cbd
00000220: 68ee b53d edbc b7bc b379 cdbd 1dda bb3b
00000230: 28e8 a43d 12cc 0fbe 8744 c13d 0788 a6be
00000240: 7893 42be feb9 92bc 84b9 143e 455f aeba
00000250: f135 bebc 64ff 87bd 6513 203d c818 2c3e
00000260: e222 02be 9103 103e f0c1 ca3d b171 713c
00000270: e3bb e13c b5ff 8abd 31a3 3fbe bcbe 8abd
00000280: beb7 89bd a882 6c3e 70ae 15bd feee ff3d
00000290: b8a1 a43e f08b 71bc e0a3 0b3e 55ce d1bd
000002a0: 29a8 31bd a53f 0abe 1103 e33c 2f2e 053e
000002b0: 632d a9bd 1e9f a83e 27e7 6f3d 5d7a 0a3c
000002c0: b6f6 263e eee1 553d 3692 443c 27a7 883e
000002d0: 5278 643e ffc4 81be 0968 9c3d db99 43be
000002e0: 683d ec3c 2a53 c03d 8334 023e a328 70bd
000002f0: 10e1 79be 2958 69bd ba85 213e 3bae ad3d
00000300: ca43 9cbd 0de1 07bd 0713 d8bd a5ba c03d
00000310: 1112 543d 8c39 ac3d a336 c03e 6b59 3ebe
00000320: 6beb 4dbe ddde 57bd 02e3 83bd 5a41 7e3d
00000330: 093b acbd b0f1 de3d 231d 3dbd 285c c33d
00000340: 3819 033e e8d4 38bc 8b0e 99bb f283 163e
00000350: b068 4b3e 389c 80be 5c5e c6bd 3245 10be
00000360: 4ad8 3b3e 8695 523e fcdb 153d bc78 05bd
00000370: 55e2 713d 17f3 56be c549 e83d 4bd2 49bd
00000380: 3e51 d03c cccb d1bd ffb5 efbb 60b8 fbbc
00000390: 989e 3abb 9269 523d 6ae1 813d cd62 093e
000003a0: 8d2e 21bd 46cf 20be 9acb b93d 76fa 9cbd
000003b0: 1a9e 473d 68fd 90bd 9051 3e3e ebb5 91bb
000003c0: ad63 163b 5d39 fc3c 1446 393d c679 b43c
000003d0: 79e2 e7b9 cb16 b13d 42e3 2a3d 3f56 92bd
000003e0: 141c 653c 508c c4bc 16aa 27bd 50cd e7bd
000003f0: 791b 713d b6fc 2a3d f525 5ebd 4e46 a03b
-0.12073264 0.069416225 -0.018038312 -0.0362455 -0.19674489 -0.0815606 0.15750657 0.06550733
-0.1443809 -0.040331036 -0.120786496 -0.061952267 0.06492587 0.10504037 -0.18547787 0.24433114
0.08996812 0.1008787 0.106862776 0.06954685 0.019827958 -0.15823823 -0.015097797 -0.10372956
-0.05089901 -0.21006273 -0.019570554 -0.0470407 0.12062242 0.1482068 -0.03952818 0.15380734
-0.12626061 0.057513658 0.067653716 0.14586636 0.20027903 0.05543736 -0.028035522 0.09098562
-0.18932213 -0.16093355 0.049883798 -0.017752022 -0.16025767 -0.039049007 0.065417595 -0.07803632
0.08133825 -0.068363525 -0.07261816 -0.045972068 0.07318573 0.21435401 -0.08911348 -0.25601313
-0.009392605 -0.04279052 0.05078503 -0.08353701 -0.11911976 0.091166966 -0.011124129 0.05102288
-0.13728848 -0.0735166 0.07350041 -0.028674042 -0.09788153 0.28959367 -0.036219403 -0.15881047
0.19826072 0.20960091 -0.26300725 0.13945071 -0.052693024 0.0010990542 -0.11201999 -0.39795244
-0.17218608 -0.021395467 -0.08353709 0.038821805 0.011304231 -0.19014637 0.015466253 0.051998552
0.008284548 0.26277772 0.21272284 0.059558168 -0.025535207 0.056694653 0.075160936 -0.16900054
0.10845433 -0.03990554 -0.04194918 0.08508358 -0.14900994 -0.0054689692 -0.09852961 -0.024031177
0.011478175 -0.19628443 0.15932186 -0.04796775 0.20209613 -0.022468258 -0.04630593 0.35640004
-0.196246 -0.018956177 -0.054356877 -0.10527544 0.17120966 0.026975399 0.14878932 -0.03794512
-0.087017685 -0.14583234 0.10219504 -0.1182409 0.060190357 0.10368154 -0.1667225 0.115053564
0.061985336 -0.04255148 0.15131707 -0.06445345 -0.074759565 -0.028482273 -0.0979102 -0.068658404
0.08883363 -0.022428954 -0.10032978 0.0057327882 0.08052093 -0.1404269 0.09436899 -0.32525656
-0.19001567 -0.017910954 0.14523894 -0.0013303539 -0.02321908 -0.06640509 0.039080996 0.16806328
-0.12708619 0.1406386 0.09900272 0.014736579 0.027555412 -0.067870535 -0.18714596 -0.06774661
-0.06724499 0.23096716 -0.03654331 0.12496756 0.32154632 -0.014742836 0.13636732 -0.10244433
-0.04337326 -0.13500841 0.027711423 0.13005899 -0.0826061 0.32933897 0.058570053 0.008452025
0.1630505 0.052217416 0.01199775 0.26690027 0.22311524 -0.2534561 0.07637031 -0.1910166
0.028837875 0.09390862 0.12715344 -0.058632504 -0.24402261 -0.05696884 0.15773669 0.084804974
-0.07630117 -0.03317361 -0.10550504 0.094105996 0.051775042 0.08409414 0.37541685 -0.18588798
-0.20109336 -0.052702773 -0.06439783 0.062074043 -0.084096976 0.10885942 -0.046170365 0.09539062
0.12802589 -0.01128123 -0.004670923 0.1469877 0.19864154 -0.25119185 -0.09685966 -0.14088896
0.18344226 0.20564851 0.036586747 -0.032585844 0.059053738 -0.20991169 0.113421954 -0.049272817
0.025429364 -0.10243949 -0.007315397 -0.030727565 -0.0028475877 0.05137021 0.063418224 0.13416596
-0.039351035 -0.15704069 0.09072037 -0.07664959 0.04873476 -0.070795834 0.18585801 -0.004446735
0.0022947595 0.030789072 0.045232847 0.022030722 -0.0004422849 0.086469255 0.041720636 -0.071453564
0.013983745 -0.023992687 -0.04093369 -0.11318457 0.05886409 0.04174491 -0.054235417 0.0048911935

cnn_cells.stages.0.0.conv1.bias f4 [128]
00000000: 646e bcbc 5c58 f5bc 5dad 97bc c981 77bc
00000010: 59b7 36bd d1bd d13c fe51 9cbc a6a5 63bd
00000020: ebae 76bd e610 343d ef6b 22bc 4cdd 033b
00000030: 1b5d 83bb d540 903c 7e74 10bd 9ed9 73bd
00000040: 8ddc a8bc f923 9a3b 6fa7 5b3c 778f 80bd
00000050: 8184 59bc 14d1 7f3b 7314 48bd 9255 12bc
00000060: f3cf 03bd 972d 093d e6a5 2cbc a3b3 fdbc
00000070: 9616 eebb 07da cbbc 2502 bebb 1ad0 003d
00000080: 5cf2 c4bc a722 18bd 6c67 3e3c 44bf aebb
00000090: 271b 173d dcc4 2abc 1041 debb eb21 4bbd
000000a0: fcd8 993c e873 d43b eab2 2fbc 7b2e 0f3d
000000b0: 0aa1 523d 460a bcba 8339 90bd be8d 8ebd
000000c0: 11ba 12bd ef27 46bd 3a4e 5abd 0b41 993c
000000d0: 4c30 893b 5d36 86bd cf11 9fbd 62af 7fbc
000000e0: e9bb 0cbd 58cd 09bd ff77 70bd a5ef 9c3c
000000f0: 83d8 d13c f808 30bd 0021 18bd 26d4 9a3b
00000100: a72d 9ebd e81b b8bc 3fb3 343c bed9 59bd
00000110: 1b93 86bd ad42 98bc 81b9 80bd 0e61 9ebd
00000120: ae07 a23c f832 f13c 8d47 3fbd abcc 18bd
00000130: 2b9d 9b3c a312 98bd 68de 28bd 30c5 74bd
00000140: bfe2 8ebd cfd0 85bc 68dd 3a3b e4bd 85bc
00000150: c3e2 ee3c d88a 90bd 63de b7bc e7ad 8bbc
00000160: 7e71 18bd 6e3c 4e3c a241 9bb9 d6c6 d8bb
00000170: d601 9a3c d674 30bc 7ed4 333c 6af6 86bc
00000180: 22b4 eabb 9b32 abbc 4694 32bd 90ea 9d3a
00000190: b3e8 35bd a120 2abd 7981 4ebd 5299 54bd
000001a0: caac 103d 202e 983c d46c 2ebd 2c25 92bc
000001b0: 5276 e1bc f33c 7abd 488c c4bb 5f00 443a
000001c0: cc12 39bc ed3c f7bb 411c d7bc bc6c 16bd
000001d0: 734e dc3b 8b98 1cbd 9d94 6f3b b8fd a0bc
000001e0: 1f72 063d 8ee8 adbc 06b3 0cbc 675a 4abd
000001f0: ac9f 083d fe33 0a3d 44df 8dbd bb5d c63b
-0.023001857 -0.02994936 -0.018515283 -0.015106627 -0.044608448 0.025603207 -0.019082066 -0.055577897
-0.06022541 0.043961428 -0.009913429 0.0020120917 -0.004008902 0.01760904 -0.035267346 -0.059533708
-0.02061298 0.0047039953 0.0134066185 -0.06277364 -0.01327622 0.0039034532 -0.048847627 -0.008931534
-0.032180738 0.033490743 -0.0105376 -0.030969447 -0.007265876 -0.024884237 -0.0057985955 0.03144846
-0.024041347 -0.037142422 0.011621337 -0.0053328592 0.03689113 -0.0104229115 -0.0067826584 -0.049592894
0.018780224 0.0064835437 -0.010723809 0.034956437 0.05142311 -0.0014346323 -0.070422195 -0.06960629
-0.035821978 -0.048377927 -0.05329726 0.018707773 0.0041866656 -0.06553338 -0.077670686 -0.015605779
-0.034358893 -0.033643097 -0.058708187 0.01915724 0.025615936 -0.042977303 -0.037140846 0.004724997
-0.07723551 -0.022474244 0.011029064 -0.05318617 -0.06571027 -0.018586481 -0.06285382 -0.077333555
0.019779053 0.02944325 -0.046699096 -0.03730456 0.018995842 -0.0742543 -0.041227728 -0.059758365
-0.06976842 -0.01633492 0.0028513316 -0.016325898 0.029160863 -0.07057732 -0.02244491 -0.017050697
-0.03721761 0.01258765 -0.00029612804 -0.0066155 0.018799704 -0.010770043 0.010975955 -0.016474921
-0.007162587 -0.020898154 -0.043598436 0.0012048054 -0.044411372 -0.041535024 -0.050416443 -0.05190403
0.035321034 0.018576682 -0.042584255 -0.01783999 -0.02752224 -0.061093282 -0.005998168 0.0007476862
-0.011295985 -0.0075451047 -0.02625859 -0.03672479 0.006723219 -0.038231414 0.0036557086 -0.019652233
0.032823678 -0.021229055 -0.008587604 -0.04940262 0.0333554 0.03374099 -0.0692735 0.006053654

cnn_cells.stages.0.0.conv2.weight f4 [32, 128, 1, 1]
00000000: fb1c e73d 405b c7bd 769b ca3d d30e df3c
00000010: 3a4d 873d 19a1 483d c183 e1bd cc7d 0abe
00000020: d959 d03d b036 45bd ca74 d03d de89 fa3d
00000030: d477 5e3d f63e 00bc 0c42 13be 9d56 b6bd
00000040: 49eb 293e 1ec5 e33d aadc c73d bc36 c43d
00000050: 427c 783e e257 2fbd 2694 6cbb bffa 97bc
00000060: 5a6a d73b 6d79 ec3c fe9e 06bd a9be f83c
00000070: a0be 023e efff 123e c956 183e 5748 2a3e
00000080: 0e6a 6b3d de56 02bd 26c8 2a3e 8603 f63d
00000090: 4fd2 083e 143e 9cbd f1bf 3fbe c748 623e
000000a0: ecb1 dc3d 60e6 a33d 777d f0bd dcd4 fabb
000000b0: 2eb7 0f3d 8822 193e 0674 ae3d 6144 b53c
000000c0: 9d59 503d e702 303c 780a 313d e448 55bd
000000d0: cc78 a13d 96cb 4cbd dd23 333e 522b f03d
000000e0: c991 4c3b e02f 11be 8e8d e7bd baff 1bbe
000000f0: 35e2 f6bd e894 5ebd e045 1f3e e77c d2bd
00000100: 667b 483d fa21 39be e389 c13d e5f0 2e3d
00000110: 5c18 5fbd b0cf c6bd 3c56 dc3d d011 e3bd
00000120: c72a 12be 7fa2 28bd b7e2 f13c cb81 9a3d
00000130: c644 1d3c 72d1 36bd b923 8b3d b067 16be
00000140: 3ab2 353c f215 f8bd 82b4 1d3e 6fad 5d3d
00000150: 6dd0 69bd e9eb 38bc 8b98 893d 8cf9 c83d
00000160: ae1b 6d3d 6d3d 3d3e 528d ed3b 1cf4 38bd
00000170: 1c38 6d3e 1f76 3e3e 2b9d 873d d399 3a3e
00000180: 2861 893d a450 44be 80ef 013e a1c1 e7bd
00000190: 3ed7 00be 29fe bf3d f861 aa3d d7a0 cc3d
000001a0: 7d8e 023e 6123 edbd 40d6 6c3d 7d62 06bd
000001b0: 307c 0e3e 252e 03bd 144c edbd 2e7d 24be
000001c0: 59ac 603d 9166 eb3d 2908 9a3d f6b4 e5bd
000001d0: 705a e8bc c617 59be 8a57 98bc 7caf e93c
000001e0: 9067 49be 2d4b 0c3e c1bc f53d 4396 893d
000001f0: 1da4 70bd 7c3b 59be 36df 3e3d 5882 36bd
00000200: 3f44 acbd a685 703d 437c 54bd 656c adbd
00000210: b961 3b3e 8bf7 603e dcfd b9bd 6d1b 35be
00000220: 2ad2 3dbe b706 c13d a504 343e d6f0 87bd
00000230: 661b 97bc b705 e1bd 2b6f 58bd f4f9 ad3d
00000240: 5a32 0e3e f2d4 cebc f4df 26be 65c6 4a3e
00000250: a561 9c3d 8321 a4bd 48e7 4abc 46ec 923d
00000260: 3584 e93b 8bbe ad3d 5fd7 723d a3cc 053d
00000270: 1864 9cbd 0da8 33be bcc3 6c3e d919 9f3d
00000280: 4ecc 85bc 447a f1bc f125 143e 315d d13c
00000290: 48c8 0e3e b164 163e fdba 7b3e 18d2 173e
000002a0: d6c7 083e 8788 103e 0135 dd3d 8f2f d53d
000002b0: 9a05 c83d 273c 33bd 5958 e9bb 5f2c 083e
000002c0: 0211 d43d abaf bbbd 698e 68bd f5d1 04be
000002d0: 3baa 4ebe 9d76 d73d f235 ed3d d458 ec3d
000002e0: 6973 cb3d 7eaf aa3d 6937 5d3d d26b b93d
000002f0: 091b 283d 809a 17bb 2d60 a3bd ff6b f43d
00000300: 9141 57be fe1f 6d3e 239f b33d 2bf8 06be
00000310: a032 be3c e4ae f33d ebd4 523e 06ea 0d3c
00000320: 1318 7dbd d4d9 5cbe 570d f03d 04c9 36be
00000330: 6cfc cf3c aadb 4e3d 48c8 813d 3651 393e
00000340: e8c5 83bd eda8 66be 0dda 033e 1559 353e
00000350: d67b 783d af42 a73d 46dc 89bd b086 31bd
00000360: 9d43 ab3c ef01 9ebd 3693 f4bd 56de 823e
00000370: d744 1b3e 02fb 533d b683 01be ad31 d33d
00000380: fd16 3cbd 7547 9cbd 5faa 893b 90a5 f03d
00000390: 523a 5c3d 6cb9 02be bebc 77be 3c81 28be
000003a0: 23a9 d43c 1ae3 71be 7028 8c3d 26c5 eb3b
000003b0: c649 ca3b 625b 46be 2d42 203d 30da 6cbd
000003c0: 0118 3ebd b2ee ee3d 93c9 833d ef27 853a
000003d0: 0003 3dbd f073 883d 2987 2abe 4dfa 72bd
000003e0: 1daf fcbc d42d 8c3d 2ccb ce3d 7ece 983d
000003f0: 0444 0c3e 144a e23d c3ed 2dbe ed0a 6d3e
0.112848245 -0.097342014 0.09892933 0.027228748 0.06606527 0.04898176 -0.11011458 -0.1352455
0.10173387 -0.048147857 0.10178526 0.12233327 0.054313496 -0.007827511 -0.14380664 -0.08903239
0.1659366 0.111215815 0.09758885 0.09580752 0.2426615 -0.04280842 -0.0036099046 -0.018552182
0.0065739574 0.028866494 -0.03286647 0.030364351 0.1276803 0.14355443 0.14876856 0.16629158
0.05747419 -0.031821124 0.16677913 0.12012391 0.13361476 -0.07629028 -0.18725564 0.22098075
0.107761234 0.08002925 -0.117426805 -0.0076547693 0.035086803 0.14954579 0.085182235 0.022127332
0.050866712 0.0107428795 0.043222874 -0.052071467 0.07884368 -0.049998842 0.1749415 0.11727013
0.0031214824 -0.14178419 -0.11306296 -0.1523427 -0.12054864 -0.054341227 0.15553999 -0.102777295
0.048945807 -0.18079367 0.09450128 0.042710204 -0.05446659 -0.09707582 0.107586354 -0.11087382
-0.14274131 -0.041170593 0.029527051 0.07544287 0.009598916 -0.044633336 0.06793923 -0.14687991
0.011089856 -0.12113561 0.1540089 0.054120477 -0.057083536 -0.011286714 0.067185484 0.09813222
0.057887726 0.18480463 0.0072495127 -0.045154676 0.23165935 0.18599747 0.06621774 0.18222742
0.06707984 -0.19171387 0.12689018 -0.11316229 -0.12582108 0.09374649 0.08319467 0.09991615
0.12749667 -0.115790136 0.057821512 -0.03280877 0.13914561 -0.03202643 -0.115867764 -0.16063377
0.054851864 0.11494172 0.07521088 -0.11216156 -0.028363436 -0.21200475 -0.01859643 0.02852606
-0.19668412 0.13700552 0.119988926 0.06718113 -0.05875026 -0.21214098 0.04659959 -0.0445579
-0.084114544 0.058721207 -0.051876318 -0.0846794 0.18298997 0.2196943 -0.09081623 -0.17686243
-0.18537202 0.09425109 0.17579897 -0.06637733 -0.018445682 -0.10987418 -0.052840393 0.084949404
0.13886395 -0.025248025 -0.16296369 0.19802244 0.07635812 -0.08014204 -0.012384243 0.07173972
0.007126356 0.08483609 0.059287425 0.03266586 -0.07636279 -0.17544575 0.23121542 0.07768602
-0.016332772 -0.029477246 0.14467598 0.025557132 0.13943589 0.14686848 0.24583049 0.14826238
0.13357481 0.14114581 0.10801125 0.10409462 0.097666934 -0.043758538 -0.0071211276 0.13298176
0.103548065 -0.091643654 -0.056776438 -0.12970717 -0.20182125 0.105206706 0.11582555 0.1154038
0.09934122 0.08334254 0.05400792 0.09053768 0.041041408 -0.002313286 -0.079773284 0.11934661
-0.21021105 0.23156735 0.08770587 -0.13180606 0.0232175 0.11898592 0.20589034 0.008661753
-0.061790537 -0.2156747 0.117212944 -0.17850119 0.025388919 0.050502457 0.06337029 0.18097386
-0.06434232 -0.22525378 0.12876149 0.17709763 0.060664974 0.08167016 -0.06731467 -0.04334134
0.020906264 -0.077152126 -0.11942141 0.25560254 0.15162979 0.05175305 -0.126479 0.10312209
-0.04592036 -0.07630817 0.004201218 0.117503285 0.053766556 -0.12766045 -0.24193093 -0.16455549
0.025959557 -0.23621789 0.0684365 0.007195133 0.0061733453 -0.19370797 0.03912561 -0.057825267
-0.04640961 0.11666621 0.064349316 0.0010158996 -0.04614544 0.06662738 -0.16653122 -0.059320737
-0.03084522 0.068446785 0.10097346 0.0746126 0.13697821 0.110492855 -0.1698523 0.23148699

cnn_cells.stages.0.0.conv2.bias f4 [32]
00000000: e4fc 94bc 93f7 bebc d986 323e f0d2 083b
00000010: b85d 173c a189 0fbd 49a6 adbc c84e 703d
00000020: 73bd 6b3b 9526 06be ca65 80bc 55fe 963c
00000030: 7529 c3bb 222d 933c a78c 573c c2c7 ad3a
00000040: 42e7 e6bb c9e2 a63b d1bf 40bc c3b8 663a
00000050: 2aca 0cbc 24af 02bd e2de 8bbb 5335 bdbc
00000060: e3a6 5f3c 02dd 55bc 3d4d bf3b 02f2 c03b
00000070: 1a4d bdbd 94d5 c73c 8e47 6ebc 4e11 b93b
-0.018186994 -0.023311412 0.17434253 0.0020877682 0.009238653 -0.035043363 -0.021197455 0.05866888
0.0035971075 -0.13100655 -0.015673537 0.018431822 -0.00595587 0.017965857 0.013156093 0.0013258385
-0.007046611 0.005092953 -0.011764483 0.00088013354 -0.008593122 -0.03190531 -0.004268513 -0.023096716
0.013650629 -0.013053181 0.005838065 0.0058882246 -0.092432216 0.024393834 -0.014543427 0.005647815

cnn_cells.stages.1.0.depth_conv.weight f4 [32, 1, 5, 5]
00000000: 8149 063c e216 34bd 2b72 d53d 9891 923d
00000010: e2ac b4ba b0e8 c0bd 412b a23d 8d69 973c
00000020: 23e1 af3d 6687 00bb 8ab1 b2bd e81a 813d
00000030: d6c8 753a bb0b 21ba b879 40bc f846 3dbd
00000040: e1c2 623c 5280 e3bc 5c14 dcbd d26b e7bc
00000050: 0d3a 5abb 9473 033d d720 b4bc 34ba 9abd
00000060: 2697 f239 32e5 8d3b 1c74 3d3d 3204 523d
00000070: e4aa 733d 182b f3bc 9f90 d5bc ca81 3bbe
00000080: 14fa 2fbe 6acd 033d 943d 93bc 609d e73b
00000090: 4aa3 193b 6228 773d fbc2 783d 9cc9 673c
000000a0: 029a 62bc 7d23 16bc b1b5 833e a25d 1f3e
000000b0: d285 5cbd 0f9c b7bd 2d84 9dbd ec62 aa3c
000000c0: 2039 edbc fb8f 90bd abc2 a5bc 87ae 8cbd
000000d0: 15ed 523c 1885 4d3d 4b7a 5fbd 175d 17bd
000000e0: b3d8 573d f8c2 6abd 5488 92bd ac7f 113e
000000f0: 473a 5bbd 4813 843e f136 1fbd 3358 49be
00000100: 92db fc3d 939f 04bd 951c 053e 5bbe 1f3d
00000110: f08a 2dbe 8d51 d63d 9f36 97bc f087 91bc
00000120: f269 8cbb e4e4 1abd d249 adbb ec4b 9a3d
00000130: cf3a a63d 1a30 17bd fde9 bfbc 7796 adba
00000140: a550 413d 755f 7dbd 8595 a4bd 925e 53bd
00000150: 7510 f1bb 34f2 ad3c 1a29 bdbd 504e 60bd
00000160: 89cb 0bbd e875 9bbc f207 c03d 45e5 363d
00000170: 2d46 1b3d 5020 343d bb41 3fbd 3073 0cbe
00000180: d136 1c3d 5fb3 053e 901a b63d df37 8a3c
00000190: 2b98 c7bc 585e 983d d1d1 0fbd eed4 7abd
000001a0: eea6 83b9 c83d 083d 74b8 00be 057b 2bbe
000001b0: d84a 38bc b276 de3c 713d 553c 61f5 cd3d
000001c0: 34c6 343e aec2 0a3e 10ab b0bd a52f 2fbd
000001d0: 8da3 983d d0c5 c23d 9ae2 b0bd b0b7 a4bc
000001e0: 43e7 81bd b0a2 26bc a28e 893d e7d0 1bbd
000001f0: 6b3f 993c d503 d13c e7c7 75bc e5ba 393d
00000200: c04c 033d 8fc7 75bd 691f 68bd 06ee 09be
00000210: 7c73 55be e951 58bc 7ca2 393d d431 023e
00000220: c13d 913d baf9 8abd d4ea 82bd 4e76 ea3d
00000230: 536f 543d 9a0c 033d 0f37 ab3c 2b27 3fbd
00000240: 4998 07bd 3938 973c fff8 153e 1bb7 be3d
00000250: c6aa 2e3d 2aa8 4cbc edf7 09be 2fbd 1dbd
00000260: de55 12be 3d55 59bd dd12 50bc 3517 133d
00000270: d37f 013e fa1d 3c3e 42bb b63d a50d 07bc
00000280: c030 913c 297f 553e 9814 833d bf7c 40bd
00000290: eadf c8bd 4ee4 1c3d 56d0 c3bc af7b 13be
000002a0: 9a35 b1bd 8c12 abbd 3494 d83b d83b 093d
000002b0: 9c6a 67bd 0e44 0cbd 56dc c83d 6e09 a0bd
000002c0: 39bf 2f3d e0ec 273b d731 52bd 33e6 dfbc
000002d0: 860e 0ebd fa4c 473d 4add 363d 19d2 a2bd
000002e0: ec81 c1bd d14c 793d 5c96 013e 28e7 c23d
000002f0: 393b e6bb b660 49bb 8b28 5c3c b222 cb3d
00000300: 8a43 163d 706f e7bd 3008 04bc 880c 9ebc
00000310: ecb4 013c 9c7b f73c b370 58bc 5847 4ebd
00000320: cef4 453d 06b7 a73d 2001 283d e53c 1e3e
00000330: 89ef 83bd f478 6ebd 69b9 aebd 3a4f 28be
00000340: 8bea d03c 3970 4ebb 3a7e ebbc 62fd ce3d
00000350: 3265 f73c 2894 e4bd 62b1 fdbc eb66 d33a
00000360: cc5a 2e3c 270c 8a3d 616d b1bd 50a4 a33b
00000370: 17ec 00bc 0948 bdbd d256 45bd 53ee 663d
00000380: 065c e83d 1b2c f63c 01d1 b63c 8b81 913d
00000390: 1c31 01bb 606d 133d 67ad 0e3d 5f97 803d
000003a0: 372d c83d 30f5 1ebe ede9 5a3d efbe 323d
000003b0: e69b f7bb a78d 003d 92ac 51be 7ede 393c
000003c0: e141 49bd 8fe0 8abd ab56 b23c 5c4a 20be
000003d0: d2f8 103c a313 8d3d a9bf b6bc aaf6 aa3d
000003e0: d38e b2bd 662e 363d cb17 41bd 692c 243d
000003f0: ad5f 10bc 9c9e 17bd 850f 7cbc e672 413c
0.008196236 -0.043967135 0.104221664 0.07156676 -0.0013784433 -0.094193816 0.07918406 0.018482948
0.08587863 -0.0019611954 -0.08725269 0.0630396 0.0009375935 -0.00061434106 -0.01174777 -0.04621026
0.013840408 -0.027771149 -0.10746071 -0.028249655 -0.003329876 0.032092646 -0.021988316 -0.07555047
0.0004627045 0.0043303007 0.04625331 0.051273532 0.059489146 -0.029683635 -0.026069937 -0.1831123
-0.17185241 0.03217832 -0.017973699 0.007068321 0.0023443275 0.060341246 0.060732823 0.0141471885
-0.013830664 -0.0091637345 0.25724557 0.15563062 -0.05383856 -0.08965313 -0.07691226 0.020799123
-0.028957903 -0.07058712 -0.020234426 -0.06869226 0.012873908 0.050175756 -0.054559987 -0.03695401
0.052696895 -0.057314843 -0.07154909 0.14208859 -0.053522374 0.2579596 -0.038870756 -0.19662552
0.12346567 -0.032378744 0.12999184 0.038999896 -0.16947532 0.10464773 -0.018458663 -0.017765015
-0.0042850906 -0.037815943 -0.005288341 0.07534012 0.081166856 -0.036911108 -0.023427004 -0.0013243695
0.04719605 -0.061858613 -0.08036331 -0.05160386 -0.007356698 0.021233656 -0.09236355 -0.054762185
-0.034129653 -0.01897712 0.093765154 0.044652242 0.03790872 0.043976128 -0.046693545 -0.13715816
0.038138214 0.13056706 0.08891785 0.016872345 -0.024364552 0.0743987 -0.035112206 -0.06123822
-0.0002511064 0.033262044 -0.12570363 -0.16746147 -0.011248313 0.027156208 0.013015137 0.10056568
0.17653733 0.13550827 -0.086263776 -0.042770047 0.0745307 0.09510386 -0.08636971 -0.02010712
-0.06342938 -0.010170624 0.06716658 -0.03804102 0.018706998 0.025514523 -0.015001274 0.045344252
0.032055616 -0.060004767 -0.05667058 -0.13469705 -0.20844835 -0.013203123 0.045320973 0.1271432
0.07091857 -0.06785913 -0.06392446 0.11448346 0.05186398 0.03199444 0.020900277 -0.046668213
-0.033104215 0.018459426 0.14645766 0.09312268 0.04264333 -0.012491265 -0.13473482 -0.038510498
-0.14290568 -0.053059805 -0.01269981 0.035910804 0.12646417 0.1837081 0.08922435 -0.008242999
0.017723441 0.20849289 0.06400412 -0.046993967 -0.09808333 0.038303666 -0.023903053 -0.1440265
-0.08652802 -0.08353147 0.006609464 0.033504337 -0.056498155 -0.03424459 0.09807651 -0.078142986
0.042906974 0.0025623366 -0.051317062 -0.027331447 -0.03468182 0.048657395 0.04464463 -0.07950229
-0.09448609 0.060864273 0.12655014 0.09516746 -0.007026103 -0.003072781 0.013437401 0.09918727
0.036685504 -0.11300552 -0.008058593 -0.019293085 0.00791667 0.030210309 -0.013210463 -0.050361007
0.048329167 0.08189206 0.041016698 0.15452917 -0.06442172 -0.05822082 -0.08531458 -0.16436473
0.025502464 -0.0031499995 -0.028746713 0.10106923 0.03019962 -0.11161071 -0.030968372 0.0016128694
0.010641765 0.06740599 -0.086634405 0.004993953 -0.007868788 -0.09242255 -0.0481785 0.056379627
0.11345677 0.030050328 0.022316458 0.071047865 -0.001971311 0.03599298 0.034833338 0.06278872
0.09774249 -0.15523219 0.053445745 0.04363912 -0.0075564263 0.03138509 -0.20475987 0.01134455
-0.049135093 -0.067811124 0.021769842 -0.15653366 0.008848386 0.06888511 -0.022308188 0.08347829
-0.08718648 0.044477843 -0.04714183 0.040081415 -0.008811873 -0.037016496 -0.0153845595 0.011807179

cnn_cells.stages.1.0.depth_conv.bias f4 [32]
00000000: 381c 3dbc 7d5f 18bd 5386 6b3d 21de bfbc
00000010: 7caf ddbd 796e 893d fca8 99bc 0c83 563d
00000020: 198b 203b 722e b93c 342c f53c 301f 80bc
00000030: 5ee2 26bd ecf2 74bd a5e3 933c 7a9c 5c3d
00000040: 583b 1ebd 1c34 ee3b fb98 e0bc e918 213d
00000050: 9d4e 8b3d 5dc9 3a3d ced9 91bb a95b 49bd
00000060: c155 7abc 86ba 07be aa9a bb3c 45d9 aa3d
00000070: 3fd7 013d f7a4 e03c 0b96 10bd 1d17 87bd
-0.011542372 -0.03720044 0.05750115 -0.023421349 -0.108244866 0.06710524 -0.018757336 0.05237107
0.002449697 0.022605155 0.029928304 -0.015639871 -0.040743224 -0.05980198 0.018052885 0.053860165
-0.038630813 0.0072693955 -0.027416697 0.039330397 0.06802104 0.04560219 -0.004451013 -0.04915968
-0.015279234 -0.13254747 0.022900898 0.08342222 0.031699415 0.027422411 -0.035299342 -0.065962054
