parameter_estimation/models/ConvNextParameterEstimator_KZ_v2/model_weight.ckpt (torch, 266919 bytes, 43 tensors)

cnn_cells.downsample_blocks.0.0.weight f4 [32]
000000 fb 2d 64 3f 61 37 4f 3f 20 75 44 3f e7 a0 43 3f
       0.8913266 0.80943877 0.7674122 0.7641739
000010 81 ef 37 3f 42 40 54 3f a8 26 0f 3f 0b 80 25 3f
       0.7184983 0.8291055 0.5591836 0.64648503
000020 53 be 7d 3f 32 c9 50 3f d8 da 59 3f db e9 37 3f
       0.99118537 0.81557 0.85099554 0.7184121
000030 8f 77 f7 3e 7b cd 77 3f 76 eb 4d 3f 8c cd 3b 3f
       0.48333403 0.96797913 0.8043741 0.73360515
000040 54 76 45 3f 98 08 70 3f 53 a2 23 3f 45 db 2f 3f
       0.7713368 0.93763113 0.6391956 0.68693954
000050 03 12 56 3f b9 4a 49 3f b2 bb 5c 3f 19 b6 49 3f
       0.83621234 0.7862964 0.862239 0.78793484
000060 04 d8 43 3f a6 8c f9 3e 72 b2 37 3f 03 d2 58 3f
       0.7650149 0.4874012 0.7175666 0.8469545
000070 e1 18 5b 3f e1 d2 61 3f 12 9e 4d 3f 50 77 56 3f
       0.8558484 0.882124 0.8031932 0.83775806

cnn_cells.downsample_blocks.0.0.bias f4 [32]
000000 89 90 3c 3a 9f 88 0f bc f6 29 62 3b 35 11 9f bc
       0.0007193168 -0.0087606 0.0034509874 -0.019417385
000010 79 cb 04 3d a7 b6 fa bc f7 8e 19 3b 11 3e 33 3b
       0.03242061 -0.030604674 0.002343116 0.0027350227
000020 7b 48 26 bc 1a 98 df bc c5 65 8a bd 5c 4d 89 3c
       -0.010149117 -0.027294207 -0.06757692 0.01676052
000030 48 02 e2 3c d4 dd 4b bc e3 2f 97 3c fd d4 05 3d
       0.027588978 -0.012443025 0.018455451 0.032673825
000040 76 6b 45 bc 22 95 2e bd 79 6b c8 bb 64 6d 03 3d
       -0.012049546 -0.042622693 -0.0061163274 0.032086745
000050 db 9b 84 3c 62 c6 c2 3c a1 cb a0 bc 43 1f d3 3c
       0.016187599 0.023776237 -0.019628348 0.025771743
000060 ca 29 ad bc 65 f7 96 3c 55 a4 76 bc 27 13 55 3d
       -0.02113809 0.018428514 -0.015053828 0.05202022
000070 05 52 fd bc b2 c5 3b 39 7e 2e 9f bc f4 4e 91 bd
       -0.030922899 0.00017907357 -0.019431349 -0.07095137

cnn_cells.downsample_blocks.0.1.weight f4 [32, 32, 2, 2]
000000 52 a6 16 be 24 05 39 3e 31 6b a8 3d 53 20 2a 3e
       -0.14711884 0.18068367 0.0822357 0.16613893
000010 49 f5 33 3d e3 62 22 be 04 dd 4b 3e 2d 06 05 3e
       0.043935094 -0.15858035 0.1990853 0.12990637
000020 53 56 e8 bd 13 e4 0f 3c 32 bc 0b be 36 46 e7 3d
       -0.1134459 0.0087824045 -0.1364601 0.112926885
000030 f8 b6 a4 bd 7a 91 6e 3c 0e 86 eb bd 64 e0 03 bc
       -0.08042711 0.0145610515 -0.11500178 -0.008049104
000040 bd b5 8a 3c 93 4d 64 3d 13 c5 14 be 41 e5 ce 3d
       0.016932363 0.055738043 -0.14528303 0.101023205
000050 f2 14 b2 3d ca 60 89 bb 50 01 bd 3d bb 5e fb bb
       0.08695401 -0.0041924464 0.09228766 -0.007671205
000060 dd a1 0e 3d 3d 59 2a be b6 18 49 3c ad 38 15 bd
       0.034822334 -0.16635604 0.012273958 -0.036431003
000070 79 55 c6 3c d3 a6 db 3d 7e b5 dd bc 01 2f 99 bd
       0.024210678 0.107251786 -0.027064081 -0.074796684
000080 55 0b 62 3e 17 83 3c bd 7d 9f 80 bc 42 a6 5e be
       0.22074635 -0.046023455 -0.01570105 -0.2174311
000090 d3 3d f8 3c f2 77 1e 3e 4e 5e f8 bd 32 08 3e 3e
       0.030302918 0.15475443 -0.12127362 0.18557814
0000a0 a0 3d 41 bd e8 5e d6 3d 1e a4 c7 bd 4f bb 23 3e
       -0.04717791 0.10467321 -0.097481 0.15989421
0000b0 32 03 d3 3d 75 e9 80 3d 00 b3 f8 bc 49 dd bc bd
       0.10303344 0.062945284 -0.030358791 -0.09221894
0000c0 56 79 b4 39 07 e0 63 3d 2d fb b5 bd 96 fd 48 3d
       0.00034422678 0.05563357 -0.088857986 0.049069963
0000d0 ec 63 ec bd ff dc eb 3d 15 50 e7 3b bf 97 59 3e
       -0.11542496 0.11516761 0.007059107 0.21249293
0000e0 85 39 1c bc ba 04 32 3e f0 38 0f be 3c 44 a5 3c
       -0.009535198 0.17384616 -0.13986564 0.020174138
0000f0 f7 1a 5c bd 4c 8c 3f be 32 f5 7b 3e e5 f8 84 3c
       -0.053736653 -0.18705863 0.24605253 0.016231963
000100 82 c0 88 3d 86 b3 03 3d 38 f7 2e 3d 8a 2f e4 bd
       0.06677343 0.03215363 0.042716235 -0.1114188
000110 f4 05 62 bc 10 18 91 3d a8 7c 9c 3d c0 38 01 bb
       -0.013795365 0.07084668 0.07640964 -0.0019717664
000120 3d 87 a4 3c ac c8 d1 bc 78 55 ac 3c 4d ec f3 bb
       0.020084018 -0.025608383 0.021036848 -0.0074439407
000130 04 db 15 3e cd 2e dd bd 21 23 eb bd 1d a3 f2 bd
       0.14634329 -0.10799942 -0.1148131 -0.11847518
000140 6c a8 8c bb 50 be 3a 3d ab b3 89 bd d1 78 66 3e
       -0.0042925384 0.045591652 -0.06723722 0.22507025
000150 57 b5 37 bd 52 6b fb 3c 34 ed ad bc 8e db f9 bd
       -0.044850674 0.030690823 -0.021231271 -0.1220008
000160 cf aa c7 bd 89 04 24 bc 3c fa 8f 3c b0 8b 5a 3e
       -0.09749376 -0.010010847 0.017575376 0.21342349
000170 1c b7 b0 bd 0f 4b 9d bc d1 e9 e5 bd 43 19 bd 3d
       -0.08628675 -0.01920083 -0.112262376 0.09233334
000180 7a e7 2e 3e 1e 08 45 bd f1 c4 7e 3d f2 f8 a9 3d
       0.17080489 -0.048103444 0.062199537 0.08299436
000190 5c bf d2 bd 12 64 22 3e 55 99 67 bd a3 cd 19 3e
       -0.10290405 0.15858486 -0.056542713 0.1501985
0001a0 8d 63 29 bd 99 cf dd 3c ac 32 3c bd fe b6 a5 3c
       -0.041354705 0.02707653 -0.045946762 0.020228859
0001b0 ea fc 94 bd 7c c1 59 bd e1 9a 86 3d 87 82 23 bd
       -0.07274802 -0.053163037 0.065725096 -0.039919402
0001c0 18 88 31 3e dc 6c 1f be b2 b9 48 3d ed 45 9e be
       0.17337072 -0.1556887 0.049005218 -0.30912724
0001d0 c2 56 da 3d f2 ac af bd 96 4e 28 bd 46 c2 0d be
       0.10661079 -0.085779086 -0.04109057 -0.1384364
0001e0 68 e3 41 3d ad d1 79 bd 94 04 0e 3d cb 6b 6e bd
       0.047336012 -0.060990978 0.034672335 -0.058208268
0001f0 bf 73 39 bd df 77 8e bc 26 d7 1a 3e 5f bf a1 3d
       -0.0452764 -0.017391143 0.15121135 0.07897829
000200 c9 43 2a 3e d2 93 ed ba 43 61 28 3e 62 f0 bd bc
       0.1662742 -0.0018125719 0.16443352 -0.023185913
000210 51 5d 15 3d d3 e2 86 3d 80 98 08 3e 8c 30 44 3e
       0.036465947 0.06586232 0.13339424 0.19159144
000220 4a 8b b4 bd ce 97 bd 3d a1 91 3d bd d1 49 b9 ba
       -0.0881563 0.0925747 -0.04628146 -0.0014136379
000230 97 a9 f2 3d 01 1b 39 bb 93 8b 0d bd d9 5e 8e bc
       0.11848753 -0.0028244855 -0.034556936 -0.017379211
000240 e3 95 a1 bd f6 1c ee bd 80 07 83 bd 68 fe 74 3d
       -0.07889917 -0.116266176 -0.06397915 0.059812933
000250 eb d3 55 bd f4 af df bd c9 0b ee 3c 5f 61 0a be
       -0.052204054 -0.10922232 0.029058354 -0.13513707
000260 9a 73 8c bb 22 0d 57 bd f1 74 0a 3d cb ea 34 bd
       -0.0042862417 -0.05250276 0.03380293 -0.04416923
000270 3c f3 44 3c d4 39 44 bc 7e 81 c7 bd b7 8b ce 3d
       0.012020882 -0.011976678 -0.097414955 0.10085242
000280 c2 b1 f9 3c 38 09 20 bd 4f 5a e2 3d 7c 58 3b 3d
       0.03048027 -0.03907129 0.11052381 0.045738682
000290 45 af 0d be 78 6c 04 3d 07 24 d0 bd dc e5 52 bd
       -0.13836391 0.032330006 -0.10163122 -0.051488742
0002a0 90 94 2f 3d 95 39 4d bc 89 c1 81 bd 2b 0b 84 3d
       0.04286629 -0.012525936 -0.06335742 0.064474426
0002b0 fd ee ab bd 34 1b bf bd 6d ab 48 bc b9 67 9a bc
       -0.08395193 -0.093313605 -0.012247902 -0.018848287
0002c0 c9 88 a4 3d 01 64 a5 3d e2 75 b4 bc 1e 49 17 bd
       0.08033902 0.08075715 -0.022028867 -0.036934964
0002d0 a8 98 e5 3d a8 a0 33 3d 5d 48 86 3d f1 cc 71 bd
       0.112107575 0.043854386 0.06556771 -0.059033338
0002e0 fa ff 1f 3d 08 b6 50 bd 4d ad 06 be 83 46 a3 bd
       0.039062478 -0.05095485 -0.13152047 -0.079724334
0002f0 8c a8 b7 bd 91 7c 53 3c fc 17 4f bc 82 70 dc bc
       -0.08967695 0.012908117 -0.012639996 -0.026909117
000300 01 19 f0 3d db 0a 09 be f5 ed 02 be 87 76 39 3c
       0.11723519 -0.13383047 -0.12786086 0.011319763
000310 b0 4f e1 3c af b3 b0 bc 2a 90 42 3d b1 56 96 3c
       0.027503818 -0.021570055 0.047500767 0.018351885
000320 fd 00 19 be b9 de 84 bd 0d b8 a1 3c 07 b6 c4 3c
       -0.14941783 -0.064877935 0.019741083 0.024012579
000330 03 11 b3 3d 29 94 f2 bc 4a 19 03 bd 64 46 35 bd
       0.08743479 -0.029611664 -0.03200654 -0.044256583
000340 70 8d a0 3d 6c 98 21 bb b9 b1 ec 3d cc 29 e2 3d
       0.07839477 -0.00246575 0.115573354 0.11043128
000350 47 3c b9 3d 20 97 ac 3d 7a 54 97 3d 2a 31 45 3d
       0.090447 0.08427262 0.073891595 0.04814259
000360 76 a8 a2 3d 8e 43 e4 3d 45 78 4d bd 7a e3 e1 bc
       0.079422876 0.111456975 -0.050163526 -0.02757429
000370 b5 2d ce 3b 53 98 ac bc ef d5 85 bd 5c 8d 1e be
       0.00629207 -0.021068728 -0.06534945 -0.15483612
000380 83 19 d8 bc fe a2 d8 3d 92 73 dd 3d 16 62 7c 3d
       -0.026379352 0.10577963 0.10813059 0.06161698
000390 5c 21 86 bd 06 d9 24 bd ba 2c f4 3c 24 b2 9f bd
       -0.065493315 -0.040246032 0.029806484 -0.077976495
0003a0 d7 1f ed bd 9c 22 d4 bd 22 6f 24 bc 8e 6c 34 3d
       -0.115783386 -0.10358164 -0.010036262 0.04404884
0003b0 1d 4e ee bc 38 20 4c bc 3b 75 81 3d aa 89 4a bd
       -0.029089982 -0.012458853 0.06321188 -0.049447693
0003c0 66 b1 8d 3d 5b ed d5 bc f2 bd 05 bd a8 c6 52 bd
       0.06918602 -0.026114156 -0.03265185 -0.051458985
0003d0 99 f9 2f 3c 1b e3 93 3c ca 99 1d 3e 40 67 87 3d
       0.010740661 0.018052628 0.15390697 0.0661149
0003e0 e6 d0 4c bd 01 0a 89 bd 3f 97 c4 bd 51 4c 6a bd
       -0.05000391 -0.06691361 -0.095991604 -0.057201687
0003f0 1a b5 1c bd ca cd 0d 3e 79 6c 93 3c 84 56 cf 3d
       -0.03825865 0.13848034 0.01799606 0.101239234

cnn_cells.downsample_blocks.0.1.bias f4 [32]
000000 a4 af 46 bd 80 c4 4a be 29 27 ae 3b 3f 7f 3b 3e
       -0.048507348 -0.19801521 0.005314727 0.1831026
000010 26 6d 2d be 6f b7 c6 bd a1 de 26 bd 24 81 16 bc
       -0.16936168 -0.09702956 -0.04073966 -0.009186063
000020 65 a3 b7 3c d4 58 c0 3b 68 92 96 bd fe 7f 77 bd
       0.02241678 0.005869964 -0.073521435 -0.060424797
000030 49 57 f1 3d 95 4e 22 bd 4f be 01 be 00 60 72 3d
       0.117842264 -0.039625723 -0.12670253 0.059173584
000040 67 8c 8d bc 30 02 91 bd cf 43 96 bd 9d ec d5 bd
       -0.017278863 -0.07080495 -0.07337152 -0.10445521
000050 d3 98 0a bd f5 30 50 bd 9f 6a 81 3b 56 30 87 bc
       -0.03383715 -0.05082794 0.003949478 -0.01650254
000060 a1 c9 bc 3d c0 07 9b 3b 99 43 8a bd 74 7f 08 3c
       0.09218145 0.0047311485 -0.067511745 0.008331168
000070 10 8b c1 bd b4 08 be 3d 5e 14 23 bc 39 2d 8f bc
       -0.09450352 0.09279004 -0.009953586 -0.017477619

cnn_cells.downsample_blocks.1.0.weight f4 [32]
000000 58 ca 29 3f 07 f6 1b 3f d8 dd 16 3f 4b 3b e0 3e
       0.6632438 0.6092228 0.58932257 0.43795237
000010 f3 ae de 3e 84 ab 12 3f 45 46 28 3f de 4b 19 3f
       0.4349285 0.5729296 0.6573222 0.5988139
000020 c4 63 02 3f 05 e5 19 3f 52 84 0b 3f fd 61 13 3f
       0.5093348 0.6011508 0.5449878 0.57571393
000030 31 6d 0e 3f 7a bc 1f 3f 59 f1 00 3f d3 c8 bf 3e
       0.5563536 0.6239697 0.5036827 0.37457904
000040 78 08 1f 3f a9 3b 24 3f de a2 04 3f c8 fd f1 3e
       0.621223 0.64153534 0.51811016 0.47263932
000050 d9 b8 ff 3e b5 9c 2a 3f ef 14 14 3f 90 72 0e 3f
       0.49945715 0.66645366 0.5784444 0.5564356
000060 ab 61 24 3f 6f 6d 1d 3f 50 09 ff 3e e7 28 0c 3f
       0.6421153 0.6149511 0.49811792 0.5474991
000070 84 38 1a 3f 50 6f 28 3f 54 fe 21 3f 0c 28 08 3f
       0.60242486 0.6579485 0.632787 0.53186107

cnn_cells.downsample_blocks.1.0.bias f4 [32]
000000 e0 9d c7 bb 5b d0 73 3c a2 ef 95 bb 11 22 a9 3c
       -0.006091818 0.014881219 -0.0045756856 0.020646127
000010 98 b9 11 bd 12 01 32 3c e4 1d ee bb 35 43 f6 3b
       -0.035577387 0.010864513 -0.007266747 0.007515336
000020 e7 3e f6 3c 32 3b c7 bb db f6 9b bc 24 ab 87 bb
       0.030059291 -0.0060800547 -0.019038608 -0.0041402746
000030 f5 78 26 bd 78 b3 4e bd 02 b6 54 3c 12 f2 fe 3b
       -0.040642697 -0.050464123 0.012982847 0.007780322
000040 9a a2 83 37 d5 ec f8 bb 1d 19 62 ba 80 90 8b 3b
       1.5692134e-05 -0.007596592 -0.0008624958 0.004259169
000050 11 4e 7c bc 18 74 5c bc 7b 3c 0c 3b 40 be 6e bb
       -0.015399472 -0.013455413 0.0021398354 -0.0036429316
000060 27 03 36 bb a7 dc 57 3b 7f a9 3f bc 6a f0 96 3c
       -0.0027772875 0.0032937916 -0.011698126 0.018425185
000070 c2 e7 0b bd e0 87 96 3c 13 0e 71 bc f0 e1 a2 3c
       -0.03415657 0.018375337 -0.014712828 0.019883126

cnn_cells.downsample_blocks.1.1.weight f4 [32, 32, 2, 2]
000000 41 ea f3 bb 60 b2 91 bd 82 c3 8f bd e0 07 29 be
       -0.0074436967 -0.071141005 -0.07019712 -0.1650691
000010 09 3e 76 bd ab f8 91 bd fa db 85 bd 66 df be 3d
       -0.060117755 -0.07127508 -0.06536098 0.093199536
000020 ca 72 09 3a f5 cd 82 bd e1 3e e6 3d 8a a7 03 be
       0.000524324 -0.063869394 0.11242462 -0.1285688
000030 8e 3a c2 3d fb 9f fd bc 74 e3 9f bd 17 fc a2 bd
       0.09483825 -0.030960074 -0.07807055 -0.079582386
000040 95 26 87 bd cd 44 11 bd f2 ee 9f 3d 57 73 04 bd
       -0.06599156 -0.035466004 0.07809247 -0.03233656
000050 79 fb 6d 3c b9 c1 4b bc 80 67 db bd 46 f2 53 3d
       0.014525288 -0.012436324 -0.107131004 0.05174472
000060 4a d5 22 bc fd cb 4b bd d1 1b 3c bd b0 81 f5 3d
       -0.009938547 -0.049755085 -0.045924965 0.119876266
000070 9d 40 33 bd c8 b1 f4 3d 66 1c 67 bd f3 47 32 bc
       -0.043762792 0.119479716 -0.056423567 -0.010881412
000080 e5 18 6a bd 01 43 cd 3d d5 43 f0 3d fe b9 81 bc
       -0.057152648 0.100225456 0.11731688 -0.015835758
000090 e0 31 0b 3e 5a 74 34 bd 61 88 46 3d 62 ae 45 bc
       0.13593245 -0.044056274 0.048469905 -0.012065502
0000a0 98 5a 7e bd 99 8d 67 3c 3c 72 bf 3d 08 01 12 be
       -0.062098116 0.014132881 0.0934796 -0.14258206
0000b0 00 9c 2d bd e5 dc 34 3e 1e 0b 96 3c 2b e0 2d 3d
       -0.0423851 0.1766239 0.018315848 0.04245011
0000c0 27 b7 5d bb 1f c7 22 bb 44 42 c0 bd 1e 6e ac 3c
       -0.003383109 -0.0024837924 -0.09387639 0.021048602
0000d0 37 8b 14 3c d5 f1 1b be 06 f3 37 3d 22 de 36 3d
       0.0090663945 -0.1522897 0.0449095 0.044645436
0000e0 ce af e2 3c 4c cd 04 be ca 50 85 3d 5b 84 f9 3d
       0.02767172 -0.1296894 0.0650955 0.12183448
0000f0 2e f0 98 bd 5d d1 a7 3b b9 ab b1 3d 9b 3e c9 3d
       -0.07467686 0.0051213936 0.086753316 0.09826394
000100 29 d0 9f bd 1f 68 8c 3d 9d d6 c1 bd 9a 8c 5d 3d
       -0.07803375 0.06855797 -0.09464762 0.054089166
000110 1d 0c 4c 3d 3f 96 1b 3c 6d c3 fa 3c 95 6c 75 3c
       0.04981624 0.009496271 0.030610764 0.014979501
000120 0c ab 00 3d ec aa fe 3c 17 cc d6 bd 26 3f cf bd
       0.031413123 0.031087361 -0.10488146 -0.101194665
000130 13 63 62 bd 48 08 93 bc 4c 10 47 bd e2 ee 39 3d
       -0.055270266 -0.017948285 -0.048599526 0.045393832
000140 48 fa e7 bd 82 5d 41 bd d1 90 36 3b 43 b0 40 3d
       -0.11327034 -0.047208317 0.0027857313 0.047043096
000150 da 20 99 bd 2d 28 b1 3d b3 4e 83 bc b1 34 42 bd
       -0.07476969 0.08650241 -0.016028738 -0.04741353
000160 27 d3 bc 3d 0d 55 43 bd 5d 8f e4 3d 2b 4c 17 3e
       0.092199616 -0.047688533 0.11160157 0.1477515
000170 58 c0 cc 3d c1 a7 62 3d 25 30 8f bd 96 dc 7f 3d
       0.09997624 0.055335764 -0.06991605 0.062466227
000180 72 42 86 3d bf 4b 68 3d 82 48 b0 bd 6a dc 69 bd
       0.06555642 0.056712862 -0.0860758 -0.05709497
000190 9e 0d b2 3d 44 9a 55 3d c8 6e 9f 3c e8 70 df bd
       0.086940035 0.052149072 0.019462004 -0.10910207
0001a0 70 09 58 bd 1e 0c 81 3d 6f d1 b0 3b 06 ac 08 be
       -0.052743375 0.06301139 0.00539606 -0.13346872
0001b0 33 89 a8 bd 6b ce 2b bd f4 8c 36 be 1e d3 98 bd
       -0.08229294 -0.041944902 -0.17827207 -0.074621424
0001c0 3d 56 b9 bd 56 4f a2 3d 42 2a 5a bd d1 39 5f bb
       -0.09049652 0.079252884 -0.053262956 -0.003406156
0001d0 ce da ac 3d e9 c3 15 3e ed 8d a0 bc 19 bb f5 3c
       0.08440171 0.14625515 -0.019598925 0.029996442
0001e0 02 a7 ab 3c 57 e5 d6 bd 27 b2 39 3c 86 ee 5d bd
       0.020953659 -0.10492962 0.011333979 -0.05418255
0001f0 b7 e3 0d bd 0f 8f 4e bd 7a e0 73 3d e6 d3 e2 3c
       -0.034640994 -0.0504294 0.05954025 0.027688932
000200 f6 0c 2f bc c5 49 1c bd ad 32 68 3d 04 9d 51 bd
       -0.0106842425 -0.03815629 0.056688953 -0.051175132
000210 30 23 ec bd d8 76 56 bd 2e fe 80 bd f3 83 d9 3c
       -0.11530149 -0.052359432 -0.06298481 0.026552176
000220 11 b3 42 3c f7 11 8f 3d d4 b9 af bd 52 d5 96 3d
       0.011883513 0.069858484 -0.08580366 0.07364906
000230 50 97 ca 3d 68 2a 69 3d 83 d1 3b 3d 78 74 20 be
       0.09892142 0.056925207 0.045854103 -0.1566943
000240 e4 1d 0c 3d f7 44 1c 3d ce 50 1e bd 08 02 eb 3d
       0.034208193 0.038151708 -0.03865128 0.11474997
000250 af 73 15 3e d1 72 43 bd 2a 78 6d bb e1 f8 43 3c
       0.14594911 -0.04771692 -0.0036234953 0.011961193
000260 b0 e4 b2 3d 98 ec fc bd be 41 de 3d 63 68 b3 bd
       0.08735025 -0.12349814 0.10852383 -0.087601446
000270 d0 66 b8 3c 92 e1 15 3e 09 a7 64 3d f3 1e cb bb
       0.022509962 0.1463683 0.05582336 -0.006198758
000280 7c bc 34 3c f6 07 4a bd 9c 89 69 bc 3f 21 07 3e
       0.011031266 -0.049324 -0.014254 0.13196276
000290 1b 54 57 3e 56 4f 25 3d 73 4c 65 3c 97 be 9d 3d
       0.21028177 0.040358864 0.013995278 0.07702368
0002a0 87 60 a7 bc 7b db 33 be 40 b8 8c 3d 1d 50 98 3c
       -0.02043177 -0.17564194 0.068710804 0.018592888
0002b0 c8 26 bf 3c 75 3f 4a 3d f6 0d 0f 3e 44 e8 ee bd
       0.023333922 0.049376924 0.1397017 -0.11665395
0002c0 9e 82 3e be da 7e 21 bd f1 a2 e5 3c 2d 77 95 3d
       -0.18604514 -0.039427616 0.028031798 0.072981216
0002d0 3b d0 05 3e b6 eb 85 3c 03 f5 8f 3c 1b e2 f7 bd
       0.13067715 0.016347747 0.017572885 -0.12103673
0002e0 1d 0c 60 bd c6 f1 35 bd 28 56 f2 3c c4 07 b4 3d
       -0.054699052 -0.044420026 0.029582098 0.08790544
0002f0 44 f9 85 bd 5c ca 0f be 0f a2 89 3d a4 73 6d bd
       -0.06541684 -0.14042038 0.06720363 -0.05797161
000300 45 f4 77 3c 82 e7 05 3c cc a8 f7 3b 9b 45 79 bd
       0.015133922 0.008172872 0.007557964 -0.060857397
000310 e2 54 8b 3d 6c b0 30 3d a6 2d 33 3d 60 84 10 be
       0.068032995 0.043137 0.043744706 -0.14112997
000320 e3 05 1d 3e 8d f6 fc 3d 6a 71 f2 bd df bf 26 be
       0.15334277 0.12351713 -0.11838038 -0.1628413
000330 02 c6 c7 bd 2a dc 94 bd 39 9b eb bd d7 8b 6a bd
       -0.09754564 -0.072685555 -0.11504216 -0.057262268
000340 b3 e7 22 be 09 c0 80 bc b8 38 4d 3d 6e 8e 3f bd
       -0.15908699 -0.01571657 0.05010292 -0.04676669
000350 1b 30 88 3d 6a 16 3b 3d 2d b8 37 3e f5 68 8d bd
       0.066498004 0.045675673 0.17941351 -0.069047846
000360 10 70 0c 3d 27 f9 f2 3d 21 c0 6b bc d8 03 c0 3d
       0.03428656 0.11863928 -0.014389069 0.09375733
000370 e8 69 0e 3d 96 52 08 3d bc 44 92 3d eb 6c 55 bd
       0.03476897 0.033281885 0.07142016 -0.052105825
000380 80 63 28 3d 7e c4 da bd d3 e1 28 3c 83 f6 32 3e
       0.041110516 -0.10682009 0.010307747 0.1747685
000390 6a 58 1b 3d a4 83 e8 3c 5b c7 7d 3d 0c e4 7a bd
       0.037926115 0.028383084 0.0619577 -0.06125264
0003a0 3a 91 8f 3d 58 9a 7f bd c0 d6 66 bd 3c 1c 94 bd
       0.07010122 -0.062403053 -0.056357145 -0.07231948
0003b0 b6 62 a0 3c f7 27 8e 3d 00 2d 50 bd 53 b4 cf 3c
       0.019578319 0.069412164 -0.050824165 0.02535454
0003c0 cd f9 94 3d 68 66 86 bd b4 3a ee bc 55 b7 f7 3c
       0.07274208 -0.06562501 -0.029080726 0.030238787
0003d0 28 e2 5e bd 11 59 03 3e f9 b3 95 bd 3b 94 cc 3d
       -0.0544149 0.12826945 -0.07309718 0.0998921
0003e0 ef e2 6b 3d 79 21 0b bd 6b fc 2f 3d a9 7c 8a bd
       0.057589468 -0.03396747 0.042965334 -0.06762058
0003f0 f3 bc 0d be b1 38 03 3e 7f 19 d0 3c ee 02 9b bd
       -0.1384161 0.12814595 0.025402782 -0.07568918

cnn_cells.downsample_blocks.1.1.bias f4 [32]
000000 ae 3c 56 bb cd df ec bb 16 af b9 bc 34 8c 00 3d
       -0.0032689977 -0.0072288276 -0.022666495 0.031383708
000010 29 90 2f bd 90 e0 84 3c f7 3e 22 3d b0 b0 83 bc
       -0.04286209 0.016220361 0.03961083 -0.016075462
000020 b2 66 39 3d 65 f3 df 3c 6f 85 4d b8 23 95 0b bd
       0.045263954 0.02733774 -4.900008e-05 -0.034077775
000030 94 f9 22 bc 4a b6 ae bb 64 75 8e 3d 01 e7 43 3d
       -0.009947199 -0.005331789 0.06955984 0.047827724
000040 b0 5c ca bd bf 21 24 bc 37 d5 51 bb a6 a7 a1 bb
       -0.0988096 -0.010017811 -0.0032017955 -0.0049333153
000050 08 05 93 3d 95 00 30 bd 20 69 eb 3c de 7d 3c bc
       0.07178694 -0.042969305 0.028736651 -0.011504618
000060 6f 2a 95 bc 76 b9 2a bd 51 07 09 bd 3c 99 b8 3d
       -0.01820871 -0.041680776 -0.033454243 0.09013602
000070 87 6f db bb 4c 98 a3 3b b6 ff 14 3d f0 ad 01 3d
       -0.0066966447 0.0049925204 0.036376677 0.03166002

cnn_cells.stages.0.0.depth_conv.weight f4 [32, 1, 5, 5]
000000 c7 e1 1d 3d b8 49 f2 3d 20 eb e6 bc b7 08 22 bb
       0.038545396 0.11830467 -0.028188288 -0.0024724433
000010 a6 4a 43 3b 7c 75 93 3d a7 77 d8 bc 0a 45 16 bd
       0.0029799133 0.07200143 -0.026424242 -0.036686935
000020 82 f4 6f bd 71 a3 b6 ba dc cc b1 bd ea be 21 3d
       -0.05858279 -0.0013934207 -0.08681652 0.03948871
000030 c5 9f 22 3d fa 19 4d bd 71 34 5a bd b1 1f 6f bc
       0.03970315 -0.0500736 -0.05327267 -0.014594958
000040 1d a7 9d 3b e5 65 d9 bc 6a ac 07 3d 9a de 88 bd
       0.004811181 -0.026537845 0.03312341 -0.06683083
000050 58 9e c5 3d 27 14 65 3d 3d 7c d9 3c 25 4e 85 bb
       0.09649342 0.055927422 0.0265485 -0.0040681534
000060 51 b6 d6 bc 71 58 9e 3d d3 b9 3f 3e 70 a9 f8 3d
       -0.026209982 0.077317126 0.1872323 0.12141693
000070 13 86 03 3d b3 d2 e1 3c b3 8d 45 3c 17 74 cf bc
       0.032110285 0.02756629 0.0120577095 -0.02532391
000080 51 87 33 bc cb ca 11 3c 9e ff 0e 3d 65 fb 84 bd
       -0.010957555 0.008898447 0.034911744 -0.06493262
000090 91 9b 47 bd 61 62 53 be 0b a8 df 3a f5 2f 57 3d
       -0.048732344 -0.20642997 0.001706363 0.05253597
0000a0 75 7f 34 3d 8a ab 1c bc 28 20 2e bd 7e 17 aa 3d
       0.044066865 -0.0095623825 -0.042511135 0.08305262
0000b0 7c 7e 54 3d cb 19 71 bd 63 bd 13 bc 13 2a d4 bd
       0.051878437 -0.05886249 -0.009017321 -0.103595875
0000c0 39 fe cb bd f5 0f 39 bb dc ed 6a bc 5d b4 74 bc
       -0.099605985 -0.002823827 -0.014338937 -0.01493558
0000d0 93 b1 97 bc a0 41 39 3d bd aa eb bc 4a cd 52 3c
       -0.018517291 0.0452286 -0.028767938 0.012866328
0000e0 9e 00 10 3d 56 5e f3 3b 00 2f 13 bd ec f8 2a 3b
       0.03515684 0.007427017 -0.035933495 0.002608831
0000f0 20 3e 14 3d d3 ee c1 bc df b3 24 bd e5 c5 94 3c
       0.03619206 -0.02367345 -0.0402106 0.01816077
000100 07 22 8a 3c 44 61 1a bb e4 fa 5f 3d 4f 90 d2 bb
       0.016861929 -0.002355651 0.054682627 -0.0064258943
000110 14 26 55 bd 96 f8 97 3b e3 44 03 bd 3c db 3e bd
       -0.052038267 0.004637788 -0.032048117 -0.046595797
000120 c4 57 08 3d 1d 4d d2 3c 69 ae d2 3c eb 0c 00 3e
       0.033286825 0.025671536 0.02571793 0.12504928
000130 da e2 88 3d e2 d2 a2 bd 24 7a 3e be a3 03 57 bd
       0.066838935 -0.07950379 -0.1860128 -0.052493703
000140 df 8a 05 3b a3 b7 88 3c 92 3c b9 bd 67 ca 38 bc
       0.0020376963 0.016689127 -0.09044756 -0.011278725
000150 94 e8 d1 3d d7 fb 25 bd b3 44 0d be 70 46 80 bc
       0.10249439 -0.040523376 -0.13795738 -0.015658587
000160 e3 67 b7 3d f3 30 0a 3e 7a 12 98 bd a6 46 95 bd
       0.08955362 0.13495235 -0.07425399 -0.07288866
000170 d1 b8 76 bd 3b d4 96 bd 1f 89 ab 3d fe 2f a7 bc
       -0.06023485 -0.073646985 0.08375763 -0.020408627
000180 b2 0a d1 3d 15 d6 22 3e c0 17 11 3d a4 c1 56 3d
       0.10207118 0.15901978 0.03542304 0.052430764
000190 6d d7 d0 3d d1 96 72 bd a7 83 27 3c bf e8 87 bd
       0.10197339 -0.05922586 0.010224259 -0.0663619
0001a0 a3 ba 29 bd ff ee ee bc bb c8 d6 bc fd 5d 7b 3d
       -0.041437756 -0.029166697 -0.026218763 0.06136893
0001b0 63 52 dd bc 10 38 73 bd ae c0 68 bc 55 48 48 3c
       -0.027016824 -0.059379637 -0.014206095 0.012224277
0001c0 8d 9f 57 3e 5b 28 f3 3d 4e 7d 56 3d 9b f2 a8 bd
       0.21056958 0.118729316 0.052365594 -0.08249398
0001d0 80 35 b4 bd 89 69 1e bc 4c 9b 75 3d 16 dd 2e bd
       -0.08799267 -0.009668716 0.059962556 -0.042691313
0001e0 cc ec 08 bd 70 b5 9e bd 6e bf 35 3d e1 a5 45 bd
       -0.033428952 -0.0774945 0.044372015 -0.048253898
0001f0 7a 33 3f bd b5 40 36 3d d2 32 28 bd 54 1c 15 bc
       -0.04667995 0.044495303 -0.04106409 -0.009100992
000200 d5 1e 0e bd 79 c6 64 3d 14 c8 37 3d 9c e0 f4 bd
       -0.034697372 0.05585334 0.044868544 -0.11956903
000210 1a 2f e7 bd dd ca d4 bc 8e 69 37 3d 12 46 9d bd
       -0.11288281 -0.025975639 0.0447784 -0.076793805
000220 dc 5f 31 bd d2 d8 ac bd d5 be 9d 3c a7 7b 81 3d
       -0.04330431 -0.08439793 0.019256035 0.06322413
000230 cd 6b 1f bd 4f 41 a0 39 99 f9 b6 bd 81 6d 7a bd
       -0.038921166 0.00030566237 -0.08934326 -0.061139587
000240 2e 63 2e 3b f5 a9 63 3b db 7e 1a 3d f7 a2 b0 3d
       0.0026609409 0.0034738753 0.037718635 0.08624833
000250 f2 de 23 3d fd 68 13 bd 82 10 23 3d 49 09 1d 3c
       0.04000754 -0.035988797 0.039810665 0.009584733
000260 b2 05 dd bd 36 e4 0b bd 0e 76 21 3d ae 4f 00 3d
       -0.10792102 -0.034153186 0.039419226 0.03132599
000270 ed 07 07 3d bf ae 77 bd 87 7d 11 3d 00 cb 73 bc
       0.032966543 -0.060469385 0.035520103 -0.014879942
000280 09 b0 39 bd 36 fa 8c bc de f9 6f 3d 82 e6 a6 3c
       -0.045333896 -0.017209154 0.0585879 0.020373587
000290 66 4d 02 3d ed c1 eb 3b 4a b7 cb 3b 3e 6d e0 bc
       0.031812094 0.0071947486 0.006216918 -0.02739584
0002a0 0a 03 83 3d c5 78 87 bd 60 4e 95 3c 2f 97 37 bd
       0.06397064 -0.06614832 0.018225849 -0.044821914
0002b0 dc c2 79 3d fe c4 41 bd e6 b8 c6 3a 2a cd 07 3c
       0.060976848 -0.047307007 0.0015161305 0.008288661
0002c0 f5 2a a4 3d ab 42 05 3e 8d a0 c7 bc 52 02 8a bd
       0.08016006 0.13013713 -0.024368549 -0.06738724
0002d0 81 61 9d bd 2d 5d 18 3c b4 fd 1e 3d c5 fb ba bb
       -0.07684613 0.009299559 0.03881617 -0.005706283
0002e0 ca 53 6c 3d 6f bd 2a be ca d4 16 be 5c c1 9f 3c
       0.057697095 -0.16673826 -0.1472961 0.01950138
0002f0 c6 1b 7b 3b 0a e9 f3 3d d0 ba 0f bd 85 83 27 bd
       0.0038316115 0.11909683 -0.035090268 -0.04089691
000300 72 3f 13 3d 98 cd 81 bc 49 06 96 3d 55 b5 ff bc
       0.035949178 -0.015845105 0.073254175 -0.031214396
000310 bc 47 08 3e 94 ce 3d 3c 04 c7 5a bd c7 b8 a4 bc
       0.13308614 0.011584897 -0.053412452 -0.02010764
000320 c1 9f 20 bd 46 f5 9b 3d bc 68 f2 3d cb f1 99 3c
       -0.039214853 0.076151416 0.11836383 0.018792054
000330 f6 fb ff ba 6b e8 2b bd ff 4b e2 3d d3 b7 24 3d
       -0.0019530046 -0.041969698 0.11049651 0.04021437
000340 02 9c 8c 3d 26 bc 8e 3d 48 e9 f3 3c d5 d8 2b bc
       0.06865694 0.0696948 0.029774323 -0.0104887085
000350 cb b3 8b 3d 13 de aa 3c f6 26 07 3d 15 40 24 3d
       0.06821402 0.020857846 0.03299614 0.040100176
000360 a1 e9 6a 3d 94 1c c7 3d 8f 4a 19 3d a5 77 be bc
       0.057351712 0.09722248 0.03742462 -0.02325041
000370 27 79 bc bd 37 dc ad 3c d9 12 dd bb cd de 5f bd
       -0.092027955 0.02122317 -0.0067466316 -0.05465584
000380 e5 8e ca 3c 59 75 3f 3d c2 b9 05 3e 8e 3c 1c 3e
       0.02472634 0.04674277 0.13059142 0.15257475
000390 26 fa 13 3e c1 4d ce 3d 45 25 41 3c 20 62 53 bd
       0.14450893 0.10073424 0.011788671 -0.05160725
0003a0 da 3f 36 bd fe b1 b7 bd 8f 83 b7 3d db e0 64 3b
       -0.044494487 -0.08969496 0.0896064 0.0034924063
0003b0 eb 06 58 be 06 0f b6 be 17 2e 0f be 05 13 29 bc
       -0.21096389 -0.35558337 -0.13982426 -0.010319476
0003c0 20 65 bb 3d 0b e9 e5 bd 52 8d 34 be 59 ed 89 bd
       0.091501474 -0.1122609 -0.17632034 -0.067347236
0003d0 b3 0b 79 3d 87 16 ed 3d e4 b6 23 3d a5 ee f9 3d
       0.060802173 0.115765624 0.03996934 0.12203721
0003e0 e0 e4 8d 3d bf 1b 1e 3e 9d 33 c5 bd 41 45 98 3d
       0.0692842 0.15440272 -0.09628985 0.07435084
0003f0 a7 fb 28 3e 39 38 31 3e 72 7e 64 bd c7 cf 59 bc
       0.16502248 0.17306603 -0.05578465 -0.013294167

cnn_cells.stages.0.0.depth_conv.bias f4 [32]
000000 3f 38 74 3b 39 6c 02 3d 37 0c 49 3d c8 1e 5d bc
       0.003726497 0.03184149 0.049083915 -0.013496108
000010 7a d5 ff ba e0 34 36 3d 4e 0a 20 bd 36 e2 5f bb
       -0.0019518577 0.04448402 -0.039072327 -0.0034161932
000020 28 58 20 bd 5e 94 e2 bc 59 49 f5 bb 75 ef 25 3d
       -0.039146572 -0.027658638 -0.0074855504 0.040511567
000030 a3 d0 35 3b 25 bc c5 3c 85 a1 1f bc c4 23 75 bc
       0.0027742765 0.024137566 -0.009743099 -0.0149621405
000040 86 1d f3 bc f7 44 20 3c 16 4c 28 bd be 18 b8 bb
       -0.029677164 0.0097820675 -0.041088186 -0.005618184
000050 ad 8f d5 3c eb b6 f1 3b 79 c1 2b 3a 4e 8e b3 bb
       0.026069487 0.007376542 0.0006551962 -0.0054796105
000060 40 d9 06 bc 29 91 21 3d 7f a4 0f ba 41 b2 38 bb
       -0.008230507 0.039445076 -0.0005479529 -0.002818242
000070 50 7b a3 bb 55 ce 04 bc 04 f3 d8 3b 57 95 29 bb
       -0.004989065 -0.008105834 0.0066207666 -0.0025876367

cnn_cells.stages.0.0.norm.weight f4 [32]
000000 9c e1 cc 3e c2 9e 32 3f b8 2b 3a 3f 50 13 4e 3f
       0.40015876 0.69773495 0.7272296 0.8049822
000010 9a 4b 2c 3f 84 eb 41 3f 4c 44 33 3f a8 96 31 3f
       0.6730286 0.75749993 0.7002609 0.6937051
000020 5f ac 44 3f 52 ed 84 3f 11 30 51 3f db 5f 42 3f
       0.7682552 1.0384924 0.8171397 0.75927514
000030 9e d9 2e 3f 75 71 66 3f 5f ca eb 3e 16 59 35 3f
       0.6830081 0.9001687 0.46052834 0.7083906
000040 70 4a 72 3f aa 79 64 3f b5 ca 45 3f 4e 6d 35 3f
       0.9464483 0.89248145 0.7726243 0.7086991
000050 28 79 3b 3f 20 4d 14 3f 8f b7 f8 3e a4 e1 56 3f
       0.73231745 0.57930183 0.48577544 0.8393805
000060 c3 72 75 3f e8 4f 32 3f 30 d5 5a 3f 6e e3 46 3f
       0.9587824 0.6965318 0.8548155 0.7769078
000070 1e 79 28 3f 2d 12 3a 3f f3 25 4d 3f e3 fb 75 3f
       0.6580981 0.72683984 0.8013603 0.96087474

cnn_cells.stages.0.0.norm.bias f4 [32]
000000 13 32 e8 bb 56 87 f5 bd bc e0 20 be 89 7d 60 3d
       -0.0070860474 -0.11988704 -0.1571073 0.05480722
000010 c8 05 9f 3d 44 c6 b6 bd 18 9c 32 3e 75 e9 69 3c
       0.077647746 -0.08924535 0.17442358 0.014276852
000020 de c5 a4 3d d7 f3 82 bb 87 bd 05 3e d2 45 01 be
       0.08045553 -0.003996353 0.1306058 -0.1262429
000030 aa e1 c9 3d 02 a7 7f bd 07 fe e6 3d ca da a5 3d
       0.09857495 -0.06241513 0.112789206 0.08098371
000040 31 c6 86 3d ef 4f 5a bd 41 b2 45 3e 1e 09 8f 3d
       0.06580771 -0.053298887 0.1930628 0.06984161
000050 8e bd e8 bd ac bb bf bc 64 62 a1 bb bc 49 d3 3b
       -0.1136428 -0.023404919 -0.004925059 0.006447999
000060 7e b9 77 3d 51 31 ff bd fe b7 69 bc bc c4 07 3d
       0.060479634 -0.12460578 -0.014265059 0.033146605
000070 43 95 bd 3d 3c 51 29 bc df 7e 2e bd ea 4b 3f 3d
       0.09256985 -0.010334309 -0.042601462 0.046703257

cnn_cells.stages.0.0.conv1.weight f4 [128, 32, 1, 1]
000000 b8 15 60 bd bb 73 82 be 80 b5 f3 bd 51 f3 88 bc
       -0.054708213 -0.2547892 -0.11899853 -0.016717585
000010 f9 4e bf bd 2b b1 23 be 5f 1e 02 3e c1 28 0e bd
       -0.09341235 -0.15985553 0.12706898 -0.034706835
000020 95 6a 88 3e b5 3e 13 be 78 ea c7 bd fe 42 3f 3d
       0.26643816 -0.1437939 -0.09761518 0.046694748
000030 ba 0f 25 3e ff 4e 24 3e a0 e9 09 3e 94 f8 f0 bd
       0.1611928 0.1604576 0.13468027 -0.117661625
000040 77 b5 72 bd bc a3 a8 3d 0c 76 02 3e cf b0 07 be
       -0.05925509 0.08234355 0.12740344 -0.13251041
000050 0e b0 17 bd 44 06 86 bd 63 6e 60 3c d8 53 f4 3b
       -0.037033133 -0.06544164 0.013698193 0.007456284
000060 b6 4a a3 bd d4 ce 9b 3c 18 76 01 3e bb d2 26 be
       -0.07973234 0.019019522 0.12642705 -0.16291325
000070 d2 44 e2 bd 8c 64 1f bc 2c 76 f9 bd 76 d6 14 3e
       -0.11048283 -0.009728562 -0.121807426 0.14534935
000080 3a ff 15 3d 0f 05 d0 3d 27 a8 07 3e 5c c1 8c 3d
       0.036620356 0.10157215 0.13247739 0.06872818
000090 8e 96 63 be 34 99 12 bd c3 79 9e bc 2c 85 47 3d
       -0.22225401 -0.035790637 -0.01934517 0.048710987
0000a0 ed 72 da bd 64 82 3f 3e 66 d9 aa bd 07 a6 08 bd
       -0.106664516 0.18702084 -0.08342247 -0.03336146
0000b0 b4 34 8f bc 68 5d 20 3e 81 3e 72 bd 78 a2 be bc
       -0.017481185 0.15660632 -0.05914164 -0.02327083
0000c0 51 39 30 be 76 60 11 3e 0f 85 fc bd b4 ff d5 3c
       -0.17209364 0.14196953 -0.123300664 0.026122905
0000d0 a4 61 dd bd 14 98 f0 bd bd bf 07 be 0b e5 ed ba
       -0.10809639 -0.117477566 -0.13256736 -0.0018149925
0000e0 f2 c5 86 3c 0a 69 01 be 3e f8 44 be 3f f4 2b bd
       0.01645181 -0.12637725 -0.19235322 -0.041980978
0000f0 1f bc 0f 3d 77 d6 6f 3d c3 90 bf bd b6 f8 3d bd
       0.035091516 0.05855414 -0.09353783 -0.046379767
000100 cc 67 40 3c 34 ab 83 bd 68 d0 76 3d e2 5e 8a bd
       0.011743497 -0.06429139 0.060257345 -0.06756379
000110 02 89 bb 3d 23 87 1b 3e 51 03 34 be 94 01 44 3e
       0.091569915 0.1518827 -0.1757939 0.19141227
000120 1c 3a b9 3d 81 b7 36 3d 0f 48 1f 3d 73 76 f2 bc
       0.090442866 0.044608597 0.03888708 -0.029597497
000130 85 69 c2 bd b2 32 a0 bd 4d e6 00 3d 36 d7 b9 bc
       -0.094927825 -0.07822169 0.031469632 -0.022685628
000140 15 2d b2 3d aa 08 11 3d 50 e5 9e 3d 90 aa a2 bc
       0.08700005 0.035408653 0.07758582 -0.019856721
000150 69 35 1f 3e 53 1d 18 3e 1a 58 43 3d 16 c4 b0 3d
       0.15547718 0.14854936 0.047691442 0.086311504
000160 05 f7 96 3d e1 83 00 3e aa 76 eb 3d b4 4a 53 bd
       0.07371334 0.12550308 0.11497243 -0.051584914
000170 57 89 77 bd 25 fe 2a 3e a2 95 26 3d ee 8c a1 3d
       -0.06043371 0.16698511 0.040670045 0.07888208
000180 86 82 aa 3d 13 63 ba bd bf ce da bd 36 06 03 3e
       0.083256766 -0.09100928 -0.10683965 0.12795338
000190 89 e1 fc 3b b6 da b5 3d 84 d7 29 bb b7 12 20 bd
       0.0077173156 0.088796064 -0.002591581 -0.039080348
0001a0 40 da 0e 3d cc 8d 00 3d b5 9e c5 bc 3c bc 4e 3d
       0.03487611 0.031385228 -0.024123529 0.050472483
0001b0 a1 9e 3c be 5a 29 ac 3d 80 94 ed bc 0f 9e f5 3d
       -0.18419887 0.08406325 -0.029001474 0.11993038
0001c0 80 64 8d 3e 62 a0 78 bd f1 7e 59 3e 52 52 ec 3c
       0.27615738 -0.060699828 0.2123983 0.028847847
0001d0 c4 f4 f3 bd d9 7a 69 3d 7a ae 0f bd 60 e7 f3 bc
       -0.1191192 0.057001922 -0.035078503 -0.029773414
0001e0 5f b5 0f 3e bc 0f 0a be e5 7e 36 be fb 5c b7 3d
       0.14034031 -0.13482565 -0.17821844 0.089532815
0001f0 7a 8b 0b be 04 db 07 3d b2 76 6a be 54 cc 86 3d
       -0.13627425 0.033167854 -0.22896841 0.06581941
000200 57 22 bb bd dd 87 22 3d 66 41 9a bc e4 ac 4b 3e
       -0.09137409 0.03968035 -0.018830013 0.19890171
000210 f7 74 b5 bd ac b5 e4 3d 32 67 aa bd 48 58 1c be
       -0.088602 0.11167464 -0.08320464 -0.15268052
000220 39 b2 fd bc 56 cb a6 3d 2b 03 cb bc 71 da b7 3c
       -0.030968772 0.08144252 -0.024781784 0.022443028
000230 1d 74 ad bd 3e e9 54 be a2 b1 c6 bd c2 4c 20 3e
       -0.084694125 -0.207921 -0.097018495 0.15654281
000240 59 a7 d0 3d 2f e1 79 be 73 2f ed 3d b0 98 0b be
       0.10188169 -0.24402307 0.11581316 -0.13632464
000250 fa 04 2f 3e c2 ed 0a be b1 29 d1 3d da d3 cb 3d
       0.17091742 -0.1356726 0.1021303 0.09952517
000260 9a 1c ed bd d2 f5 d6 3d ca 5c d7 bd d6 0b 05 3e
       -0.11577721 0.10496105 -0.10515745 0.12992796
000270 56 04 d1 3d 49 59 c6 bd 19 57 fa 3b 21 9c 65 be
       0.10205905 -0.096849985 0.0076397774 -0.2242284
000280 5e a2 f9 3d 47 77 d3 3b ad c7 d8 3d 1f 2c c5 3d
       0.12189172 0.006453428 0.1058496 0.09627556
000290 a3 83 07 3d 33 c8 0c 3e 49 e8 e7 3d cc a5 02 be
       0.033084523 0.13748245 0.11323602 -0.12758559
0002a0 96 6c 51 bd 69 06 51 3c 94 78 c2 3d b5 54 63 bd
       -0.051128946 0.012757876 0.09495655 -0.055500705
0002b0 b9 da b8 bd 34 47 c3 bd aa a2 90 3d db e1 c4 bd
       -0.09026093 -0.09535065 0.07062276 -0.09613391
0002c0 ee 0c d6 3d 1c d0 48 bd a4 b6 7b 3d 0d da 1e 3b
       0.10451685 -0.049026594 0.061453477 0.0024238855
0002d0 69 00 51 3e 6e 46 ea bc b0 e5 47 bd dc ca 28 3d
       0.20410313 -0.028598037 -0.04880303 0.041209087
0002e0 a6 59 01 3d 7b 44 03 3e e8 b4 0b bd d8 d9 d6 bd
       0.031579636 0.12819092 -0.034108073 -0.10490769
0002f0 a6 bb 21 bd dc d4 ad bd 5e 83 da 3d 67 e7 66 be
       -0.039485596 -0.08487865 0.106695876 -0.2254921
000300 49 58 3f bd 5e 9e a5 bb 51 d3 fd bd 9a c9 c1 3d
       -0.046715055 -0.005054279 -0.12393821 0.094622806
000310 64 87 e5 bc 21 60 dc 3d 6f 8f 30 bd 40 88 75 3d
       -0.02801866 0.10760523 -0.04310554 0.05994439
000320 f4 7e f8 3d 0f d7 0f 3e ec 31 16 be 2a eb f3 bd
       0.121335894 0.14046882 -0.14667481 -0.11910088
000330 9a dc 14 be 54 46 d9 be 23 59 74 3d 94 c2 12 bd
       -0.14537278 -0.4243647 0.05965532 -0.035830095
000340 23 d6 5f 3d 9c a2 69 be ee 6c 8f 3e 9d 12 04 3c
       0.054647576 -0.22815937 0.28012794 0.008061078
000350 e9 0d b5 bd 4d d7 14 be 65 79 1e be 60 8b f6 3d
       -0.08840544 -0.14535256 -0.15475996 0.120383024
000360 e2 fc 3a bd d3 42 03 be bf 38 db 3d 75 b2 f6 3d
       -0.045651324 -0.1281846 0.10704183 0.12045757
000370 92 22 1d 3e 18 31 26 3e 83 01 1c be e6 c9 8a bd
       0.15345219 0.16229665 -0.15234952 -0.0677679
000380 e0 52 ed 3b 43 4a 91 bd b1 fd 91 be 04 eb a0 3d
       0.0072425455 -0.070942424 -0.28513864 0.07857326
000390 d5 65 02 be 44 98 9d bd 69 a8 24 3e 79 7c c1 3d
       -0.12734158 -0.07695058 0.16079868 0.094475694
0003a0 12 11 31 be f6 15 c3 3d bf 54 17 bd 01 18 0f bf
       -0.17291668 0.09525673 -0.036946055 -0.55896
0003b0 f9 6e d4 3d eb 1e b7 bd 21 8c 62 3d 17 fd df bc
       0.10372729 -0.08941444 0.05530942 -0.027342362
0003c0 7f 3a 12 3f f3 17 84 be 8a c5 fc 3e 27 a0 56 bb
       0.5712051 -0.25799522 0.4936946 -0.0032749267
0003d0 9a 15 68 be da 28 33 be 1f bb 52 bb fd 69 18 be
       -0.2266449 -0.17496052 -0.003215499 -0.14884181
0003e0 70 35 a2 3d 4d 28 96 be 73 6b 60 3d f4 47 f7 3d
       0.07920349 -0.29327622 0.05478997 0.12074271
0003f0 c1 b6 8d 3e 93 33 de 3d 63 dc 88 bd 49 36 3e be
       0.27678493 0.10849681 -0.066826604 -0.18575396

cnn_cells.stages.0.0.conv1.bias f4 [128]
000000 8c 3b af bb 84 57 bd bd 2a 78 14 bd ff 34 d1 bc
       -0.0053476747 -0.09245208 -0.03624741 -0.025537966
000010 cc 46 db 3c ae 3f 84 bd 48 58 b7 bb 1e af 9b bc
       0.026767157 -0.064574584 -0.0055952407 -0.0190044
000020 46 46 ff bb 2a b8 e5 3a e3 0c 6f bd d9 b8 de bc
       -0.0077903597 0.0017526199 -0.0583619 -0.027187752
000030 61 34 6c 3b 97 d5 60 bd 21 79 cc bd d0 44 a7 bb
       0.0036041962 -0.054891195 -0.09984041 -0.0051046386
000040 ac a7 02 bc 05 67 aa bc 95 af 65 bd 9f 28 72 bd
       -0.007974546 -0.020801077 -0.05607565 -0.05912077
000050 10 fe 00 3c 96 1b a8 3c 09 a1 bb bc 17 5d 2a bb
       0.007873073 0.020520967 -0.022903936 -0.0025995427
000060 f4 89 53 bd df c3 68 bd 2e 52 28 bd e0 6b 1c bd
       -0.051645234 -0.056827422 -0.041093998 -0.038188815
000070 e2 c7 f1 bc b0 e9 29 bd 7c ff ac bc 78 07 d8 bc
       -0.029514257 -0.041482627 -0.021117918 -0.026370749
000080 d8 29 b7 bd 0a b8 8e bc 80 dd 32 bd c1 cd a9 bc
       -0.08943528 -0.017421741 -0.04366827 -0.020727994
000090 b0 ad 41 bc 8d 6a e7 bc 10 0d 0f bd c7 d7 a4 bd
       -0.0118211955 -0.02824905 -0.034924567 -0.08048969
0000a0 ba 8c d0 bc 33 27 fa bc e5 0f 75 bd 7a 36 ad 3c
       -0.025457729 -0.03053627 -0.05982961 0.02114414
0000b0 e9 ff 95 bc 00 a2 96 bc 43 3c a2 bc f8 d1 02 bd
       -0.018310504 -0.018387794 -0.019804126 -0.031938523
0000c0 ac 79 de 3c ee 51 09 bd f0 42 54 bd a1 19 5c bd
       0.027157627 -0.0335254 -0.05182165 -0.05373538
0000d0 f7 41 71 bd 3b a7 5d bd 34 ae f2 bc 4f 2a 38 bd
       -0.0589008 -0.05411456 -0.029624082 -0.044962224
0000e0 76 cd f2 bc ca 0c cf bc a4 41 a5 bd 9d 06 50 3c
       -0.029638987 -0.025274653 -0.080691606 0.012696889
0000f0 91 97 2a bc 90 25 bb 3b e6 42 69 bc a1 eb 1a bd
       -0.010412113 0.005711265 -0.014237141 -0.03782237
000100 e8 5f 05 bd b5 5e 19 bd 12 93 d4 bc 9f 17 82 bd
       -0.032562166 -0.037443835 -0.025949035 -0.063521616
000110 79 4b 54 bd cf 88 b2 bd c8 73 61 bd cd 53 a2 bc
       -0.05182979 -0.087175004 -0.05504206 -0.01981535
000120 26 11 03 3d 24 fd cf bc 14 59 1a bd 17 4b 79 bd
       0.031998776 -0.025389262 -0.037682608 -0.060862627
000130 e3 95 28 3c 65 6c 0d bd e1 f7 ca bb db 5d b8 bc
       0.010289642 -0.0345272 -0.0061941002 -0.022505691
000140 19 77 0f 3d 35 43 b4 bd c9 bb 86 bd 0f a6 aa 3a
       0.03502569 -0.08801881 -0.06578786 0.001301946
000150 ff 40 d0 bc 70 77 0f 3d 70 71 9f bd 80 2a 55 bd
       -0.025421618 0.035026014 -0.07785308 -0.052042484
000160 d5 6d 37 bd 2a 81 6f bd af f8 34 3d ef 79 55 3c
       -0.04478248 -0.05847279 0.044182476 0.0130295595
000170 f8 b8 1d 3c b4 6f 8c bd 0d 85 6f bd fd e9 9c bd
       0.0096266195 -0.06857243 -0.058476496 -0.07661817
000180 6b ce cb bc 6d a5 36 bc 1c 35 4e bc b3 c8 d2 bc
       -0.024878701 -0.011147839 -0.012585904 -0.025730466
000190 d6 ae 9a bb 9f 3c bc bb 82 d7 9f bd e4 02 f7 3b
       -0.004720549 -0.0057445313 -0.07804777 0.0075381864
0001a0 0e 07 a1 bc 56 6a 17 bd 04 1c 33 3b 85 d0 e7 bc
       -0.019656684 -0.036966644 0.002732993 -0.028297672
0001b0 13 b4 94 bd 5b b4 85 3b f3 26 7b bd 6e e2 21 3d
       -0.07260909 0.004080338 -0.06131644 0.03952258
0001c0 77 58 d2 bc b4 d4 60 bc 2f a8 17 bd 66 22 b0 bd
       -0.025676949 -0.013722587 -0.037025627 -0.08600311
0001d0 ad 70 55 3c 93 34 93 bd ec d4 5e bd 85 47 62 bc
       0.013027352 -0.07187762 -0.054402277 -0.013810997
0001e0 5b 93 08 3d 50 43 24 3d b7 61 4d bd 94 a0 89 bd
       0.033343654 0.040103257 -0.050142016 -0.06720081
0001f0 dc 03 ca bc 56 56 1b bd 20 a6 92 bc 91 ab 2e bd
       -0.024660043 -0.037924133 -0.01790148 -0.042644087

cnn_cells.stages.0.0.conv2.weight f4 [32, 128, 1, 1]
000000 23 89 85 bc a0 e0 a2 bd fe bd 64 3c ca ed 38 3c
       -0.016300743 -0.07953 0.013961313 0.011287162
000010 ef 86 27 3e 58 59 93 bd 59 53 18 3e 31 4c 74 3e
       0.16360067 -0.07194775 0.14875545 0.2385719
000020 ce e9 34 bd ac b9 01 3c 4d 48 ac bd 47 46 3c 3e
       -0.044168286 0.007917803 -0.08412228 0.18386184
000030 18 e3 be 3d 39 9c 07 be 57 fd ea 3d 38 a7 28 3e
       0.093206584 -0.13243188 0.11474102 0.16470039
000040 4a c7 e0 3c 74 d2 40 3d 6b 0c bc bd f2 87 10 3c
       0.027438778 0.047075704 -0.09182056 0.008821474
000050 2f 00 52 3e 41 aa 00 bd e6 2b eb 3d b1 72 5c bd
       0.20507883 -0.031412367 0.11482982 -0.053820316
000060 ff dd 18 3e 0c c0 50 3e 93 17 16 be e0 5c 4f be
       0.14928435 0.2038576 -0.1465743 -0.20250273
000070 2a 4c fe bc a6 95 d6 bd 7d 5e 49 3d c5 7a 6c bd
       -0.031042177 -0.10477762 0.049162377 -0.05773427
000080 1f 8b 83 bd ba c4 59 bc f5 42 d8 bd 4f 9f f1 bc
       -0.064230196 -0.013291532 -0.10559646 -0.02949491
000090 3f a7 f5 3d 22 5c b7 bd 31 2c 28 bc 9c 79 d7 bd
       0.1199479 -0.0895312 -0.010264442 -0.10521242
0000a0 21 f3 bf bc 09 f8 d7 3d 40 47 62 be 6c 59 4a 3d
       -0.023431363 0.10545356 -0.22097492 0.049401686
0000b0 1d d9 20 be ea f1 cd bd 3a c8 15 3e ed 5c 3d bd
       -0.15707822 -0.10055907 0.14627162 -0.0462312
0000c0 84 b2 ce 3d 1a 74 44 3d 3f 8e fb bc 3a 94 b9 3d
       0.10092643 0.047962286 -0.030707477 0.09061475
0000d0 26 00 57 be c7 59 fd bd 15 30 10 3d 87 17 d6 3d
       -0.2099615 -0.12370639 0.035202105 0.10453706
0000e0 a4 c2 07 3e 40 8a 05 3e b2 cc b3 3d bd 77 39 bd
       0.13257843 0.1304102 0.08779277 -0.045280207
0000f0 b6 eb 34 3e c4 7c c5 bd 60 83 e7 bd 48 08 39 bd
       0.17668042 -0.09642938 -0.11304355 -0.045173913
000100 1d 5b ae bd 92 05 a6 3d e2 b2 03 3e e4 fd 41 3d
       -0.08513472 0.08106531 0.12861207 0.04736127
000110 ab 2d c3 bd 76 2c 49 3d ab c5 8a 3d 1c 92 f2 3b
       -0.09530195 0.049114667 0.067759834 0.0074026715
000120 7e 90 e8 bd f4 ea 44 3e 6f 88 87 3d e7 32 05 3e
       -0.11355685 0.19230253 0.066178195 0.13007699
000130 45 25 46 bc a1 4a 63 3e 87 f6 bf 3d 6c 14 9f bd
       -0.012093847 0.22196437 0.09373193 -0.07767567
000140 4e 61 b5 bc 38 f3 03 bd 23 fd 00 3d db d3 f8 3b
       -0.022141125 -0.032214373 0.03149141 0.0075936145
000150 c7 d7 eb 3d be 05 40 3d 22 26 2a be 9d 38 6d 3d
       0.11515766 0.046880476 -0.16616109 0.05791532
000160 75 f5 34 3c c7 e2 80 3d 04 d1 7a be 9d f7 f6 3c
       0.01104485 0.06293254 -0.24493796 0.030147368
000170 c9 34 8a 3e 77 db 33 be b4 1e 09 be 2a d9 f7 3d
       0.26993397 -0.17564188 -0.13390619 0.12101968
000180 73 5e 51 3e 49 79 1b ba e8 e2 95 3e e2 ad c9 bc
       0.20446186 -0.00059308537 0.29274678 -0.024619047
000190 2c 73 29 3d 5e 1f 61 3e 64 d8 f5 bd b1 e2 0a be
       0.041369602 0.21984622 -0.12004164 -0.13563038
0001a0 28 99 4c bd 2e f7 9f bd 6a a0 e9 3d 39 2a a1 bc
       -0.04995075 -0.07810818 0.1140755 -0.019673454
0001b0 57 1d 9a 3d b0 33 fd 3d cc f2 da 3d f3 1a a8 3d
       0.075251274 0.12363374 0.10690841 0.08208265
0001c0 fc 84 3b 3d 3b 8e 47 bd e0 d2 8b be eb d9 2f be
       0.04578112 -0.048719626 -0.27309322 -0.17172973
0001d0 73 5a e8 3d 90 60 f2 3d 23 5f d8 bd 5b 81 43 3e
       0.11345377 0.11834824 -0.10565021 0.19092314
0001e0 ec 66 de bb 10 8a 81 be ba 76 0b 3e a3 88 37 bd
       -0.0067871716 -0.25300646 0.1361951 -0.04480804
0001f0 40 ed 87 bb 9b 07 24 bd cd 65 d2 3c 8f be 08 3e
       -0.0041481555 -0.040046316 0.025683308 0.13353942
000200 16 f2 6d 3e 36 4d 9c bd 88 1e 89 bd c0 26 c0 3d
       0.2323688 -0.07631914 -0.066952765 0.09382391
000210 6c eb 3f bd 02 48 05 3d ba cf a1 3c 1f 7a 50 3e
       -0.046855375 0.032539375 0.019752372 0.20359086
000220 6f dc da 3b c5 56 eb bd ef c8 8b 3c a8 0a 6b 3b
       0.0066791098 -0.11491159 0.017063586 0.0035864506
000230 8e a3 75 bd cb 8b b8 3c 2c 4d 34 3d 1f 6c d3 3d
       -0.05997043 0.022527596 0.04401891 0.10323357
000240 76 b9 8c bd 98 41 53 3d fb ce ab bd 16 9f fc bd
       -0.06871311 0.051576227 -0.08389088 -0.12335031
000250 d7 dc 86 3e 02 48 8c 3c b0 a6 4f bd 75 0c a6 3d
       0.26340362 0.01712418 -0.050696075 0.08107845
000260 37 e0 03 3e 88 5a 6c be 81 e6 b4 3d 13 9a 08 be
       0.128785 -0.2308141 0.08833028 -0.13340025
000270 5b f9 72 bd 22 a0 8c 3d 23 c1 89 bc 0d 03 af bd
       -0.059319835 0.068664804 -0.016815728 -0.08545504
000280 d5 30 97 3d 47 55 8e bc d9 45 60 bd 05 3e b3 bc
       0.07382361 -0.017374648 -0.054754112 -0.02188016
000290 a9 2f 46 3e e1 ff c1 3d b9 9d bc 3d f9 44 f7 3d
       0.19354118 0.09472633 0.09209771 0.12073702
0002a0 87 a5 f1 bc 48 ba d4 3d 97 16 3d be 0c 2b 03 3e
       -0.029497875 0.10387093 -0.18465649 0.1280939
0002b0 d6 a6 25 3d 59 a9 36 3e de da 4a bd 3d 79 77 bd
       0.04044231 0.17838039 -0.049525134 -0.060418356
0002c0 2c fd 1c 3d cf 33 ad bd bc 68 07 be 94 b2 33 be
       0.03832738 -0.08457147 -0.13223547 -0.17548591
0002d0 60 76 cf bd 65 de b7 bd 9f 0b e0 bc c0 bb 6d bd
       -0.1013 -0.08977965 -0.027349291 -0.05804038
0002e0 8d dc 4a be ff 8d 77 bd 19 a6 4a 3d 65 bc d7 3d
       -0.19810696 -0.060438152 0.04947481 0.1053398
0002f0 d1 a6 8e 3e e2 6c 54 3d 42 82 4b bb 32 88 e4 3d
       0.27861646 0.05186165 -0.0031052982 0.1115879
000300 0c 4b ca bd b3 60 9b bd a1 1e 4e bd d0 9c 08 3d
       -0.09877595 -0.07586803 -0.05032218 0.033352673
000310 00 19 e7 bc d2 2e ea bd 4c b8 0e 3a 14 9e 9f 3d
       -0.028210163 -0.114347115 0.00054443325 0.07793823
000320 f5 41 64 be 3d 5c a5 3d 04 b5 58 3e 11 76 ad 3d
       -0.22290786 0.08074234 0.21162802 0.08469785
000330 be ab 75 3d 4f 9e 2d 3e 69 8a 15 be 0a 74 85 bd
       0.05997824 0.16954921 -0.1460358 -0.06516273
000340 2c c8 3c 3e fa 8e 7f 3e 47 66 42 bd c2 c9 cb 3d
       0.18435735 0.24956885 -0.04746082 0.099505916
000350 65 16 2b 3c 28 2f 8b 3d 09 cb b6 bd 0c 31 8b bd
       0.010442351 0.06796104 -0.08925445 -0.06796464
000360 30 1e 8b 3d 9f a8 df bb 83 e3 80 bd fa 71 ed 3d
       0.06792867 -0.006825521 -0.062933944 0.11594005
000370 11 d9 93 bc d0 e2 73 bd aa f6 e3 bd 3a e2 af 3d
       -0.018047841 -0.059542477 -0.11131032 0.08588071
000380 1f 59 23 3e e6 3c 1e 3e d0 72 3c 3e 17 d2 de 3c
       0.15951966 0.15452918 0.18403172 0.027199788
000390 1d a8 99 bd 89 7a 4c 3d ad e1 14 be c4 cc 08 bc
       -0.07502768 0.049921546 -0.14539213 -0.008349601
0003a0 3f ae ff 3d 94 42 18 3c 11 01 b8 3c a3 b6 c2 bd
       0.12484407 0.009293217 0.022461446 -0.095074914
0003b0 dc 86 18 be 45 13 c3 3d 38 23 f0 bc 0b 03 5c 3d
       -0.14895195 0.0952516 -0.029313669 0.05371384
0003c0 e9 3b 28 3e 78 6c 1f 3d 9c 0a 39 3c 4f 14 c6 3d
       0.16429104 0.038921803 0.011294033 0.09671842
0003d0 83 9b c4 3c 57 7e 5e bd d2 1f 1e bd fd a9 37 bd
       0.023999935 -0.054319706 -0.038604565 -0.044839848
0003e0 c5 15 67 bd 0c cf 02 3e 7c d5 d4 bd 80 18 f8 3d
       -0.056417245 0.12774295 -0.103922814 0.12114048
0003f0 33 83 9a 3c f8 c0 1d 3e 6c c9 b6 3d 2f 8d ac bd
       0.018861389 0.15405643 0.08925137 -0.08425366

cnn_cells.stages.0.0.conv2.bias f4 [32]
000000 1a 82 82 3c 7d 42 bc 3c 59 7d e3 3a fc ba e6 3c
       0.015931178 0.022980923 0.0017356082 0.028165333
000010 15 45 63 bb 7f d9 59 3c 9a 11 97 ba 2c b4 87 bc
       -0.0034678627 0.013296484 -0.0011525631 -0.016565405
000020 6a a0 ea 3c fc 97 dc 3c de 22 74 bc 5b 11 2f 3c
       0.028640945 0.02692794 -0.014900891 0.01068529
000030 51 7a 8b 3b 0b d1 6a 3c 06 9c cf bc 1f b2 ce 3c
       0.0042565246 0.014332066 -0.025342952 0.02523142
000040 a4 b6 a3 bc 96 c5 8a 3c ef de 6e bc f6 66 60 bd
       -0.01998455 0.01693992 -0.014579519 -0.05478569
000050 c6 fb c1 bc f0 8e 66 bc 0c be e5 3c c5 8d 17 3b
       -0.023679625 -0.014072165 0.028044723 0.0023125273
000060 a1 0c 0f bb 8f ef f7 3c 43 ca 80 3c 1d 1c 0b bc
       -0.0021827596 0.030265598 0.015721446 -0.008490589
000070 b3 79 05 3c e3 2e 50 bd 41 4b 85 bc bd f6 d8 3c
       0.008146691 -0.050825965 -0.016271235 0.026484841
