time_evolution/models/ConvNextFramePredictor_v3/model_weight.ckpt (torch, 701540 bytes, 70 tensors)

encoder.downsample_blocks.0.0.weight f4 [32]
00000000: f695 573f 25b2 673f 16ca 783f 3eef 583f
00000010: 3220 643f 4800 723f 1dfd 683f 3638 5c3f
00000020: adc1 683f 6555 673f 4c0b 623f ceb3 623f
00000030: fe9f 533f 1801 683f 1b20 623f e00e 7a3f
00000040: cb3c 603f b00c 7e3f 9a57 613f 1228 713f
00000050: 8283 5a3f 420f 6f3f 4e7d 663f 4f5e 713f
00000060: 3c8d 4e3f 5a8c 623f 37af 563f 65ee 4c3f
00000070: 8694 683f b861 6c3f d3f7 623f 641d 6a3f
0.842132 0.905062 0.9718336 0.84740055 0.89111626 0.9453168 0.9101122 0.8602327
0.90920526 0.90364677 0.8829849 0.8855561 0.82666004 0.9062667 0.8833024 0.9767895
0.8759276 0.9923811 0.88024294 0.9420177 0.85356915 0.93382657 0.9003495 0.9428453
0.80684257 0.8849541 0.83861107 0.8005126 0.9085163 0.92336607 0.886594 0.91451097

encoder.downsample_blocks.0.0.bias f4 [32]
00000000: c9e5 30bc 7919 4dbd fed2 373c 8de9 04bc
00000010: 45d7 18bc b31a 1cbd 368a 8d3b 12ab 4f3c
00000020: 3841 4a3c 0f14 853c d33e b9bb 9a67 2d3c
00000030: c4e9 6c3d 1f9a 903c a8ea 593d 73eb ab3c
00000040: cf75 dbbb e0e8 6fbc 9bbd e1bc f387 3abb
00000050: b846 22bb 49c3 23bd 919f 833c 3f0a cd3b
00000060: e42c d8bc 1c80 073b 6cc4 7ebb 9fb7 7cbd
00000070: fda5 0abd 2b80 b43c 3776 e8bc 5200 213d
-0.010796973 -0.05007312 0.011219738 -0.0081123235 -0.009328668 -0.0381114 0.0043194545 0.012675064
0.012344651 0.016244916 -0.005653241 0.010583783 0.057840124 0.017651616 0.0532023 0.020986294
-0.0066973935 -0.014642924 -0.027556231 -0.002846238 -0.002476139 -0.03998116 0.016067298 0.006257325
-0.026388593 0.0020675724 -0.00388744 -0.061698552 -0.033849705 0.022033771 -0.028376682 0.039306946

encoder.downsample_blocks.0.1.weight f4 [64, 32, 2, 2]
00000000: 62ad bcbd 79f2 8abb 972c 243c fddd b5bc
00000010: 87b2 9abd fcf5 3f3d 7d57 0dbd 7b81 f03a
00000020: c678 b13d e55e c83c 4ae8 6ebd cf11 6fbd
00000030: e730 0a3d b301 76bd b10a d1bb 87c3 f43b
00000040: bb64 48bc 1fbc 09be ffc7 e6bd 1142 f63d
00000050: f327 663d 4a12 abbd c0af 0c3b bee7 d8bd
00000060: da8b 68bc ad41 0c3d c830 c73d 2034 4cbd
00000070: 7306 3bbd d664 5bbd e283 c7bc ee16 ae3d
00000080: f8e7 d63d 3121 72bd 6dfa 703d c85b c9bd
00000090: fbd1 c63b 2b04 633d fede a43d 58e1 b7bd
000000a0: 6d60 a4bd 88e5 acbc e642 e6bc 66d9 a5bd
000000b0: c15d 3a3d 718f 893d 78fa b7bd 3ab7 8e3c
000000c0: 5f09 b6bd 7230 5c3d 7c8f a9bd c837 93bd
000000d0: e545 e83d c264 423d f743 9abc dd2d 2a3d
000000e0: ab18 84bc f960 a63d 66a9 87bd 456e d5bc
000000f0: 63b8 9d3d 3695 aabd 520c 3dbd 4074 41bc
00000100: 6cb3 96bb f058 783d b881 fc3c c964 fdbd
00000110: 45d5 193e 3033 b1bb 7405 fcbc 1a93 3ebd
00000120: aa21 033d 6274 c13c cfbb 3e3d a693 1abd
00000130: bc56 74bd 3995 513c 31ff e03d 5ad4 a4bc
00000140: 946b 13bd 33bf 77bd 3b4a 0dbd 85bd b73c
00000150: 1705 843d 7aaf f93d cdbc a9bd 56d0 8dbc
00000160: 820d e93d 1b1a e5bd e40f aa3d 33a7 88ba
00000170: 08f0 06bc ef20 8dbd 5207 4f3d c4ec 803d
00000180: afcd c5bd a998 6cbb 1c49 833c 7691 d7bd
00000190: c001 d93d 2184 ff3d 90be 8e3d eab6 c13c
000001a0: a747 17be 2efd 57bd 1e9d a3bb 959d d93b
000001b0: efc8 afbd 6809 033d 453c bdbd 432e 7abd
000001c0: b576 ca3c fb4c 3d3d 9957 c0bd e15f f0bb
000001d0: 6863 423d e7b5 5d3d 6e2a 43bc 9604 8abd
000001e0: 9e3c 103d ba7e 783c 466a 3fbc ad84 9ebc
000001f0: 6c55 e6bd d44a 073d fa77 623d 8cf8 c13b
00000200: 68b2 03bd 57b8 be3c 5297 e63c 7e8c bf3d
00000210: 0745 a53c cded 45bd 86df a73b b3a6 383d
00000220: fa2b c3bd f570 073e 6756 8b3d 0956 363e
00000230: 2b76 ad3d 773b de3c ba1c 17be 66c0 543c
00000240: 24ed bbbc 508a e5bc b8e5 6f3d ceb0 483d
00000250: c341 98bc 4ffe b2bd f738 19bd 522c efbc
00000260: 5e49 f7bc e60d 903d eb57 aa3d 05a0 cb3d
00000270: 047b 163d 171d 18bd 47d5 b5bd e3d5 123d
00000280: 3620 68bb f415 54bd f22c 553d 27d2 7a3d
00000290: 659d 04be 90a2 033d e45b 003e 3aa2 1bbd
000002a0: b546 b63d 7a4d 853c aad1 5cbd d508 b33d
000002b0: a222 bbbd 6706 0f3d 291b acbc a737 d23d
000002c0: 83fa e03d 5cbc 5cbd 5682 b33c 44d4 24be
000002d0: 80bd a93d a229 c33d ff1c a5bd b3cd 433d
000002e0: 22ae a93c 18c3 06bc f2e9 8d3d 33d8 11be
000002f0: fcaf b63d a5e8 21be 257f df3c e350 14bd
00000300: 1902 12be 902c e5bd fdb2 4a3d a6e6 a63c
00000310: ba35 c33c 889c f5bc e980 9e3d f1f4 733a
00000320: 94d4 8ebd 6da3 16bd 43be 38bc 4271 503d
00000330: 4cb2 41bd 07d5 15bd 822e aabd fff4 a23d
00000340: ebf1 a53d 9eb2 20bc 219b 0f3d de29 5ebd
00000350: 6e04 ca3d be17 8dbd 1cec 9bbd a94f f2bc
00000360: 3ffc a63c e443 5dbd dd15 7e3d ef7d 51bb
00000370: 1ef2 c6bd 44b8 52bd 17e0 aa3d 9908 183c
00000380: 71c3 41bc bd40 193c fbd6 9abd 8957 f5bc
00000390: 8828 a7bd 66c1 bfbc 88c2 2ebd 49ef f0bc
000003a0: 4da3 32bd 3af5 903d 3690 783d 1e9c 0c3e
000003b0: f104 ecbc c2df 8f3d 37e8 bfbc 77dd 0d3d
000003c0: 5f92 a7bd 4d26 103e 53f6 adbd 3e52 ba3d
000003d0: fbd2 283c 6324 2dbd 62d2 bd3d a202 a53d
000003e0: 5efd 2abd 140b 633d 0719 9d3a 0c9c c4bd
000003f0: 9a10 2abd ae37 51bc 8a6b 333d 67b3 563d
-0.09212758 -0.004240331 0.010020397 -0.022200579 -0.07553583 0.04686545 -0.034507263 0.0018349135
0.08665614 0.024459312 -0.058326997 -0.058366593 0.033738043 -0.060060214 -0.0063794483 0.0074695977
-0.012231047 -0.13450669 -0.11268615 0.1202432 0.056190442 -0.08353098 0.002146706 -0.10591076
-0.014193499 0.03424232 0.09726101 -0.049854398 -0.045660447 -0.05356296 -0.024354879 0.08500467
0.10493463 -0.059113685 0.058832575 -0.09831959 0.006067512 0.055423897 0.08050345 -0.08978528
-0.08026204 -0.021105543 -0.028108072 -0.08098106 0.045499567 0.067168124 -0.0898332 0.017421354
-0.08888506 0.05375714 -0.082793206 -0.07188374 0.11341456 0.04745937 -0.018831236 0.041547645
-0.016125044 0.08123965 -0.06624107 -0.026053557 0.077011846 -0.08329241 -0.046154328 -0.011807501
-0.0045990255 0.060631692 0.030823573 -0.12372739 0.15022762 -0.0054077134 -0.030764319 -0.046527006
0.032014526 0.023615066 0.046565827 -0.037738465 -0.05965303 0.012791925 0.10986174 -0.020120788
-0.035991266 -0.060485076 -0.03449462 0.022429237 0.06446283 0.121916726 -0.08287964 -0.017311256
0.113795295 -0.1118662 0.08303812 -0.0010425806 -0.008235939 -0.06891047 0.05054409 0.062951595
-0.09658372 -0.0036101735 0.016026072 -0.10525791 0.10596037 0.124763735 0.06969941 0.02364679
-0.14773427 -0.052731685 -0.004993095 0.0066410997 -0.08583247 0.031991392 -0.09240011 -0.061079275
0.024714807 0.046215992 -0.09391708 -0.0073356484 0.047458082 0.054128554 -0.0119119715 -0.06739156
0.03521406 0.015166933 -0.011683052 -0.019350374 -0.11246762 0.033030346 0.0552902 0.0059195217
-0.032152563 0.02328126 0.028148327 0.09352969 0.020174516 -0.048322488 0.0051230816 0.04508085
-0.09529872 0.13226683 0.06803589 0.17806257 0.084698044 0.027127964 -0.14757052 0.0129853245
-0.022940226 -0.028020054 0.058568686 0.04899674 -0.018586045 -0.08739912 -0.03740784 -0.029195938
-0.030186351 0.07033901 0.0831755 0.09942631 0.03673841 -0.037137117 -0.0887857 0.03584851
-0.003541959 -0.05177875 0.052044816 0.061235573 -0.12950666 0.032137454 0.12535053 -0.03799651
0.08900205 0.016272295 -0.05391089 0.08741919 -0.09137465 0.034918215 -0.021009045 0.10264521
0.10985281 -0.05389057 0.021912735 -0.16096598 0.082880974 0.09529425 -0.08062171 0.047803592
0.020712916 -0.008225225 0.06929387 -0.1424263 0.08920285 -0.15811403 0.027282307 -0.036209952
-0.14258613 -0.1119014 0.049487103 0.020373654 0.02382933 -0.029981866 0.077394314 0.00093062135
-0.0697414 -0.03677695 -0.011275831 0.05088926 -0.047289178 -0.03658011 -0.08309652 0.079568855
0.08102783 -0.009808211 0.03506005 -0.054239146 0.09864126 -0.06889294 -0.07613394 -0.029579
0.020383952 -0.054019824 0.06203257 -0.0031965931 -0.09714149 -0.05144526 0.08343523 0.009279394
-0.011826382 0.009353814 -0.075605355 -0.029948967 -0.081620276 -0.02340765 -0.04266599 -0.029410975
-0.043612767 0.07078023 0.060684405 0.13731429 -0.02881095 0.070251 -0.023426158 0.034635033
-0.08182215 0.1407711 -0.08494248 0.09097718 0.010304208 -0.04227103 0.09268643 0.08057143
-0.041745536 0.055430487 0.0011985608 -0.09600076 -0.04151974 -0.012769623 0.04380373 0.052417185

encoder.downsample_blocks.0.1.bias f4 [64]
00000000: 4da0 283d 03e2 9e3e 1007 1e3d fd52 5a3e
00000010: 8cfb 65bd 457a dabc 0541 fe3b 2d9c f93c
00000020: 83c6 94be a072 4b3c ffe2 e7bd 7bed 60bd
00000030: ad90 553d 21f9 1b3e 4cb0 d6bc 0b74 053e
00000040: 9bd5 043e 7101 e33c 96aa 4e3c 9f9b edbd
00000050: 5fbc 6ebe 578a 3fbd 7916 bd3d 2b72 87be
00000060: a1b5 623b 880e 0bbe c639 ac3d 810d e3bb
00000070: a4c1 01bd 03da fcbd fc00 483c 9255 53be
00000080: 0cf6 033b 9832 2abc 5bc0 c83d 4f10 14be
00000090: ef67 b13c 8328 7bba 7dea 663d e8f6 28bc
000000a0: 2b80 aebd e16f 433d 8380 243d 79bd a3bb
000000b0: 412b 143e c3e0 b7bd f06d b7bd d046 3dbe
000000c0: af94 8fbe 71b0 3dbc fb64 54bd a61e fd3e
000000d0: 5580 3c3d 635f c7bb a7b0 94bd 912c a1bd
000000e0: 6eee 993e 7ee3 c53a b376 27bd c75d 62be
000000f0: 2bcf 393c 5117 a63b 628b ae3c 02d8 213c
0.0411685 0.31031808 0.038580954 0.2132072 -0.056148097 -0.02666963 0.007759216 0.030469978
-0.29057702 0.012417465 -0.11322593 -0.05491398 0.052139927 0.15231754 -0.026207112 0.13032548
0.12972109 0.027710648 0.012613913 -0.11601948 -0.23314045 -0.04676279 0.09232802 -0.2645429
0.0034593123 -0.13579762 0.08409457 -0.0069291 -0.03167881 -0.1234627 0.012207266 -0.20638111
0.002013567 -0.010388039 0.09802314 -0.14459346 0.021656005 -0.0009580927 0.05637597 -0.010312773
-0.0852054 0.047714118 0.04016162 -0.004996952 0.14469625 -0.08978417 -0.08956516 -0.18484044
-0.28043124 -0.011577711 -0.051854115 0.49437445 0.046020824 -0.006084369 -0.07260256 -0.078698285
0.3006472 0.0015097705 -0.040884685 -0.22106086 0.011340897 0.0050686975 0.021306697 0.00987816

encoder.downsample_blocks.1.0.weight f4 [64]
00000000: 13c0 273f 48af 0f3f fb69 173f d374 3c3f
00000010: 67b9 1f3f 65f5 3a3f 418b 553f a941 213f
00000020: 2c0d 193f 5add 493f 1b5b 323f 861f 4d3f
00000030: 94bb 3a3f 28b5 3e3f 401a 4e3f 6b4e 1d3f
00000040: e621 293f 5206 253f c5dd 683f 4f1a 483f
00000050: 1211 253f 950c 383f 3479 373f f111 3a3f
00000060: 3ef9 4d3f 7418 453f 50a2 323f e5a4 2a3f
00000070: ed6b 1a3f 7f6c 563f c8f7 373f d3b6 253f
00000080: dc90 223f da0b 3b3f 7d34 4a3f 566d 383f
00000090: 4c2c 363f 4772 203f 1261 4e3f 7dff 183f
000000a0: 02d8 1f3f 5e45 463f 8aef 593f 19b3 2d3f
000000b0: 00d7 3b3f c941 5a3f 75b0 293f 49d6 363f
000000c0: 8bd3 223f c15f 2e3f d11f 223f d711 493f
000000d0: f3a0 3e3f 427e 0c3f b893 173f b4ee 1e3f
000000e0: 768d 333f 1c17 263f 2258 543f 1a6e 243f
000000f0: 2689 2b3f d928 2b3f 7079 223f 6cf3 263f
0.65527457 0.5612683 0.5914609 0.7361576 0.62392277 0.7303069 0.8341561 0.62990814
0.59785724 0.7885338 0.69670266 0.80126226 0.7294247 0.7449517 0.80508804 0.6144778
0.6606735 0.6446277 0.90963393 0.78165144 0.6447917 0.718942 0.71669316 0.72683626
0.8045844 0.7699044 0.6977892 0.6665786 0.6032093 0.837593 0.7186246 0.6473209
0.6350229 0.7306496 0.7898634 0.72041833 0.7116134 0.62674373 0.8061687 0.59764844
0.62438977 0.77449596 0.8513113 0.67851406 0.7337494 0.8525663 0.6628488 0.71420723
0.6360404 0.6811486 0.633298 0.78542846 0.7446434 0.54880154 0.59209776 0.6208298
0.7013773 0.6487901 0.8294698 0.642305 0.67006147 0.66859204 0.6346655 0.6521518

encoder.downsample_blocks.1.0.bias f4 [64]
00000000: 352f 253d a601 3abb 07a9 cfbd 6625 d8bc
00000010: e703 a63c fa51 b0b8 77b1 05be 3da1 4f3c
00000020: e88d 06bd 16f2 37b9 8067 58bd faae 7abd
00000030: b48e babd d3f9 743d f36c 133b 1fa0 9abc
00000040: d7bc 97bd bd1f 3e3d 769c 9c3d 9703 363e
00000050: bb97 f83d 994d 19bd 2d9e 5c3c ec34 d43c
00000060: 355e 07be 6420 483c cae5 98bd f363 b73c
00000070: 5d49 723d a324 363d 8835 41bc b324 513d
00000080: d760 ec3c 2d0a f83b 4397 a5bd 333f c2bd
00000090: b0d0 f03d 3ed8 a7bc e312 943d de99 b03c
000000a0: a736 0abd d073 79bd 485a 28bd ac82 0cbd
000000b0: 9332 a6bc 9b4c 34bd 74b5 8dbd 6281 03bd
000000c0: 5c54 c53c 381f 863c a741 933b b340 8b3a
000000d0: e748 ae3d 016a 07bd 2086 e03d 6076 20bc
000000e0: dc81 b8bc 3efd 943b c7e6 92bc 9782 47bd
000000f0: d7dd 21bd d71c a2bb 3f3b 5b3d cbf4 4e3c
0.040328223 -0.002838233 -0.10139661 -0.02638502 0.020265533 -8.407603e-05 -0.13055979 0.01267272
-0.032850176 -0.00017542424 -0.05283308 -0.061202027 -0.0910925 0.059808563 0.0022495359 -0.01887518
-0.07409065 0.046416987 0.0764703 0.17774807 0.12138315 -0.03742752 0.013465446 0.025904141
-0.13219531 0.012214754 -0.07465704 0.022386527 0.059151996 0.044468533 -0.011792548 0.05106039
0.02885477 0.0075695724 -0.080854915 -0.094847105 0.11758554 -0.020488854 0.07230165 0.021557745
-0.033743527 -0.060901463 -0.041101724 -0.034304306 -0.020287788 -0.04401837 -0.06919375 -0.03210581
0.024088077 0.016372308 0.0044939104 0.001062414 0.08509999 -0.033060078 0.10963082 -0.009793848
-0.02252286 0.0045467904 -0.017932309 -0.048708525 -0.039518204 -0.0049472856 0.0535233 0.012631605

encoder.downsample_blocks.1.1.weight f4 [32, 64, 2, 2]
00000000: 8573 923d 6066 d13d 29e1 833c f3fd 80bd
00000010: ab9b 36bd e5f3 6c3c ef47 083b f5eb 363c
00000020: 46ea 5b3d 1e58 7e3c e5b7 31bd da9e c2bc
00000030: 9b6d 183d 220a 0b3e ca25 b63b 5bbd 50bd
00000040: 9a04 76bd 4f25 e8bd 0c34 c2bd efa6 b63c
00000050: 9504 f7bc 4420 0abe e470 22bd 19b4 0c3e
00000060: d287 1bbd 37c3 10be 8c47 bcbd 3b40 98bd
00000070: b3b4 753b 1078 4ebd 325c 9abc 350c e6bc
00000080: e2bf f9bd b070 3dbd 8f8f ba3c c9af ce3c
00000090: 10c4 32bd 6b8d 26bd f0fb c7bb 5de2 e4bc
000000a0: 1e4e d43c bc05 1f3d f963 9f3c f578 3c3c
000000b0: 11f5 00be 16be 38bd 34e4 143d 232f f13b
000000c0: ef24 493d ef1e 41bc 35a1 14bd 3447 543d
000000d0: d0dc 853d 2504 39bc 9965 e53d 47b0 1ebd
000000e0: 0a2e c2bd 7c85 9c3c 00da 16bd dad8 f1bc
000000f0: d78d 95bd 9977 5dbd 78ef 413d c432 e23b
00000100: f9b6 093c e163 babc 3e8c 75bd 0f46 72bd
00000110: b0d6 98bd 8711 6cbd 6bb0 5b3d 97f8 04bd
00000120: c7ff 983d 60e7 a43d 0753 36bc 72cb 36bd
00000130: 155a 153e a695 49bb b706 2f3d f3cd 813d
00000140: 2bcd 623d 5826 a13d 022f 6e3d f67f b7bd
00000150: 8992 253e 04f6 bc3d cfb2 c4bd cd20 a13a
00000160: 84d5 7abd 257c 72bd 820f 86bd 6de2 fd3d
00000170: 3849 6fbd eea4 523d ad11 fbbb f5e6 99bc
00000180: 8a04 f8bd 75b6 efbd f334 a2bd d875 c9bd
00000190: a704 59bd 12a6 b9bb 81de f5bd 8f3d 343d
000001a0: 6772 2a3b 0875 45bd 303d 783d 26f3 25bd
000001b0: 2b30 933c 3c74 0e3e d284 97bd 955a 663d
000001c0: 3ba3 a1bd f9d1 2ebc a4b0 afbd 9ec5 1e3d
000001d0: 19d6 a13c 7800 2ebc 3c59 24bd 7ff4 4ebb
000001e0: 704a 823c dadf 95bd 9cb8 80bd 5852 f9bc
000001f0: 9e42 ecbc 8e36 0c3e ad44 b53b 4f99 bdbd
00000200: 6a1a b53d 053f 683d 015a 55bd e1e3 993d
00000210: 5852 81bd 422a 22be 9302 9b3c 8ff8 4dbc
00000220: 4c5f 84bd 8c5d 80bd befd 09bd fe22 14bd
00000230: c3af c6bd 9aaa bcbd 456e 4b3d 9398 933d
00000240: 11bd 043e 8529 9d3d 60bc ed3d fe45 2a3e
00000250: 2dcb 54bd bd4c f13c dddf 223c 8561 36bd
00000260: 8b00 66bd 826b da3d 415f 84bb 5c6a 0a3d
00000270: 9edb 1bbd 1e59 dc3d e227 30bc 5df2 4dbd
00000280: de9d a4bd 9b91 313c fd67 503d 51db 5b3d
00000290: d722 86bb 27dd 16bd 935a 8bbd cd16 05bd
000002a0: 3b03 27bd 986a 79bc 0306 1d3d 387f 8fbd
000002b0: 1659 db3c bd15 06bd 3e3e fa3b 253d 9cbb
000002c0: 8c7d b13d 88e8 0fbc 65a4 003d e88b adbc
000002d0: 7364 393d 9732 e2bb f513 4cbd f64c b9bd
000002e0: 1114 2bbc 30ec 953b cfc8 bbbd 9b61 1a3d
000002f0: 8c6a 403d 4b3a 3e3c af6b 93bc 4ca5 053d
00000300: abde 0e3e 5b86 823c 24ee f2bd b687 413d
00000310: 6c0d 7fbd 83d0 11be 6885 173b 3512 42bd
00000320: 6d65 cd3d 65f5 dd3d 52e5 28bd 7292 55bd
00000330: bb6d dabd e217 023d 702a 0e3d d452 a23d
00000340: 8df6 ec3d fa14 cf3d c290 643d 5103 093e
00000350: 7265 eebd a132 d3bd 4bc8 fc3c e07e d43c
00000360: 8929 cb3d 9c00 c6bc 3f4b 6d3d 949a 88bd
00000370: 174c c73d 4db7 2e3d aa74 89bd 8b3b 90bd
00000380: 1bcd d2bd 641f 90bd 001c bebd 9c4c 9abd
00000390: 5208 08bc 258e cc3d 67ca aabd 4fff 6b3c
000003a0: 83ac 4b3b 8300 973d 634a 7fbd 4038 db3d
000003b0: 2759 d6bd 1344 e73c 5595 323c d758 f43c
000003c0: c8ca 8d3d 7c98 5e3d 889e 80bd da55 24bc
000003d0: d360 d93b 7bd9 8dbd d7bc acbb e00b aabc
000003e0: bfbd 2f3d e403 1fbd c072 32bd 6ad7 39bd
000003f0: 44db 75bc af60 4b3c b50f 053d b40a 8a3c
0.0715094 0.102246046 0.016098576 -0.06298437 -0.04458205 0.014462446 0.002079483 0.011164655
0.053690217 0.015523938 -0.043388266 -0.023757387 0.037213903 0.13578084 0.005558704 -0.050961833
-0.060062982 -0.11335241 -0.094825834 0.022296397 -0.030153552 -0.13488871 -0.039658442 0.13740577
-0.037971325 -0.14136969 -0.09193334 -0.07434126 0.0037491738 -0.05040747 -0.01884279 -0.028081993
-0.12194802 -0.046250045 0.022773532 0.025230305 -0.04364401 -0.04066221 -0.0061030313 -0.02793997
0.025916155 0.038823828 0.01945685 0.011503448 -0.12593485 -0.045103155 0.036350444 0.0073603555
0.04910749 -0.01178716 -0.03628655 0.051825717 0.06536257 -0.011292492 0.11201019 -0.03874233
-0.094814375 0.019106619 -0.036828995 -0.029522348 -0.073024444 -0.054069135 0.047347516 0.0069030244
0.0084054405 -0.022752704 -0.0599482 -0.059148844 -0.074628234 -0.057633903 0.053635042 -0.032463636
0.07470661 0.08051944 -0.011128194 -0.044627614 0.14585145 -0.0030759363 0.042731013 0.0633811
0.055371445 0.078686416 0.0581503 -0.089599535 0.1616918 0.09226611 -0.096044175 0.0012293101
-0.06123878 -0.059200425 -0.06545927 0.12396703 -0.058419436 0.05142682 -0.007662019 -0.018786887
-0.12110241 -0.11704723 -0.079202555 -0.0983693 -0.052982952 -0.005665549 -0.1200533 0.04400402
0.002600813 -0.048207313 0.060605228 -0.040515088 0.017967304 0.13911527 -0.0739838 0.05623873
-0.07892462 -0.010670179 -0.085786134 0.03876268 0.01975541 -0.010620229 -0.040124163 -0.0031578836
0.015904635 -0.07318087 -0.062852114 -0.030434772 -0.02884036 0.13692686 0.0055318684 -0.09257757
0.08842929 0.056700725 -0.052087788 0.075141676 -0.06314534 -0.15836433 0.018922126 -0.012571468
-0.06463489 -0.06267843 -0.033689253 -0.036166184 -0.09701493 -0.09212227 0.049665708 0.072068356
0.12962748 0.07673935 0.11608195 0.16628262 -0.051951576 0.029455537 0.0099410685 -0.044526596
-0.05615286 0.10665037 -0.0040396755 0.03379284 -0.03805124 0.10759185 -0.010751696 -0.050279964
-0.08037923 0.010837938 0.05088042 0.053675953 -0.0040935087 -0.036832 -0.06804385 -0.032492448
-0.040774565 -0.015223168 0.03833581 -0.07006687 0.026775878 -0.032735575 0.0076368144 -0.004768031
0.08666524 -0.008783467 0.03140678 -0.021184877 0.04526181 -0.0069030034 -0.04982372 -0.09047882
-0.010441796 0.004575275 -0.091691606 0.03769074 0.04697661 0.011610578 -0.017995683 0.032628343
0.13952129 0.015933206 -0.11861828 0.047248565 -0.06226866 -0.14239697 0.0023120288 -0.047380645
0.10029111 0.10837821 -0.041234322 -0.052141614 -0.10665461 0.031761058 0.03470844 0.079259545
0.11570463 0.10111423 0.055802114 0.13380171 -0.11640443 -0.10312391 0.030857226 0.025939405
0.099200316 -0.024170212 0.05793309 -0.066701084 0.0973131 0.042655278 -0.06711705 -0.07042607
-0.10293027 -0.07037237 -0.09282684 -0.07534143 -0.008302765 0.099880494 -0.083393864 0.014404132
0.0031078167 0.073731445 -0.0623268 0.10704088 -0.10466223 0.028230703 0.010899861 0.029827518
0.06923443 0.05434464 -0.062802374 -0.010030234 0.006633857 -0.06926247 -0.005271535 -0.020757616
0.042905565 -0.03882207 -0.043566465 -0.04537145 -0.01500589 0.012413188 0.032485683 0.016850807

encoder.downsample_blocks.1.1.bias f4 [32]
00000000: 2081 be3c 46e6 7b3d fa5d 943e d3c2 02bd
00000010: e21d d13c da0d 2fbd ada8 f7bd 1dc3 0d3e
00000020: 3ff4 b13d 035b f0bc 407d e9bd 35ea 04bd
00000030: 3e95 c43d 9cfa 973d a263 a4bd fb6f 1cbe
00000040: a740 4dbd 706d 133d 38b2 cb3c d0e1 a0bd
00000050: 0f21 e1bd 8417 febd dccb 013c bdfa c83c
00000060: 4c6d e83c 1220 ca3a da84 5abc 3693 83bb
00000070: 07e3 233d 12d8 a73d 0ffe 8fbd 132f 193e
0.023254931 0.061498903 0.28977948 -0.03192408 0.025526945 -0.04273782 -0.12092719 0.13843961
0.08689164 -0.029340273 -0.11400843 -0.03244992 0.09598778 0.07420847 -0.08026816 -0.15277092
-0.050110485 0.03599304 0.024865255 -0.0785557 -0.109926336 -0.12406829 0.007922139 0.024533624
0.02837243 0.0015420935 -0.013337338 -0.0040153516 0.040011432 0.08195509 -0.0703088 0.14959364

encoder.stages.0.0.depth_conv.weight f4 [32, 1, 5, 5]
00000000: c898 b93d cf2c 913d 581c 0fbb 144a 873b
00000010: b596 b23d cbf6 5abd 2e49 993c 1a7b 53bd
00000020: 74e0 0fbd 0e50 5c3c ffe6 a23c b81e 95bd
00000030: a9e2 b8bd 7504 bcbc bca4 d63d f1a4 073d
00000040: 3979 963b fa47 a9bd ff86 52bd 01b9 0ebc
00000050: aee9 31bd 827b 853d b470 d7bb 6085 dfbc
00000060: 9a4b 013c 5299 06bd 4488 4fbc 1d2e 0a3d
00000070: 1db5 273d 9a41 69bd 1e4e 05bc ca23 51ba
00000080: ff19 ac3d dd5d de3d e785 c4bd f74f 04bd
00000090: d961 cb3c 22db 8a3c 1d62 b53d 9326 bebc
000000a0: 6da2 7dbd 47b3 7b3d e50f 5c3d 842f b23d
000000b0: 0b75 37bd 9769 063d f315 72bd ffad 47bd
000000c0: 14d8 b3bd b563 8a3c 5dae 72bd 70dd 3bbc
000000d0: 1835 30bd fc01 55bd 8ada 33bc 4185 b03c
000000e0: 81ce b63d 2758 fc3d e53b 3c3d 83f7 6dbc
000000f0: d455 c43c d03c 053e db5a 8f3d 3f14 233d
00000100: 9c54 83bd b436 abbc 1889 cb3d bafb 25bd
00000110: 823e 82bd 031d 33bd 1edc 28bd f540 4dbd
00000120: e07c 13bc a580 1f3d 7ff0 0ebd 0a01 ad3d
00000130: 6b9b 4ebc ec41 de3b d369 403d 30e3 323c
00000140: a821 69bc dfc4 223d fd85 aabc 8488 363d
00000150: 9c9a 2d3d 4368 1abd 119f a1bc 8f83 5dbd
00000160: 13df 97bd 7218 82bd bf40 acbb 3735 02be
00000170: f31a a5bc c04c 103c bbf3 c13c c649 cf3d
00000180: 238d 75bd a233 6fbc 7dfd 10bd 6486 943d
00000190: 682b 963b 8566 e73c 7bda 0cbd d1b0 90bd
000001a0: 0290 2ebd 010c aebc bbfc 9b3c 506e e13d
000001b0: 627b 9b3d bc73 aabb de39 9338 f04a 1d3c
000001c0: 5cdc 0a3e 144a 343d a42c 3ebd f799 9e3c
000001d0: c487 8f3d 2855 753d 7d27 723c 4c23 bebd
000001e0: eb6b 59bd 404b 3a3d 2aca 003c 1ba6 c2bd
000001f0: a9d3 b13c 3b6e b5bb 26e3 3c3d fdb9 76bd
00000200: 0373 65bc 0079 703c 411c 083d 66fb 883d
00000210: 5397 693c 085c d6bc 1fc7 50bb 74c6 b63c
00000220: bf0a aa3c e1a0 853c 4e93 67bd f28e 6bbd
00000230: 2cfb 74bd 0827 a9bd e58b 53bb db84 15bd
00000240: 92d0 2b3c a62e df3b 8e39 343c 8b85 2fbd
00000250: 3cdb 89bc 06a0 a93d 5e6a 9d3d 6c49 09bd
00000260: 26e6 abbb ae15 52bd 31dd 953c 4eac a03d
00000270: 7673 923c 40a4 81bd 5026 31bd f097 cdbc
00000280: 6d84 51bc 03e7 47bd 0007 babd 8f1d a5bd
00000290: af1b bf3d 57b7 5f3c 8a4d c6bd c8ef 193c
000002a0: 35e5 c5bd 81ce 863d 1859 ab3d 40b4 163d
000002b0: 3aa5 823d 4eda 38bd 3023 10bc 1c9a f3bc
000002c0: a3ea 89bd 6dc8 0d3d da7e 27bd b3ac 51bd
000002d0: c448 67bb 6a96 703d 38c7 fc3d 4a30 813c
000002e0: 2401 38bd e506 82bd 878f 7d3d d9e3 053d
000002f0: 2f95 5a3d c531 9dbd e458 773d 09c6 fb3c
00000300: 8cdd 4f3d ceaa 33bc 6605 4e3d a115 2bbd
00000310: c85d fe3c 0487 3ebd e771 23bd ac4d 23bd
00000320: a8bc b1bc ae95 313d 415a d83c bdf7 0fbc
00000330: 264f debc e6ef a7bc 55b7 da3d c02e 463c
00000340: ac6c 17bd 1834 55bd f7c5 ffbc 4ef5 0c3d
00000350: 281d f03d 22e9 e13c 4fb1 96bd b1f9 f63c
00000360: e52b ae3d 74b3 953c a9e0 50bd 9571 163d
00000370: 2d05 c9bb b6ea 86bc 300e d8bc f614 973c
00000380: 12ef 30bc 83d2 a7bb 9f66 253b 24c0 adbd
00000390: 3652 603d f4f2 86bd 911b 8cbd 4404 c83c
000003a0: bc0b 243c 06ab b83d 6c7d 7c3d 73cf 0bbd
000003b0: b68a 143d 5617 adbd 2f14 d73d c4c6 823c
000003c0: 3fd2 3abd 2797 50bd 0c74 a43c dcfe 14bb
000003d0: 45a3 d53c 4548 39bd 483d 063d e656 d33c
000003e0: 18cc e03a 976f cbbc 827a 083e b07c c0ba
000003f0: 56d4 8cbd 2696 8b3d 041b 053d 3ab4 3a3a
0.09062344 0.07088625 -0.0021836963 0.004128704 0.08720151 -0.053458016 0.018711653 -0.05163107
-0.035126165 0.013446821 0.019885538 -0.0728125 -0.09027607 -0.022951344 0.10480639 0.033116285
0.0045920876 -0.082656816 -0.051398274 -0.008711101 -0.043435745 0.06517698 -0.0065747146 -0.027285278
0.00789156 -0.03286106 -0.012666766 0.033735383 0.040944207 -0.05694733 -0.0081363 -0.000797805
0.08403396 0.10857747 -0.09595852 -0.032302823 0.02482693 0.016950194 0.08856604 -0.023211753
-0.06192248 0.06145027 0.053726096 0.08700469 -0.044789355 0.032815542 -0.059102964 -0.04874992
-0.08781448 0.016893247 -0.059248317 -0.011466369 -0.043019384 -0.052003846 -0.010977397 0.021547915
0.08926106 0.12321501 0.045955557 -0.014524343 0.023966707 0.1301148 0.06999751 0.03981423
-0.06412622 -0.020900108 0.09938258 -0.04052327 -0.06359579 -0.04372884 -0.041225545 -0.050110776
-0.0090019405 0.038941044 -0.034897324 0.08447464 -0.012610297 0.006782761 0.04697592 0.0109184235
-0.014229216 0.039738532 -0.020815844 0.044563785 0.042383775 -0.037697088 -0.01972917 -0.054080542
-0.07415595 -0.06352319 -0.005256742 -0.12715612 -0.020154452 0.008807361 0.02367579 0.10121493
-0.05994905 -0.014599713 -0.035397995 0.072521955 0.004582811 0.028247127 -0.034388047 -0.07064975
-0.042617805 -0.021245958 0.01904141 0.110073686 0.07591893 -0.005201785 7.020285e-05 0.009600386
0.13560623 0.04401596 -0.04642929 0.019360526 0.07008317 0.059895664 0.014779923 -0.09284076
-0.053081434 0.04548192 0.0078607 -0.09504338 0.021707373 -0.005536822 0.046115063 -0.060235966
-0.014004472 0.014677286 0.03323007 0.066885754 0.01425727 -0.02616693 -0.0031856967 0.022311427
0.020757077 0.016312065 -0.056536965 -0.05750937 -0.05980985 -0.08259398 -0.0032279429 -0.036503654
0.010486739 0.006810981 0.01100005 -0.042851966 -0.016828172 0.08282475 0.076863036 -0.033517286
-0.0052459417 -0.051290207 0.018293949 0.078453645 0.017877322 -0.06330156 -0.04324943 -0.025096864
-0.01278792 -0.048804294 -0.090833664 -0.080622785 0.09331452 0.0136545515 -0.09682758 0.009395547
-0.096628584 0.06582356 0.08366603 0.036792994 0.06379171 -0.045130067 -0.008797452 -0.029736571
-0.067342065 0.03461497 -0.04089246 -0.05119009 -0.0035291174 0.058737196 0.123426855 0.015770096
-0.044922963 -0.06348971 0.061904456 0.032687996 0.05336493 -0.076755084 0.060387507 0.030734079
0.050748393 -0.010966016 0.050298117 -0.041768674 0.031050578 -0.04651548 -0.039903548 -0.039868996
-0.021696404 0.043355636 0.026410224 -0.008787093 -0.02713735 -0.020500135 0.10679499 0.012096107
-0.036968872 -0.052051634 -0.031222327 0.03441363 0.11724311 0.027576987 -0.07358038 0.030148359
0.08504466 0.018274046 -0.050995503 0.036729414 -0.00613465 -0.01646934 -0.026373953 0.018442612
-0.010799186 -0.0051215305 0.002523817 -0.084839135 0.054765902 -0.065893084 -0.068411954 0.024416097
0.010012563 0.09016995 0.06164305 -0.034133386 0.036265098 -0.084517166 0.105018966 0.01596392
-0.045610663 -0.0509254 0.020074867 -0.0022734916 0.02607883 -0.045234937 0.032773286 0.025798272
0.0017150668 -0.024833484 0.13327983 -0.0014685597 -0.06876437 0.06815748 0.032496467 0.0007122193

encoder.stages.0.0.depth_conv.bias f4 [32]
00000000: 3e3d 893a 6b1b 22bb 4565 473b 22e9 59bc
00000010: 4d98 84ba 6099 32bc bb3c aabb 739e eebb
00000020: 2230 9cbb 0590 02bc e81c ea3b 424a d53b
00000030: 8344 e4bb 494d d9ba 9d21 513c 0aeb 273b
00000040: 9188 deba 9f3a ca3b d539 2b3c 62e4 53bb
00000050: ae59 3ebc 73cc 5cba f806 ad3a 4b56 c2bb
00000060: 7571 f2bb 42b3 a7bb bac9 43bc c583 aeb9
00000070: c13d f83b c75c 6f3c 379a 3c3b e17a 253c
0.0010470522 -0.002473558 0.0030425352 -0.013300212 -0.001011619 -0.010900825 -0.005195228 -0.007282072
-0.00476648 -0.007968907 0.007144559 0.0065090964 -0.006966175 -0.0016578819 0.012764362 0.0025622272
-0.0016977956 0.006171539 0.0104508 -0.0032332172 -0.011618061 -0.00084227993 0.0013200929 -0.005930697
-0.007398779 -0.0051178047 -0.011949951 -0.00033286042 0.007575721 0.014609522 0.0028778443 0.010100097

encoder.stages.0.0.norm.weight f4 [32]
00000000: b2ee 643f 974f 783f b13c 813f 0ab5 673f
00000010: 6ae3 713f 1ebb 603f 6cd3 723f 566b 6e3f
00000020: 8e88 6d3f 9fa9 573f d0fa 6e3f e8ab 6c3f
00000030: 8783 6f3f 5a10 613f b54f 643f 348d 6f3f
00000040: 6cf6 803f 3219 5a3f 1289 5d3f 36cb 703f
00000050: 0462 713f 8467 6f3f 865e 603f 673c 7d3f
00000060: 4986 5b3f 2b5f 583f cd48 743f f5c6 823f
00000070: c068 7d3f ac9f 6e3f a1c7 6b3f dc94 813f
0.8942672 0.96996444 1.0096647 0.9051062 0.9448763 0.8778552 0.94853854 0.9313253
0.9278649 0.84243196 0.9335146 0.9244981 0.9356007 0.87915576 0.89184123 0.93574834
1.0075202 0.85194695 0.8653728 0.94060075 0.94290185 0.9351733 0.8764423 0.9892029
0.8575178 0.84520215 0.95423585 1.0216967 0.9898796 0.9321239 0.92101485 1.0123553

encoder.stages.0.0.norm.bias f4 [32]
00000000: 345e 7bbb 7944 01ba 8bf3 07bb 48c7 e1bc
00000010: 9b3a 9abc 0274 813a 56f3 d4bc 0e5d 52bb
00000020: 2f6d 92bc 9575 84bc 8e48 d7ba 5ea3 713c
00000030: 83e8 f83b 6b28 02bc d643 5a3b 8071 cc3b
00000040: 2067 c43b 8b30 473c 7d63 823b 97c2 3e3c
00000050: f471 40bc 1809 d1bb 32d4 d4ba 9c5c 4abc
00000060: f883 edbb 0745 adbb ee2b c8bc 4adf 36bc
00000070: 743d 993c 5350 093d 9cd9 923b 5d14 b3bb
-0.003835571 -0.00049311627 -0.0020744528 -0.027560845 -0.018826773 0.0009876492 -0.025994938 -0.0032098922
-0.017874328 -0.016169349 -0.0016424821 0.014748422 0.007596077 -0.007944207 0.0033304594 0.006239116
0.005993739 0.01215757 0.003979145 0.0116430735 -0.011745919 -0.006379258 -0.0016237556 -0.012351181
-0.007248398 -0.0052877697 -0.02443501 -0.011161635 0.018706061 0.03352387 0.0044815075 -0.005465074

encoder.stages.0.0.conv1.weight f4 [128, 32, 1, 1]
00000000: 0345 dcbc cbe0 343d ee3c b5bd 25d6 24be
00000010: 0658 b13c 40a2 dfbd d5c9 0cbe aefb 953d
00000020: c76d 2abe d7f5 073e 4e15 b7bd 6461 323e
00000030: 5c35 283e f1e3 dcbc d570 5f3d 354c 04bd
00000040: b48d 4e3d 2c02 193e f2e7 bdbd 9456 f43d
00000050: 0d06 153e d7b9 e53c a137 0538 80f2 2abe
00000060: a7df 0a3d 5849 92bd c55f cfbd 06c8 563d
00000070: 3664 ee3d 11f3 0d3e 060b 90bd 99d1 f73d
00000080: 60bc d4bd 182b 86bd 8530 3bbe 2ba4 723c
00000090: 92fb 19bd a576 8f3c 7863 c43d 0807 53be
000000a0: 5b66 253e 93ee 79bd 45be c8bb be2f 9cbd
000000b0: 53f5 26be 7940 0cbe 6977 31be 7471 e43c
000000c0: e33a 00be dee4 c8bd 866e 33be 61b4 cb3d
000000d0: 5405 17be 7f98 96bd d087 be3d a159 4d3e
000000e0: 6d1b b43d b5ba 593e 4b63 0c3e cd57 c33c
000000f0: 4b73 ccbd f768 1cbe ba77 613d c87e b53c
00000100: a8e2 8fbd 0a31 bebb f392 8f3d 84de bbbd
00000110: ae75 78bd 6863 acbc ead2 60bd 1c3b b2bc
00000120: 41c5 d13d 537e 93bd 4a59 ac3d be88 91bd
00000130: 673d 363e 15dd b03c ce56 08bc c1f7 0dbe
00000140: a1a5 14be c1ca 85be 46b7 5e3e b8c2 a13d
00000150: 279f 163e 9acf 1d3d b396 15bd 26b8 b93d
00000160: 0bdc e43d 6be3 87bd 1d27 7dbd 9bfe 033e
00000170: 3f54 1ebd 13c2 95bd 1c3e 593c 0065 29be
00000180: 4510 983d 8b9c 02be d95d 8b3d d357 4a3d
00000190: c749 293e 2e8d 473d 2156 b4bd b655 163d
000001a0: 86d4 2b3d 2e93 643e a776 b03c 3d1c 233d
000001b0: 43a1 d23d f747 9dbd 01a1 bebd 7ac4 07be
000001c0: 49c9 9cbd a25b 9d3d 1397 f93b 7762 5bbd
000001d0: 00a8 1cbe b81e fd3d 9036 1a3e dc8f e9bd
000001e0: b82d 0f3e 249a 533d 4d22 ccbd bd0e 073d
000001f0: 4821 403d 9966 8f3d 2a69 223e 7ac3 3dbe
00000200: afcc 18be 2cc8 06be 6695 55bd 50b5 593c
00000210: 456b edbc b3f1 b3bd 8cda bf3d d41f 973d
00000220: ca58 afbd 0c18 303e 2ab2 193e 7840 813d
00000230: 84ff aebd e0c5 0dbe c4ea 76bd a819 a83d
00000240: dcbe f93d 8e17 2d3e 7bc4 0ebd 423f 2abe
00000250: 84a1 1ebe 1bc7 413e 6bc6 9abd 121d 283d
00000260: 06c7 5d3d 1235 8bbd ff82 c5bd c9d0 0ebd
00000270: 7681 233d 0cca 2c3e 8e2f fdbd 1047 43be
00000280: 365d b8bd 2334 71be 2a34 2b3e 889d 2fbe
00000290: 5522 2d3e 4946 1e3e 778f 243e 1920 2abd
000002a0: f17e bd3c ca97 d6bd 540b 39be 23c9 32bd
000002b0: 4edc 0fbe d976 d63b 44d8 e9bd c810 663d
000002c0: 619b e53d 30d1 123e 122b 3c3e 42ba 60bd
000002d0: 9b11 9f3d 8dc5 303e 509b ca3d 662e 583c
000002e0: 1cc5 8fbd 1d3c bc3b f510 12be ab44 14be
000002f0: c73f 843b 1a53 94be dbe8 11be d383 b83d
00000300: d95f 793d 039a a6bd 32dd 7b3d 6338 e43d
00000310: 9777 b93d c9ad 3cbd 61b4 3abe 8449 673e
00000320: 5ec6 e4bd 4506 093e 54c8 21be cc90 0ebd
00000330: d227 87bd e9ac 15bd b27c 85bd 9f7e 013e
00000340: fdba 443e 4244 103d 0ae0 d73d b6c7 d4bd
00000350: f146 39be 0abc abbd b8bb 843e 360b 833d
00000360: dd29 37bd 1af2 42be 1a49 553e 4573 b8bd
00000370: 3709 17bd b38b 1abe 3590 2abe 8505 14be
00000380: 1954 8d3d 60fb dd3d 6bca c4bc 3419 07ba
00000390: edfb 1bbe 26ba 9dbc ea54 02bd f5b1 02bd
000003a0: 01e5 f0bd 5398 40be 2c96 c2bd 6f4a 32be
000003b0: 8239 4d3e e45d efbc 3aa6 b03d 4f20 153e
000003c0: 1e68 ec3d c10d 19be 63a4 d2bc 6981 403d
000003d0: 59e2 343d 2263 fe3d 4137 62be 18b7 5e3e
000003e0: 0b65 12be 9410 3d3e ba86 cdbd a30d da3d
000003f0: 9f22 e7bb 1a3c 1e3e 7b2c e03d b088 103e
-0.026888376 0.04415969 -0.08849512 -0.16097315 0.021648418 -0.109196186 -0.13748868 0.07323395
-0.16643439 0.13277374 -0.089396104 0.17419964 0.16426605 -0.02696416 0.054550964 -0.03229924
0.050428107 0.14942235 -0.09272756 0.11930576 0.1455309 0.028042717 3.176148e-05 -0.16694069
0.033904698 -0.071428955 -0.101256885 0.05243685 0.116402075 0.13862254 -0.070333526 0.121005245
-0.10387492 -0.06551188 -0.18280227 0.0148096485 -0.03759343 0.017512629 0.09589285 -0.20608151
0.16152327 -0.061018538 -0.0061261975 -0.076262936 -0.16304521 -0.1369647 -0.17330708 0.02788613
-0.12522464 -0.09809278 -0.1752263 0.09946514 -0.14748126 -0.07353305 0.09303248 0.20053722
0.087942936 0.2126263 0.13709752 0.023845578 -0.09982928 -0.15274416 0.05504582 0.02215518
-0.07025653 -0.0058041858 0.0701045 -0.09173301 -0.060659103 -0.021043494 -0.054888643 -0.021756701
0.10242701 -0.07201829 0.08415468 -0.071061596 0.1779686 0.021589795 -0.008321477 -0.13864042
-0.14516307 -0.2613125 0.21749601 0.07898468 0.1470915 0.038528062 -0.03652067 0.09068327
0.11174782 -0.066351734 -0.06180488 0.12890093 -0.038654562 -0.07312407 0.013259437 -0.16542435
0.07424978 -0.12755029 0.068050094 0.049400162 0.1653205 0.048718624 -0.0880549 0.036702834
0.041950725 0.2232177 0.021540953 0.039821852 0.102846645 -0.07679742 -0.09308053 -0.13258544
-0.076555796 0.07683493 0.0076168864 -0.0535607 -0.15298462 0.12359375 0.15059876 -0.11404392
0.13982284 0.05166067 -0.0996748 0.03297304 0.04690674 0.07001991 0.1586043 -0.185316
-0.1492183 -0.13162297 -0.05214443 0.013287857 -0.028981814 -0.08786335 0.093678564 0.073791176
-0.08561857 0.17196673 0.1500937 0.063111246 -0.085448295 -0.13845015 -0.060282484 0.082080185
0.12194607 0.16903517 -0.034855347 -0.16625693 -0.15491301 0.18923609 -0.075573765 0.04104335
0.05414488 -0.06797232 -0.09644126 -0.03486708 0.039918385 0.1687395 -0.12362586 -0.19070077
-0.090021536 -0.23555045 0.16719118 -0.17149937 0.16907628 0.15456499 0.16070352 -0.041534517
0.02313182 -0.1047817 -0.18070728 -0.04364885 -0.14048883 0.0065449295 -0.114182025 0.056168348
0.11211277 0.14337611 0.18375805 -0.05486513 0.0776703 0.1726286 0.09892905 0.013194656
-0.070200175 0.0057444707 -0.14264281 -0.1447932 0.004035923 -0.2896965 -0.14248984 0.090095185
0.060882423 -0.08134844 0.061490245 0.111435674 0.09056013 -0.046064172 -0.18232872 0.22586638
-0.11170648 0.13381298 -0.15799075 -0.034806058 -0.06599392 -0.036541853 -0.06517924 0.12645958
0.19211955 0.035221346 0.10540779 -0.10389654 -0.18093468 -0.08385475 0.25924468 0.06398623
-0.04471766 -0.19037667 0.20828667 -0.09006361 -0.036874022 -0.15092354 -0.16656573 -0.1445523
0.06900806 0.108389616 -0.024022302 -0.0005153597 -0.15232821 -0.019253802 -0.03181926 -0.031907994
-0.11762429 -0.18808107 -0.09501299 -0.17411207 0.20041469 -0.029219575 0.08625455 0.14563106
0.11543296 -0.14946653 -0.025713151 0.046998415 0.044161174 0.12421252 -0.2209139 0.21749532
-0.14296357 0.18463355 -0.10035463 0.10647132 -0.0070536877 0.15452614 0.10945984 0.14114642

encoder.stages.0.0.conv1.bias f4 [128]
00000000: 1aa1 02bd 8144 1abc 8c6d e1bc c342 44bd
00000010: 39f6 8dbc b39a f5bc 9a4c acbc e85c 073c
00000020: 7fa7 f5bc e3fa bc3b a2ae 2abd 20ea 18bb
00000030: 3743 6a3c e609 debc 1060 19bc 4e3e d3bc
00000040: d15d 34bd 4a04 21bd 9f8d 26bd 2043 27bb
00000050: e58a 6fbd 769f bdbd 381e bfbc ae62 27bc
00000060: 5dd4 17bd 1ff8 09bd 0ac9 9abc 537e c33b
00000070: 99f6 193c f877 cbbc 0535 e6bc 987e 96bb
00000080: b5ff aabc c64a 02bd d2c8 99bb 77aa cdbc
00000090: 0f97 253b 62a0 e7bc 3316 8739 90c4 22ba
000000a0: 1f5c a5bc eb30 c63b c6ad 56bc 9c48 533d
000000b0: 00c6 b0bb ab93 4fbd 9330 b9bc 5960 9e3b
000000c0: 0f6f 0a3d 6bec 313c 4c1f b4bc 78f8 b53c
000000d0: 7d0c 16bd 0345 93bc 8abc 33bb a892 b63c
000000e0: 3a2b 1ebd f46b c3bb 65e2 793b 0536 fdbb
000000f0: 3624 75bc 3c63 833b 0ba7 16bc 894b e2bc
00000100: bd56 87bd c39b 273b 520d 28bd 1dd0 e83b
00000110: 7253 9ebb ec73 36bd 3646 363c a982 c839
00000120: 6703 88bb 56dd 9ebc b219 b8bc f103 77bc
00000130: 1328 56bb f0d3 28bd 2b27 4abc 02a4 b9bc
00000140: a522 3fbc 9632 7dbc 2ccb 18bb 9138 84bb
00000150: 05d9 25bd 3082 773b 3083 88bc 8b65 11bd
00000160: 6033 4bba a1e3 97bb 4e82 d0bc fa31 89bc
00000170: 1ca2 17bd ca07 06bd 6cfd 34bc d3af 7bbc
00000180: 1ae0 83ba b704 dabc fb07 02bc d875 f4bc
00000190: 6236 743c a348 e3bb 873a a8bb e55a 9dbc
000001a0: 50c5 963b b145 80bb 64d7 bfbc d410 debc
000001b0: ae77 a9bc 6ead 01bd 72af 48bc 2ad6 563c
000001c0: 3046 d2bc 670a e4bc 704b eabc 1fb7 e6bc
000001d0: 3a33 b3bc f13d e3bc d845 93bd c1ee e3bc
000001e0: 8716 91bd 4fff e6bb d1ef eebc 1ffd dd3c
000001f0: 640e c13c fb5a d5bc 1be0 8f3b dc72 0fbd
-0.03189192 -0.009415747 -0.027518056 -0.04791523 -0.017329322 -0.029980993 -0.02103262 0.008261897
-0.029987095 0.0057672127 -0.04167045 -0.0023332909 0.014298252 -0.02710433 -0.009361282 -0.025786545
-0.044034783 -0.03931073 -0.040662404 -0.0025522187 -0.05848207 -0.092589304 -0.02332984 -0.010216398
-0.03706776 -0.033683892 -0.018894691 0.0059659868 0.009397172 -0.024837479 -0.028101454 -0.004592728
-0.020873884 -0.03180959 -0.004693129 -0.025105698 0.002526704 -0.028274719 0.00025765746 -0.00062090997
-0.020185528 0.006048312 -0.013102954 0.051582918 -0.005394697 -0.050677937 -0.02260617 0.004833263
0.03379732 0.010859589 -0.02198758 0.022213206 -0.036633004 -0.017977243 -0.002742561 0.022286728
-0.038615443 -0.0059637967 0.0038129326 -0.007727387 -0.014962247 0.0040096324 -0.0091951 -0.027623909
-0.06608341 0.002557502 -0.04102833 0.007104887 -0.004831725 -0.044544145 0.011125138 0.00038244322
-0.004150796 -0.01939265 -0.02247319 -0.015076623 -0.0032677695 -0.041217744 -0.01233844 -0.022661213
-0.011665975 -0.015453955 -0.002331446 -0.0040350636 -0.04049017 0.0037766807 -0.016664118 -0.03549723
-0.0007751491 -0.00463529 -0.02545276 -0.016747463 -0.037019834 -0.032722272 -0.011046749 -0.015361744
-0.0010061294 -0.026613576 -0.007936473 -0.029841349 0.014905544 -0.006936149 -0.00513393 -0.019208381
0.004601158 -0.003914558 -0.023418136 -0.027107634 -0.02068695 -0.031659536 -0.012248861 0.013112584
-0.025668234 -0.027836991 -0.028600425 -0.02816349 -0.021875013 -0.027739497 -0.07191056 -0.027823808
-0.07084375 -0.007049478 -0.029167088 0.027098237 0.023566432 -0.02604436 0.004390729 -0.035021648

encoder.stages.0.0.conv2.weight f4 [32, 128, 1, 1]
00000000: ddc0 133c 1696 bebc 31cb d93b 9ca7 c53c
00000010: e05e 48bd 385d 56bd f9d9 09bb 6f55 35be
00000020: 6cae bfbd 1f19 84bd 8dc4 003e 76ae 803b
00000030: e9c7 22bd 6c0f c5bd 2d59 903d 539b a53d
00000040: 096b 683d adb7 1b3d 7622 e93d fcf5 44be
00000050: 9093 e7bc 4db2 6e3d 93f3 88bb c293 f73c
00000060: 6db0 c3bd b2a8 bb3d d854 543e 02f3 493e
00000070: 13b6 953d a654 1e3d 9a4f fa3d ac34 2f3e
00000080: a804 083d db18 58be 0743 2a3e 7541 1e3e
00000090: b85d 8fbc 0534 ae3d 4147 113e 7244 21be
000000a0: d344 073e 243b d4bd faa8 e03d c2de 1fbe
000000b0: 100c b63d a668 7c3d 4cbe af3d fffa 3bbd
000000c0: a7c6 2cbe 04ff 193c 35aa 2fbe 28f4 203e
000000d0: c021 b2bc ce1d 4c3d a64c c03d ab61 abbc
000000e0: eed5 dfbc 8284 91bc 4620 783c 5ce1 e4bd
000000f0: 0774 e4bb d2e6 d9bd 7e69 f8bd d05d 93bd
00000100: f40d 29bd cbff 8dbc e792 b1bc feba a53a
00000110: 1312 94bd bb78 c33d 11cd f7bd ff56 2e3d
00000120: d84e 36be 18a6 f53c 76e3 94bd 0005 09bd
00000130: 950d 2ebe 64fa d23c 9586 41bd 857e 0dbe
00000140: 07d0 1ebe 9d51 443e fce7 973d 515e cbbb
00000150: 09b4 dc3c 0971 e63d 04aa 8b3c 600c 933d
00000160: bf69 0c3e f138 b43d 0a24 3f3c 0d8f 57be
00000170: 6680 f73d 5da2 a4bd 68ce 88bc b5fb 2fbc
00000180: 42fa 85bd c243 09be e001 ff3d 6a3d 7abd
00000190: 2919 37be 5aef e93d fb79 623d 8782 c3bc
000001a0: e4ad 423d 4d18 f63d 521b c93d b76f 243e
000001b0: d990 283e 1634 833d 9a8a 353e de40 6bbc
000001c0: f496 253d a6ef f33d b57d 493d 10dc 74bd
000001d0: b94b 103e b52f 023d e42d 72bc ad8d 49be
000001e0: b92c 483d 0f41 1c3e 735d 153e dbde a2bc
000001f0: 5f69 393d b200 41be ed73 ed3d 7c95 01be
00000200: 8375 1fbe b113 c1bd 1a03 9d3d db1a 8b3e
00000210: 296a c2bc 4a8e 41bd 9dcb 253d 6775 1bbe
00000220: d24b 8d3d bbb7 e8bd 5ce2 34be f585 27be
00000230: fb7d 21be 24be 5dbe 921b 8e3e f218 9bbd
00000240: 55da 953d 3f6c 003d 188c 643d 5706 e6bd
00000250: cf47 473e ada2 e0bd 7db4 b9bd 203f 0e3d
00000260: eb96 953d d234 89bd cf29 ba3d 1c70 92bc
00000270: 9ca0 47be c3d7 073e fbc6 f4bd 9747 493d
00000280: 38a3 313d d91f a73d 2f06 9b3d 6857 1b3d
00000290: cc8e 2cbe f5f3 ebbd 4f3a 613c 9d39 38bd
000002a0: f0b4 1b3e 1871 eabd bd40 8fbc 6e83 7bbd
000002b0: c886 27bd 5b61 3abe ab0d 093e 83c3 2ebe
000002c0: d6c6 133e a92d 41be 837a 0abd fb04 aa3d
000002d0: a0c7 7f3d a8f1 2e3e 5fc5 47be fb20 a3bd
000002e0: d92f a63d 3b4b c0bc 7924 09be cf94 0e3e
000002f0: c0f3 4cbd 2c59 ce3b b5cf 1ebe 3d1a 123b
00000300: 3606 403e 6357 9c3d d94e 013e 61e1 e73d
00000310: bca8 003e c671 ed3c 5bc7 45be ce6b 283e
00000320: 2c63 873d c687 fabd 39dd 9c3d bcdd 2e3d
00000330: 3ff9 27bd 5dfe d4bc b337 07be dc13 3b3e
00000340: f16a adbb 3cf3 223d c6dd 7839 9341 bebd
00000350: 2fbb f73c a0a7 7b3d 7f7d 4abe 901a dd3d
00000360: c0c1 59bd 95c0 12bd 921b 353e c11e e83d
00000370: d38c ad3d b9db e9bc 9e86 3cbe 02aa ccbd
00000380: f4c6 5e3e 3c55 d83d 6995 efbd b50e 573d
00000390: ed0f 9cbc 5765 28be 427a ba3c 6389 4b3d
000003a0: 6e68 e43d 6c35 80be 0062 553e 0ac0 d13d
000003b0: 003c a2bd 8c95 89be 64c0 f53d 2387 433e
000003c0: e019 0dbe 6351 033d 0b4e 43be ce10 6a3c
000003d0: b46f b1bd 59ab 073e 5eba ac3d d44e 1f3e
000003e0: 5e6b 1b3e dc8f cbbd bd43 903d b2b3 653d
000003f0: 61af 1fbe 0178 bdbd f0db ac3d 793b 923d
0.00901815 -0.023264926 0.0066465368 0.024127774 -0.048918605 -0.052334994 -0.0021034463 -0.17708372
-0.0935944 -0.06450104 0.12574978 0.0039270474 -0.03974143 -0.09622082 0.07048259 0.08086266
0.0567427 0.038016964 0.11383526 -0.1923446 -0.028268605 0.05827551 -0.004179427 0.030221824
-0.09555135 0.091630355 0.2073549 0.19721606 0.073101185 0.038654946 0.12222214 0.17109936
0.033207566 -0.21103232 0.16627131 0.15454657 -0.017500743 0.08506016 0.14187337 -0.15748766
0.13209848 -0.10362843 0.1096973 -0.15612319 0.088890195 0.061623238 0.08581218 -0.045893665
-0.16872655 0.009399179 -0.17154773 0.15718138 -0.021744609 0.04983311 0.093896195 -0.020920595
-0.02732369 -0.01776338 0.015144413 -0.111757964 -0.0069718393 -0.106397286 -0.12129496 -0.07195628
-0.041273072 -0.017333886 -0.021676494 0.0012644229 -0.0723001 0.09544512 -0.1209966 0.042563435
-0.17803514 0.029986426 -0.07269947 -0.033452034 -0.16997369 0.025754161 -0.047247488 -0.13817795
-0.15509044 0.19171758 0.074172944 -0.0062063118 0.026941316 0.112520285 0.017048843 0.07180095
0.13712214 0.08799923 0.011666307 -0.21050663 0.12085037 -0.08038781 -0.016699985 -0.010741164
-0.065418735 -0.13404754 0.124515295 -0.061093725 -0.17880692 0.11422606 0.05529211 -0.023865951
0.047529116 0.12016354 0.09819664 0.16058241 0.16461505 0.06406419 0.17728654 -0.014358727
0.040427163 0.11910944 0.04919215 -0.05978018 0.14091386 0.03178378 -0.014781449 -0.19682951
0.048870776 0.15259193 0.1458643 -0.019881656 0.045266505 -0.18847921 0.11594377 -0.1265468
-0.15572171 -0.09427584 0.07666607 0.27168927 -0.023732262 -0.047254838 0.040477384 -0.15181504
0.06899227 -0.11363169 -0.17664474 -0.16359694 -0.15770714 -0.21654564 0.2775541 -0.07573117
0.07317034 0.03135323 0.055797666 -0.11231678 0.19460987 -0.10968528 -0.090676285 0.03472817
0.07304176 -0.06699528 0.090900056 -0.017875724 -0.19494861 0.132659 -0.11952015 0.04914054
0.04336855 0.08160371 0.07569539 0.037925154 -0.16851348 -0.115211405 0.013746812 -0.04497682
0.15205741 -0.11447352 -0.017486924 -0.061404638 -0.04090002 -0.182012 0.1338412 -0.1706677
0.14431319 -0.18865074 -0.033808243 0.08301731 0.062446237 0.17084372 -0.19508885 -0.07965275
0.08114595 -0.023473373 -0.1339282 0.13923953 -0.050037146 0.006297251 -0.15508921 0.0022293471
0.1875237 0.07633855 0.12627734 0.113222845 0.12564367 0.028984915 -0.1931433 0.16447374
0.066107124 -0.12232928 0.076593824 0.04269193 -0.041009184 -0.026000196 -0.13204841 0.18269295
-0.0052922894 0.039782748 0.0002373374 -0.09289851 0.030240623 0.061439157 -0.19774435 0.10796082
-0.05316329 -0.03582819 0.17686298 0.11333991 0.08474126 -0.028547155 -0.18410727 -0.09993364
0.21755582 0.10563132 -0.116984196 0.05250426 -0.019050563 -0.16444908 0.022763375 0.04969157
0.11152731 -0.25040758 0.20838165 0.10241707 -0.079216 -0.26871908 0.11999586 0.1909452
-0.13779402 0.03206004 -0.1907274 0.014286233 -0.08663884 0.13248958 0.08433984 0.15557414
0.15177676 -0.099395484 0.0704417 0.056079574 -0.15594245 -0.092514046 0.08440387 0.0714025

encoder.stages.0.0.conv2.bias f4 [32]
00000000: 30a8 ebbb 9b5d cfbc 3665 933b 6780 edba
00000010: bacf 303c 710a 62bc 03bf 34bc 091b adbc
00000020: 8002 a83c a9b3 723c 78db eabb 73c9 723c
00000030: fdf4 e7bb 6f12 5dbc 8679 a63c 65fd 20bc
00000040: aff5 ddbc 6444 d739 77f3 183c f64f 74bb
00000050: 1b45 97bb 2512 03bd 0761 d4bb dbc0 8dbc
00000060: 121d 95bc 267b 91bb 53e1 5fbb e13f c039
00000070: 45f0 60bc 5605 803c ca5f 873c ed5e afbc
-0.0071916804 -0.02531319 0.0044981493 -0.0018119932 0.010791713 -0.013796435 -0.011031869 -0.021131055
0.020509005 0.014813342 -0.007167276 0.014818537 -0.0070787654 -0.013493164 0.020321619 -0.009826039
-0.02709469 0.0004105895 0.00933539 -0.0037279106 -0.0046163923 -0.031999726 -0.006481293 -0.017303875
-0.018202338 -0.0044397293 -0.0034161403 0.00036668687 -0.01372916 0.015627544 0.016525168 -0.021407569
